…
I1201 03:07:15.327613 18454 net.cpp:322] The NetState phase (0) differed from the phase (1) specified by a rule in layer accuracy
I1201 03:07:15.329192 18454 net.cpp:58] Initializing net from parameters: 
name: "ResNet-152"
state {
  phase: TRAIN
  level: 0
  stage: ""
}
layer {
  name: "resnet_152"
  type: "Data"
  top: "data"
  top: "label"
  include {
    phase: TRAIN
  }
  transform_param {
    mirror: true
    crop_size: 224
    mean_file: "/home/ai/large/input224-2/100-web/croporg/mean224x224.binaryproto"
  }
  data_param {
    source: "/home/ai/large/input224-2/100-web/croporg/train224x224_lmdb"
    batch_size: 6
    backend: LMDB
  }
}
layer {
  name: "conv1"
  type: "Convolution"
  bottom: "data"
  top: "conv1"
  convolution_param {
    num_output: 64
    bias_term: false
    pad: 3
    kernel_size: 7
    stride: 2
    weight_filler {
      type: "xavier"
    }
    bias_filler {
      type: "constant"
      value: 0.2
    }
  }
}
layer {
  name: "bn_conv1"
  type: "BatchNorm"
  bottom: "conv1"
  top: "conv1"
  batch_norm_param {
    use_global_stats: true
  }
}
layer {
  name: "scale_conv1"
  type: "Scale"
  bottom: "conv1"
  top: "conv1"
  scale_param {
    bias_term: true
  }
}
layer {
  name: "conv1_relu"
  type: "ReLU"
  bottom: "conv1"
  top: "conv1"
}
layer {
  name: "pool1"
  type: "Pooling"
  bottom: "conv1"
  top: "pool1"
  pooling_param {
    pool: MAX
    kernel_size: 3
    stride: 2
  }
}
layer {
  name: "res2a_branch1"
  type: "Convolution"
  bottom: "pool1"
  top: "res2a_branch1"
  convolution_param {
    num_output: 256
    bias_term: false
    pad: 0
    kernel_size: 1
    stride: 1
    weight_filler {
      type: "xavier"
    }
    bias_filler {
      type: "constant"
      value: 0.2
    }
  }
}
layer {
  name: "bn2a_branch1"
  type: "BatchNorm"
  bottom: "res2a_branch1"
  top: "res2a_branch1"
  batch_norm_param {
    use_global_stats: true
  }
}
layer {
  name: "scale2a_branch1"
  type: "Scale"
  bottom: "res2a_branch1"
  top: "res2a_branch1"
  scale_param {
    bias_term: true
  }
}
layer {
  name: "res2a_branch2a"
  type: "Convolution"
  bottom: "pool1"
  top: "res2a_branch2a"
  convolution_param {
    num_output: 64
    bias_term: false
    pad: 0
    kernel_size: 1
    stride: 1
    weight_filler {
      type: "xavier"
    }
    bias_filler {
      type: "constant"
      value: 0.2
    }
  }
}
layer {
  name: "bn2a_branch2a"
  type: "BatchNorm"
  bottom: "res2a_branch2a"
  top: "res2a_branch2a"
  batch_norm_param {
    use_global_stats: true
  }
}
layer {
  name: "scale2a_branch2a"
  type: "Scale"
  bottom: "res2a_branch2a"
  top: "res2a_branch2a"
  scale_param {
    bias_term: true
  }
}
layer {
  name: "res2a_branch2a_relu"
  type: "ReLU"
  bottom: "res2a_branch2a"
  top: "res2a_branch2a"
}
layer {
  name: "res2a_branch2b"
  type: "Convolution"
  bottom: "res2a_branch2a"
  top: "res2a_branch2b"
  convolution_param {
    num_output: 64
    bias_term: false
    pad: 1
    kernel_size: 3
    stride: 1
    weight_filler {
      type: "xavier"
    }
    bias_filler {
      type: "constant"
      value: 0.2
    }
  }
}
layer {
  name: "bn2a_branch2b"
  type: "BatchNorm"
  bottom: "res2a_branch2b"
  top: "res2a_branch2b"
  batch_norm_param {
    use_global_stats: true
  }
}
layer {
  name: "scale2a_branch2b"
  type: "Scale"
  bottom: "res2a_branch2b"
  top: "res2a_branch2b"
  scale_param {
    bias_term: true
  }
}
layer {
  name: "res2a_branch2b_relu"
  type: "ReLU"
  bottom: "res2a_branch2b"
  top: "res2a_branch2b"
}
layer {
  name: "res2a_branch2c"
  type: "Convolution"
  bottom: "res2a_branch2b"
  top: "res2a_branch2c"
  convolution_param {
    num_output: 256
    bias_term: false
    pad: 0
    kernel_size: 1
    stride: 1
    weight_filler {
      type: "xavier"
    }
    bias_filler {
      type: "constant"
      value: 0.2
    }
  }
}
layer {
  name: "bn2a_branch2c"
  type: "BatchNorm"
  bottom: "res2a_branch2c"
  top: "res2a_branch2c"
  batch_norm_param {
    use_global_stats: true
  }
}
layer {
  name: "scale2a_branch2c"
  type: "Scale"
  bottom: "res2a_branch2c"
  top: "res2a_branch2c"
  scale_param {
    bias_term: true
  }
}
layer {
  name: "res2a"
  type: "Eltwise"
  bottom: "res2a_branch1"
  bottom: "res2a_branch2c"
  top: "res2a"
}
layer {
  name: "res2a_relu"
  type: "ReLU"
  bottom: "res2a"
  top: "res2a"
}
layer {
  name: "res2b_branch2a"
  type: "Convolution"
  bottom: "res2a"
  top: "res2b_branch2a"
  convolution_param {
    num_output: 64
    bias_term: false
    pad: 0
    kernel_size: 1
    stride: 1
    weight_filler {
      type: "xavier"
    }
    bias_filler {
      type: "constant"
      value: 0.2
    }
  }
}
layer {
  name: "bn2b_branch2a"
  type: "BatchNorm"
  bottom: "res2b_branch2a"
  top: "res2b_branch2a"
  batch_norm_param {
    use_global_stats: true
  }
}
layer {
  name: "scale2b_branch2a"
  type: "Scale"
  bottom: "res2b_branch2a"
  top: "res2b_branch2a"
  scale_param {
    bias_term: true
  }
}
layer {
  name: "res2b_branch2a_relu"
  type: "ReLU"
  bottom: "res2b_branch2a"
  top: "res2b_branch2a"
}
layer {
  name: "res2b_branch2b"
  type: "Convolution"
  bottom: "res2b_branch2a"
  top: "res2b_branch2b"
  convolution_param {
    num_output: 64
    bias_term: false
    pad: 1
    kernel_size: 3
    stride: 1
    weight_filler {
      type: "xavier"
    }
    bias_filler {
      type: "constant"
      value: 0.2
    }
  }
}
layer {
  name: "bn2b_branch2b"
  type: "BatchNorm"
  bottom: "res2b_branch2b"
  top: "res2b_branch2b"
  batch_norm_param {
    use_global_stats: true
  }
}
layer {
  name: "scale2b_branch2b"
  type: "Scale"
  bottom: "res2b_branch2b"
  top: "res2b_branch2b"
  scale_param {
    bias_term: true
  }
}
layer {
  name: "res2b_branch2b_relu"
  type: "ReLU"
  bottom: "res2b_branch2b"
  top: "res2b_branch2b"
}
layer {
  name: "res2b_branch2c"
  type: "Convolution"
  bottom: "res2b_branch2b"
  top: "res2b_branch2c"
  convolution_param {
    num_output: 256
    bias_term: false
    pad: 0
    kernel_size: 1
    stride: 1
    weight_filler {
      type: "xavier"
    }
    bias_filler {
      type: "constant"
      value: 0.2
    }
  }
}
layer {
  name: "bn2b_branch2c"
  type: "BatchNorm"
  bottom: "res2b_branch2c"
  top: "res2b_branch2c"
  batch_norm_param {
    use_global_stats: true
  }
}
layer {
  name: "scale2b_branch2c"
  type: "Scale"
  bottom: "res2b_branch2c"
  top: "res2b_branch2c"
  scale_param {
    bias_term: true
  }
}
layer {
  name: "res2b"
  type: "Eltwise"
  bottom: "res2a"
  bottom: "res2b_branch2c"
  top: "res2b"
}
layer {
  name: "res2b_relu"
  type: "ReLU"
  bottom: "res2b"
  top: "res2b"
}
layer {
  name: "res2c_branch2a"
  type: "Convolution"
  bottom: "res2b"
  top: "res2c_branch2a"
  convolution_param {
    num_output: 64
    bias_term: false
    pad: 0
    kernel_size: 1
    stride: 1
    weight_filler {
      type: "xavier"
    }
    bias_filler {
      type: "constant"
      value: 0.2
    }
  }
}
layer {
  name: "bn2c_branch2a"
  type: "BatchNorm"
  bottom: "res2c_branch2a"
  top: "res2c_branch2a"
  batch_norm_param {
    use_global_stats: true
  }
}
layer {
  name: "scale2c_branch2a"
  type: "Scale"
  bottom: "res2c_branch2a"
  top: "res2c_branch2a"
  scale_param {
    bias_term: true
  }
}
layer {
  name: "res2c_branch2a_relu"
  type: "ReLU"
  bottom: "res2c_branch2a"
  top: "res2c_branch2a"
}
layer {
  name: "res2c_branch2b"
  type: "Convolution"
  bottom: "res2c_branch2a"
  top: "res2c_branch2b"
  convolution_param {
    num_output: 64
    bias_term: false
    pad: 1
    kernel_size: 3
    stride: 1
    weight_filler {
      type: "xavier"
    }
    bias_filler {
      type: "constant"
      value: 0.2
    }
  }
}
layer {
  name: "bn2c_branch2b"
  type: "BatchNorm"
  bottom: "res2c_branch2b"
  top: "res2c_branch2b"
  batch_norm_param {
    use_global_stats: true
  }
}
layer {
  name: "scale2c_branch2b"
  type: "Scale"
  bottom: "res2c_branch2b"
  top: "res2c_branch2b"
  scale_param {
    bias_term: true
  }
}
layer {
  name: "res2c_branch2b_relu"
  type: "ReLU"
  bottom: "res2c_branch2b"
  top: "res2c_branch2b"
}
layer {
  name: "res2c_branch2c"
  type: "Convolution"
  bottom: "res2c_branch2b"
  top: "res2c_branch2c"
  convolution_param {
    num_output: 256
    bias_term: false
    pad: 0
    kernel_size: 1
    stride: 1
    weight_filler {
      type: "xavier"
    }
    bias_filler {
      type: "constant"
      value: 0.2
    }
  }
}
layer {
  name: "bn2c_branch2c"
  type: "BatchNorm"
  bottom: "res2c_branch2c"
  top: "res2c_branch2c"
  batch_norm_param {
    use_global_stats: true
  }
}
layer {
  name: "scale2c_branch2c"
  type: "Scale"
  bottom: "res2c_branch2c"
  top: "res2c_branch2c"
  scale_param {
    bias_term: true
  }
}
layer {
  name: "res2c"
  type: "Eltwise"
  bottom: "res2b"
  bottom: "res2c_branch2c"
  top: "res2c"
}
layer {
  name: "res2c_relu"
  type: "ReLU"
  bottom: "res2c"
  top: "res2c"
}
layer {
  name: "res3a_branch1"
  type: "Convolution"
  bottom: "res2c"
  top: "res3a_branch1"
  convolution_param {
    num_output: 512
    bias_term: false
    pad: 0
    kernel_size: 1
    stride: 2
    weight_filler {
      type: "xavier"
    }
    bias_filler {
      type: "constant"
      value: 0.2
    }
  }
}
layer {
  name: "bn3a_branch1"
  type: "BatchNorm"
  bottom: "res3a_branch1"
  top: "res3a_branch1"
  batch_norm_param {
    use_global_stats: true
  }
}
layer {
  name: "scale3a_branch1"
  type: "Scale"
  bottom: "res3a_branch1"
  top: "res3a_branch1"
  scale_param {
    bias_term: true
  }
}
layer {
  name: "res3a_branch2a"
  type: "Convolution"
  bottom: "res2c"
  top: "res3a_branch2a"
  convolution_param {
    num_output: 128
    bias_term: false
    pad: 0
    kernel_size: 1
    stride: 2
    weight_filler {
      type: "xavier"
    }
    bias_filler {
      type: "constant"
      value: 0.2
    }
  }
}
layer {
  name: "bn3a_branch2a"
  type: "BatchNorm"
  bottom: "res3a_branch2a"
  top: "res3a_branch2a"
  batch_norm_param {
    use_global_stats: true
  }
}
layer {
  name: "scale3a_branch2a"
  type: "Scale"
  bottom: "res3a_branch2a"
  top: "res3a_branch2a"
  scale_param {
    bias_term: true
  }
}
layer {
  name: "res3a_branch2a_relu"
  type: "ReLU"
  bottom: "res3a_branch2a"
  top: "res3a_branch2a"
}
layer {
  name: "res3a_branch2b"
  type: "Convolution"
  bottom: "res3a_branch2a"
  top: "res3a_branch2b"
  convolution_param {
    num_output: 128
    bias_term: false
    pad: 1
    kernel_size: 3
    stride: 1
    weight_filler {
      type: "xavier"
    }
    bias_filler {
      type: "constant"
      value: 0.2
    }
  }
}
layer {
  name: "bn3a_branch2b"
  type: "BatchNorm"
  bottom: "res3a_branch2b"
  top: "res3a_branch2b"
  batch_norm_param {
    use_global_stats: true
  }
}
layer {
  name: "scale3a_branch2b"
  type: "Scale"
  bottom: "res3a_branch2b"
  top: "res3a_branch2b"
  scale_param {
    bias_term: true
  }
}
layer {
  name: "res3a_branch2b_relu"
  type: "ReLU"
  bottom: "res3a_branch2b"
  top: "res3a_branch2b"
}
layer {
  name: "res3a_branch2c"
  type: "Convolution"
  bottom: "res3a_branch2b"
  top: "res3a_branch2c"
  convolution_param {
    num_output: 512
    bias_term: false
    pad: 0
    kernel_size: 1
    stride: 1
    weight_filler {
      type: "xavier"
    }
    bias_filler {
      type: "constant"
      value: 0.2
    }
  }
}
layer {
  name: "bn3a_branch2c"
  type: "BatchNorm"
  bottom: "res3a_branch2c"
  top: "res3a_branch2c"
  batch_norm_param {
    use_global_stats: true
  }
}
layer {
  name: "scale3a_branch2c"
  type: "Scale"
  bottom: "res3a_branch2c"
  top: "res3a_branch2c"
  scale_param {
    bias_term: true
  }
}
layer {
  name: "res3a"
  type: "Eltwise"
  bottom: "res3a_branch1"
  bottom: "res3a_branch2c"
  top: "res3a"
}
layer {
  name: "res3a_relu"
  type: "ReLU"
  bottom: "res3a"
  top: "res3a"
}
layer {
  name: "res3b1_branch2a"
  type: "Convolution"
  bottom: "res3a"
  top: "res3b1_branch2a"
  convolution_param {
    num_output: 128
    bias_term: false
    pad: 0
    kernel_size: 1
    stride: 1
    weight_filler {
      type: "xavier"
    }
    bias_filler {
      type: "constant"
      value: 0.2
    }
  }
}
layer {
  name: "bn3b1_branch2a"
  type: "BatchNorm"
  bottom: "res3b1_branch2a"
  top: "res3b1_branch2a"
  batch_norm_param {
    use_global_stats: true
  }
}
layer {
  name: "scale3b1_branch2a"
  type: "Scale"
  bottom: "res3b1_branch2a"
  top: "res3b1_branch2a"
  scale_param {
    bias_term: true
  }
}
layer {
  name: "res3b1_branch2a_relu"
  type: "ReLU"
  bottom: "res3b1_branch2a"
  top: "res3b1_branch2a"
}
layer {
  name: "res3b1_branch2b"
  type: "Convolution"
  bottom: "res3b1_branch2a"
  top: "res3b1_branch2b"
  convolution_param {
    num_output: 128
    bias_term: false
    pad: 1
    kernel_size: 3
    stride: 1
    weight_filler {
      type: "xavier"
    }
    bias_filler {
      type: "constant"
      value: 0.2
    }
  }
}
layer {
  name: "bn3b1_branch2b"
  type: "BatchNorm"
  bottom: "res3b1_branch2b"
  top: "res3b1_branch2b"
  batch_norm_param {
    use_global_stats: true
  }
}
layer {
  name: "scale3b1_branch2b"
  type: "Scale"
  bottom: "res3b1_branch2b"
  top: "res3b1_branch2b"
  scale_param {
    bias_term: true
  }
}
layer {
  name: "res3b1_branch2b_relu"
  type: "ReLU"
  bottom: "res3b1_branch2b"
  top: "res3b1_branch2b"
}
layer {
  name: "res3b1_branch2c"
  type: "Convolution"
  bottom: "res3b1_branch2b"
  top: "res3b1_branch2c"
  convolution_param {
    num_output: 512
    bias_term: false
    pad: 0
    kernel_size: 1
    stride: 1
    weight_filler {
      type: "xavier"
    }
    bias_filler {
      type: "constant"
      value: 0.2
    }
  }
}
layer {
  name: "bn3b1_branch2c"
  type: "BatchNorm"
  bottom: "res3b1_branch2c"
  top: "res3b1_branch2c"
  batch_norm_param {
    use_global_stats: true
  }
}
layer {
  name: "scale3b1_branch2c"
  type: "Scale"
  bottom: "res3b1_branch2c"
  top: "res3b1_branch2c"
  scale_param {
    bias_term: true
  }
}
layer {
  name: "res3b1"
  type: "Eltwise"
  bottom: "res3a"
  bottom: "res3b1_branch2c"
  top: "res3b1"
}
layer {
  name: "res3b1_relu"
  type: "ReLU"
  bottom: "res3b1"
  top: "res3b1"
}
layer {
  name: "res3b2_branch2a"
  type: "Convolution"
  bottom: "res3b1"
  top: "res3b2_branch2a"
  convolution_param {
    num_output: 128
    bias_term: false
    pad: 0
    kernel_size: 1
    stride: 1
    weight_filler {
      type: "xavier"
    }
    bias_filler {
      type: "constant"
      value: 0.2
    }
  }
}
layer {
  name: "bn3b2_branch2a"
  type: "BatchNorm"
  bottom: "res3b2_branch2a"
  top: "res3b2_branch2a"
  batch_norm_param {
    use_global_stats: true
  }
}
layer {
  name: "scale3b2_branch2a"
  type: "Scale"
  bottom: "res3b2_branch2a"
  top: "res3b2_branch2a"
  scale_param {
    bias_term: true
  }
}
layer {
  name: "res3b2_branch2a_relu"
  type: "ReLU"
  bottom: "res3b2_branch2a"
  top: "res3b2_branch2a"
}
layer {
  name: "res3b2_branch2b"
  type: "Convolution"
  bottom: "res3b2_branch2a"
  top: "res3b2_branch2b"
  convolution_param {
    num_output: 128
    bias_term: false
    pad: 1
    kernel_size: 3
    stride: 1
    weight_filler {
      type: "xavier"
    }
    bias_filler {
      type: "constant"
      value: 0.2
    }
  }
}
layer {
  name: "bn3b2_branch2b"
  type: "BatchNorm"
  bottom: "res3b2_branch2b"
  top: "res3b2_branch2b"
  batch_norm_param {
    use_global_stats: true
  }
}
layer {
  name: "scale3b2_branch2b"
  type: "Scale"
  bottom: "res3b2_branch2b"
  top: "res3b2_branch2b"
  scale_param {
    bias_term: true
  }
}
layer {
  name: "res3b2_branch2b_relu"
  type: "ReLU"
  bottom: "res3b2_branch2b"
  top: "res3b2_branch2b"
}
layer {
  name: "res3b2_branch2c"
  type: "Convolution"
  bottom: "res3b2_branch2b"
  top: "res3b2_branch2c"
  convolution_param {
    num_output: 512
    bias_term: false
    pad: 0
    kernel_size: 1
    stride: 1
    weight_filler {
      type: "xavier"
    }
    bias_filler {
      type: "constant"
      value: 0.2
    }
  }
}
layer {
  name: "bn3b2_branch2c"
  type: "BatchNorm"
  bottom: "res3b2_branch2c"
  top: "res3b2_branch2c"
  batch_norm_param {
    use_global_stats: true
  }
}
layer {
  name: "scale3b2_branch2c"
  type: "Scale"
  bottom: "res3b2_branch2c"
  top: "res3b2_branch2c"
  scale_param {
    bias_term: true
  }
}
layer {
  name: "res3b2"
  type: "Eltwise"
  bottom: "res3b1"
  bottom: "res3b2_branch2c"
  top: "res3b2"
}
layer {
  name: "res3b2_relu"
  type: "ReLU"
  bottom: "res3b2"
  top: "res3b2"
}
layer {
  name: "res3b3_branch2a"
  type: "Convolution"
  bottom: "res3b2"
  top: "res3b3_branch2a"
  convolution_param {
    num_output: 128
    bias_term: false
    pad: 0
    kernel_size: 1
    stride: 1
    weight_filler {
      type: "xavier"
    }
    bias_filler {
      type: "constant"
      value: 0.2
    }
  }
}
layer {
  name: "bn3b3_branch2a"
  type: "BatchNorm"
  bottom: "res3b3_branch2a"
  top: "res3b3_branch2a"
  batch_norm_param {
    use_global_stats: true
  }
}
layer {
  name: "scale3b3_branch2a"
  type: "Scale"
  bottom: "res3b3_branch2a"
  top: "res3b3_branch2a"
  scale_param {
    bias_term: true
  }
}
layer {
  name: "res3b3_branch2a_relu"
  type: "ReLU"
  bottom: "res3b3_branch2a"
  top: "res3b3_branch2a"
}
layer {
  name: "res3b3_branch2b"
  type: "Convolution"
  bottom: "res3b3_branch2a"
  top: "res3b3_branch2b"
  convolution_param {
    num_output: 128
    bias_term: false
    pad: 1
    kernel_size: 3
    stride: 1
    weight_filler {
      type: "xavier"
    }
    bias_filler {
      type: "constant"
      value: 0.2
    }
  }
}
layer {
  name: "bn3b3_branch2b"
  type: "BatchNorm"
  bottom: "res3b3_branch2b"
  top: "res3b3_branch2b"
  batch_norm_param {
    use_global_stats: true
  }
}
layer {
  name: "scale3b3_branch2b"
  type: "Scale"
  bottom: "res3b3_branch2b"
  top: "res3b3_branch2b"
  scale_param {
    bias_term: true
  }
}
layer {
  name: "res3b3_branch2b_relu"
  type: "ReLU"
  bottom: "res3b3_branch2b"
  top: "res3b3_branch2b"
}
layer {
  name: "res3b3_branch2c"
  type: "Convolution"
  bottom: "res3b3_branch2b"
  top: "res3b3_branch2c"
  convolution_param {
    num_output: 512
    bias_term: false
    pad: 0
    kernel_size: 1
    stride: 1
    weight_filler {
      type: "xavier"
    }
    bias_filler {
      type: "constant"
      value: 0.2
    }
  }
}
layer {
  name: "bn3b3_branch2c"
  type: "BatchNorm"
  bottom: "res3b3_branch2c"
  top: "res3b3_branch2c"
  batch_norm_param {
    use_global_stats: true
  }
}
layer {
  name: "scale3b3_branch2c"
  type: "Scale"
  bottom: "res3b3_branch2c"
  top: "res3b3_branch2c"
  scale_param {
    bias_term: true
  }
}
layer {
  name: "res3b3"
  type: "Eltwise"
  bottom: "res3b2"
  bottom: "res3b3_branch2c"
  top: "res3b3"
}
layer {
  name: "res3b3_relu"
  type: "ReLU"
  bottom: "res3b3"
  top: "res3b3"
}
layer {
  name: "res3b4_branch2a"
  type: "Convolution"
  bottom: "res3b3"
  top: "res3b4_branch2a"
  convolution_param {
    num_output: 128
    bias_term: false
    pad: 0
    kernel_size: 1
    stride: 1
    weight_filler {
      type: "xavier"
    }
    bias_filler {
      type: "constant"
      value: 0.2
    }
  }
}
layer {
  name: "bn3b4_branch2a"
  type: "BatchNorm"
  bottom: "res3b4_branch2a"
  top: "res3b4_branch2a"
  batch_norm_param {
    use_global_stats: true
  }
}
layer {
  name: "scale3b4_branch2a"
  type: "Scale"
  bottom: "res3b4_branch2a"
  top: "res3b4_branch2a"
  scale_param {
    bias_term: true
  }
}
layer {
  name: "res3b4_branch2a_relu"
  type: "ReLU"
  bottom: "res3b4_branch2a"
  top: "res3b4_branch2a"
}
layer {
  name: "res3b4_branch2b"
  type: "Convolution"
  bottom: "res3b4_branch2a"
  top: "res3b4_branch2b"
  convolution_param {
    num_output: 128
    bias_term: false
    pad: 1
    kernel_size: 3
    stride: 1
    weight_filler {
      type: "xavier"
    }
    bias_filler {
      type: "constant"
      value: 0.2
    }
  }
}
layer {
  name: "bn3b4_branch2b"
  type: "BatchNorm"
  bottom: "res3b4_branch2b"
  top: "res3b4_branch2b"
  batch_norm_param {
    use_global_stats: true
  }
}
layer {
  name: "scale3b4_branch2b"
  type: "Scale"
  bottom: "res3b4_branch2b"
  top: "res3b4_branch2b"
  scale_param {
    bias_term: true
  }
}
layer {
  name: "res3b4_branch2b_relu"
  type: "ReLU"
  bottom: "res3b4_branch2b"
  top: "res3b4_branch2b"
}
layer {
  name: "res3b4_branch2c"
  type: "Convolution"
  bottom: "res3b4_branch2b"
  top: "res3b4_branch2c"
  convolution_param {
    num_output: 512
    bias_term: false
    pad: 0
    kernel_size: 1
    stride: 1
    weight_filler {
      type: "xavier"
    }
    bias_filler {
      type: "constant"
      value: 0.2
    }
  }
}
layer {
  name: "bn3b4_branch2c"
  type: "BatchNorm"
  bottom: "res3b4_branch2c"
  top: "res3b4_branch2c"
  batch_norm_param {
    use_global_stats: true
  }
}
layer {
  name: "scale3b4_branch2c"
  type: "Scale"
  bottom: "res3b4_branch2c"
  top: "res3b4_branch2c"
  scale_param {
    bias_term: true
  }
}
layer {
  name: "res3b4"
  type: "Eltwise"
  bottom: "res3b3"
  bottom: "res3b4_branch2c"
  top: "res3b4"
}
layer {
  name: "res3b4_relu"
  type: "ReLU"
  bottom: "res3b4"
  top: "res3b4"
}
layer {
  name: "res3b5_branch2a"
  type: "Convolution"
  bottom: "res3b4"
  top: "res3b5_branch2a"
  convolution_param {
    num_output: 128
    bias_term: false
    pad: 0
    kernel_size: 1
    stride: 1
    weight_filler {
      type: "xavier"
    }
    bias_filler {
      type: "constant"
      value: 0.2
    }
  }
}
layer {
  name: "bn3b5_branch2a"
  type: "BatchNorm"
  bottom: "res3b5_branch2a"
  top: "res3b5_branch2a"
  batch_norm_param {
    use_global_stats: true
  }
}
layer {
  name: "scale3b5_branch2a"
  type: "Scale"
  bottom: "res3b5_branch2a"
  top: "res3b5_branch2a"
  scale_param {
    bias_term: true
  }
}
layer {
  name: "res3b5_branch2a_relu"
  type: "ReLU"
  bottom: "res3b5_branch2a"
  top: "res3b5_branch2a"
}
layer {
  name: "res3b5_branch2b"
  type: "Convolution"
  bottom: "res3b5_branch2a"
  top: "res3b5_branch2b"
  convolution_param {
    num_output: 128
    bias_term: false
    pad: 1
    kernel_size: 3
    stride: 1
    weight_filler {
      type: "xavier"
    }
    bias_filler {
      type: "constant"
      value: 0.2
    }
  }
}
layer {
  name: "bn3b5_branch2b"
  type: "BatchNorm"
  bottom: "res3b5_branch2b"
  top: "res3b5_branch2b"
  batch_norm_param {
    use_global_stats: true
  }
}
layer {
  name: "scale3b5_branch2b"
  type: "Scale"
  bottom: "res3b5_branch2b"
  top: "res3b5_branch2b"
  scale_param {
    bias_term: true
  }
}
layer {
  name: "res3b5_branch2b_relu"
  type: "ReLU"
  bottom: "res3b5_branch2b"
  top: "res3b5_branch2b"
}
layer {
  name: "res3b5_branch2c"
  type: "Convolution"
  bottom: "res3b5_branch2b"
  top: "res3b5_branch2c"
  convolution_param {
    num_output: 512
    bias_term: false
    pad: 0
    kernel_size: 1
    stride: 1
    weight_filler {
      type: "xavier"
    }
    bias_filler {
      type: "constant"
      value: 0.2
    }
  }
}
layer {
  name: "bn3b5_branch2c"
  type: "BatchNorm"
  bottom: "res3b5_branch2c"
  top: "res3b5_branch2c"
  batch_norm_param {
    use_global_stats: true
  }
}
layer {
  name: "scale3b5_branch2c"
  type: "Scale"
  bottom: "res3b5_branch2c"
  top: "res3b5_branch2c"
  scale_param {
    bias_term: true
  }
}
layer {
  name: "res3b5"
  type: "Eltwise"
  bottom: "res3b4"
  bottom: "res3b5_branch2c"
  top: "res3b5"
}
layer {
  name: "res3b5_relu"
  type: "ReLU"
  bottom: "res3b5"
  top: "res3b5"
}
layer {
  name: "res3b6_branch2a"
  type: "Convolution"
  bottom: "res3b5"
  top: "res3b6_branch2a"
  convolution_param {
    num_output: 128
    bias_term: false
    pad: 0
    kernel_size: 1
    stride: 1
    weight_filler {
      type: "xavier"
    }
    bias_filler {
      type: "constant"
      value: 0.2
    }
  }
}
layer {
  name: "bn3b6_branch2a"
  type: "BatchNorm"
  bottom: "res3b6_branch2a"
  top: "res3b6_branch2a"
  batch_norm_param {
    use_global_stats: true
  }
}
layer {
  name: "scale3b6_branch2a"
  type: "Scale"
  bottom: "res3b6_branch2a"
  top: "res3b6_branch2a"
  scale_param {
    bias_term: true
  }
}
layer {
  name: "res3b6_branch2a_relu"
  type: "ReLU"
  bottom: "res3b6_branch2a"
  top: "res3b6_branch2a"
}
layer {
  name: "res3b6_branch2b"
  type: "Convolution"
  bottom: "res3b6_branch2a"
  top: "res3b6_branch2b"
  convolution_param {
    num_output: 128
    bias_term: false
    pad: 1
    kernel_size: 3
    stride: 1
    weight_filler {
      type: "xavier"
    }
    bias_filler {
      type: "constant"
      value: 0.2
    }
  }
}
layer {
  name: "bn3b6_branch2b"
  type: "BatchNorm"
  bottom: "res3b6_branch2b"
  top: "res3b6_branch2b"
  batch_norm_param {
    use_global_stats: true
  }
}
layer {
  name: "scale3b6_branch2b"
  type: "Scale"
  bottom: "res3b6_branch2b"
  top: "res3b6_branch2b"
  scale_param {
    bias_term: true
  }
}
layer {
  name: "res3b6_branch2b_relu"
  type: "ReLU"
  bottom: "res3b6_branch2b"
  top: "res3b6_branch2b"
}
layer {
  name: "res3b6_branch2c"
  type: "Convolution"
  bottom: "res3b6_branch2b"
  top: "res3b6_branch2c"
  convolution_param {
    num_output: 512
    bias_term: false
    pad: 0
    kernel_size: 1
    stride: 1
    weight_filler {
      type: "xavier"
    }
    bias_filler {
      type: "constant"
      value: 0.2
    }
  }
}
layer {
  name: "bn3b6_branch2c"
  type: "BatchNorm"
  bottom: "res3b6_branch2c"
  top: "res3b6_branch2c"
  batch_norm_param {
    use_global_stats: true
  }
}
layer {
  name: "scale3b6_branch2c"
  type: "Scale"
  bottom: "res3b6_branch2c"
  top: "res3b6_branch2c"
  scale_param {
    bias_term: true
  }
}
layer {
  name: "res3b6"
  type: "Eltwise"
  bottom: "res3b5"
  bottom: "res3b6_branch2c"
  top: "res3b6"
}
layer {
  name: "res3b6_relu"
  type: "ReLU"
  bottom: "res3b6"
  top: "res3b6"
}
layer {
  name: "res3b7_branch2a"
  type: "Convolution"
  bottom: "res3b6"
  top: "res3b7_branch2a"
  convolution_param {
    num_output: 128
    bias_term: false
    pad: 0
    kernel_size: 1
    stride: 1
    weight_filler {
      type: "xavier"
    }
    bias_filler {
      type: "constant"
      value: 0.2
    }
  }
}
layer {
  name: "bn3b7_branch2a"
  type: "BatchNorm"
  bottom: "res3b7_branch2a"
  top: "res3b7_branch2a"
  batch_norm_param {
    use_global_stats: true
  }
}
layer {
  name: "scale3b7_branch2a"
  type: "Scale"
  bottom: "res3b7_branch2a"
  top: "res3b7_branch2a"
  scale_param {
    bias_term: true
  }
}
layer {
  name: "res3b7_branch2a_relu"
  type: "ReLU"
  bottom: "res3b7_branch2a"
  top: "res3b7_branch2a"
}
layer {
  name: "res3b7_branch2b"
  type: "Convolution"
  bottom: "res3b7_branch2a"
  top: "res3b7_branch2b"
  convolution_param {
    num_output: 128
    bias_term: false
    pad: 1
    kernel_size: 3
    stride: 1
    weight_filler {
      type: "xavier"
    }
    bias_filler {
      type: "constant"
      value: 0.2
    }
  }
}
layer {
  name: "bn3b7_branch2b"
  type: "BatchNorm"
  bottom: "res3b7_branch2b"
  top: "res3b7_branch2b"
  batch_norm_param {
    use_global_stats: true
  }
}
layer {
  name: "scale3b7_branch2b"
  type: "Scale"
  bottom: "res3b7_branch2b"
  top: "res3b7_branch2b"
  scale_param {
    bias_term: true
  }
}
layer {
  name: "res3b7_branch2b_relu"
  type: "ReLU"
  bottom: "res3b7_branch2b"
  top: "res3b7_branch2b"
}
layer {
  name: "res3b7_branch2c"
  type: "Convolution"
  bottom: "res3b7_branch2b"
  top: "res3b7_branch2c"
  convolution_param {
    num_output: 512
    bias_term: false
    pad: 0
    kernel_size: 1
    stride: 1
    weight_filler {
      type: "xavier"
    }
    bias_filler {
      type: "constant"
      value: 0.2
    }
  }
}
layer {
  name: "bn3b7_branch2c"
  type: "BatchNorm"
  bottom: "res3b7_branch2c"
  top: "res3b7_branch2c"
  batch_norm_param {
    use_global_stats: true
  }
}
layer {
  name: "scale3b7_branch2c"
  type: "Scale"
  bottom: "res3b7_branch2c"
  top: "res3b7_branch2c"
  scale_param {
    bias_term: true
  }
}
layer {
  name: "res3b7"
  type: "Eltwise"
  bottom: "res3b6"
  bottom: "res3b7_branch2c"
  top: "res3b7"
}
layer {
  name: "res3b7_relu"
  type: "ReLU"
  bottom: "res3b7"
  top: "res3b7"
}
layer {
  name: "res4a_branch1"
  type: "Convolution"
  bottom: "res3b7"
  top: "res4a_branch1"
  convolution_param {
    num_output: 1024
    bias_term: false
    pad: 0
    kernel_size: 1
    stride: 2
    weight_filler {
      type: "xavier"
    }
    bias_filler {
      type: "constant"
      value: 0.2
    }
  }
}
layer {
  name: "bn4a_branch1"
  type: "BatchNorm"
  bottom: "res4a_branch1"
  top: "res4a_branch1"
  batch_norm_param {
    use_global_stats: true
  }
}
layer {
  name: "scale4a_branch1"
  type: "Scale"
  bottom: "res4a_branch1"
  top: "res4a_branch1"
  scale_param {
    bias_term: true
  }
}
layer {
  name: "res4a_branch2a"
  type: "Convolution"
  bottom: "res3b7"
  top: "res4a_branch2a"
  convolution_param {
    num_output: 256
    bias_term: false
    pad: 0
    kernel_size: 1
    stride: 2
    weight_filler {
      type: "xavier"
    }
    bias_filler {
      type: "constant"
      value: 0.2
    }
  }
}
layer {
  name: "bn4a_branch2a"
  type: "BatchNorm"
  bottom: "res4a_branch2a"
  top: "res4a_branch2a"
  batch_norm_param {
    use_global_stats: true
  }
}
layer {
  name: "scale4a_branch2a"
  type: "Scale"
  bottom: "res4a_branch2a"
  top: "res4a_branch2a"
  scale_param {
    bias_term: true
  }
}
layer {
  name: "res4a_branch2a_relu"
  type: "ReLU"
  bottom: "res4a_branch2a"
  top: "res4a_branch2a"
}
layer {
  name: "res4a_branch2b"
  type: "Convolution"
  bottom: "res4a_branch2a"
  top: "res4a_branch2b"
  convolution_param {
    num_output: 256
    bias_term: false
    pad: 1
    kernel_size: 3
    stride: 1
    weight_filler {
      type: "xavier"
    }
    bias_filler {
      type: "constant"
      value: 0.2
    }
  }
}
layer {
  name: "bn4a_branch2b"
  type: "BatchNorm"
  bottom: "res4a_branch2b"
  top: "res4a_branch2b"
  batch_norm_param {
    use_global_stats: true
  }
}
layer {
  name: "scale4a_branch2b"
  type: "Scale"
  bottom: "res4a_branch2b"
  top: "res4a_branch2b"
  scale_param {
    bias_term: true
  }
}
layer {
  name: "res4a_branch2b_relu"
  type: "ReLU"
  bottom: "res4a_branch2b"
  top: "res4a_branch2b"
}
layer {
  name: "res4a_branc
I1201 03:07:15.330530 18454 layer_factory.hpp:77] Creating layer resnet_152
I1201 03:07:15.330894 18454 net.cpp:100] Creating Layer resnet_152
I1201 03:07:15.330902 18454 net.cpp:408] resnet_152 -> data
I1201 03:07:15.330922 18454 net.cpp:408] resnet_152 -> label
I1201 03:07:15.330934 18454 data_transformer.cpp:25] Loading mean file from: /home/ai/large/input224-2/100-web/croporg/mean224x224.binaryproto
I1201 03:07:15.541456 18464 db_lmdb.cpp:35] Opened lmdb /home/ai/large/input224-2/100-web/croporg/train224x224_lmdb
I1201 03:07:15.589714 18454 data_layer.cpp:41] output data size: 6,3,224,224
I1201 03:07:15.594537 18454 net.cpp:150] Setting up resnet_152
I1201 03:07:15.594558 18454 net.cpp:157] Top shape: 6 3 224 224 (903168)
I1201 03:07:15.594563 18454 net.cpp:157] Top shape: 6 (6)
I1201 03:07:15.594565 18454 net.cpp:165] Memory required for data: 3612696
I1201 03:07:15.594573 18454 layer_factory.hpp:77] Creating layer conv1
I1201 03:07:15.594593 18454 net.cpp:100] Creating Layer conv1
I1201 03:07:15.594597 18454 net.cpp:434] conv1 <- data
I1201 03:07:15.594609 18454 net.cpp:408] conv1 -> conv1
I1201 03:07:15.599593 18465 blocking_queue.cpp:50] Waiting for data
I1201 03:07:15.740800 18454 net.cpp:150] Setting up conv1
I1201 03:07:15.740823 18454 net.cpp:157] Top shape: 6 64 112 112 (4816896)
I1201 03:07:15.740825 18454 net.cpp:165] Memory required for data: 22880280
I1201 03:07:15.740840 18454 layer_factory.hpp:77] Creating layer bn_conv1
I1201 03:07:15.740880 18454 net.cpp:100] Creating Layer bn_conv1
I1201 03:07:15.740883 18454 net.cpp:434] bn_conv1 <- conv1
I1201 03:07:15.740887 18454 net.cpp:395] bn_conv1 -> conv1 (in-place)
I1201 03:07:15.741004 18454 net.cpp:150] Setting up bn_conv1
I1201 03:07:15.741009 18454 net.cpp:157] Top shape: 6 64 112 112 (4816896)
I1201 03:07:15.741010 18454 net.cpp:165] Memory required for data: 42147864
I1201 03:07:15.741016 18454 layer_factory.hpp:77] Creating layer scale_conv1
I1201 03:07:15.741021 18454 net.cpp:100] Creating Layer scale_conv1
I1201 03:07:15.741022 18454 net.cpp:434] scale_conv1 <- conv1
I1201 03:07:15.741025 18454 net.cpp:395] scale_conv1 -> conv1 (in-place)
I1201 03:07:15.741049 18454 layer_factory.hpp:77] Creating layer scale_conv1
I1201 03:07:15.741119 18454 net.cpp:150] Setting up scale_conv1
I1201 03:07:15.741123 18454 net.cpp:157] Top shape: 6 64 112 112 (4816896)
I1201 03:07:15.741125 18454 net.cpp:165] Memory required for data: 61415448
I1201 03:07:15.741129 18454 layer_factory.hpp:77] Creating layer conv1_relu
I1201 03:07:15.741133 18454 net.cpp:100] Creating Layer conv1_relu
I1201 03:07:15.741135 18454 net.cpp:434] conv1_relu <- conv1
I1201 03:07:15.741137 18454 net.cpp:395] conv1_relu -> conv1 (in-place)
I1201 03:07:15.741240 18454 net.cpp:150] Setting up conv1_relu
I1201 03:07:15.741245 18454 net.cpp:157] Top shape: 6 64 112 112 (4816896)
I1201 03:07:15.741247 18454 net.cpp:165] Memory required for data: 80683032
I1201 03:07:15.741248 18454 layer_factory.hpp:77] Creating layer pool1
I1201 03:07:15.741252 18454 net.cpp:100] Creating Layer pool1
I1201 03:07:15.741255 18454 net.cpp:434] pool1 <- conv1
I1201 03:07:15.741257 18454 net.cpp:408] pool1 -> pool1
I1201 03:07:15.741283 18454 net.cpp:150] Setting up pool1
I1201 03:07:15.741286 18454 net.cpp:157] Top shape: 6 64 56 56 (1204224)
I1201 03:07:15.741289 18454 net.cpp:165] Memory required for data: 85499928
I1201 03:07:15.741291 18454 layer_factory.hpp:77] Creating layer pool1_pool1_0_split
I1201 03:07:15.741293 18454 net.cpp:100] Creating Layer pool1_pool1_0_split
I1201 03:07:15.741295 18454 net.cpp:434] pool1_pool1_0_split <- pool1
I1201 03:07:15.741299 18454 net.cpp:408] pool1_pool1_0_split -> pool1_pool1_0_split_0
I1201 03:07:15.741303 18454 net.cpp:408] pool1_pool1_0_split -> pool1_pool1_0_split_1
I1201 03:07:15.741322 18454 net.cpp:150] Setting up pool1_pool1_0_split
I1201 03:07:15.741324 18454 net.cpp:157] Top shape: 6 64 56 56 (1204224)
I1201 03:07:15.741328 18454 net.cpp:157] Top shape: 6 64 56 56 (1204224)
I1201 03:07:15.741328 18454 net.cpp:165] Memory required for data: 95133720
I1201 03:07:15.741330 18454 layer_factory.hpp:77] Creating layer res2a_branch1
I1201 03:07:15.741335 18454 net.cpp:100] Creating Layer res2a_branch1
I1201 03:07:15.741338 18454 net.cpp:434] res2a_branch1 <- pool1_pool1_0_split_0
I1201 03:07:15.741340 18454 net.cpp:408] res2a_branch1 -> res2a_branch1
I1201 03:07:15.741947 18454 net.cpp:150] Setting up res2a_branch1
I1201 03:07:15.741955 18454 net.cpp:157] Top shape: 6 256 56 56 (4816896)
I1201 03:07:15.741957 18454 net.cpp:165] Memory required for data: 114401304
I1201 03:07:15.741961 18454 layer_factory.hpp:77] Creating layer bn2a_branch1
I1201 03:07:15.741966 18454 net.cpp:100] Creating Layer bn2a_branch1
I1201 03:07:15.741968 18454 net.cpp:434] bn2a_branch1 <- res2a_branch1
I1201 03:07:15.741972 18454 net.cpp:395] bn2a_branch1 -> res2a_branch1 (in-place)
I1201 03:07:15.742535 18454 net.cpp:150] Setting up bn2a_branch1
I1201 03:07:15.742542 18454 net.cpp:157] Top shape: 6 256 56 56 (4816896)
I1201 03:07:15.742544 18454 net.cpp:165] Memory required for data: 133668888
I1201 03:07:15.742550 18454 layer_factory.hpp:77] Creating layer scale2a_branch1
I1201 03:07:15.742554 18454 net.cpp:100] Creating Layer scale2a_branch1
I1201 03:07:15.742557 18454 net.cpp:434] scale2a_branch1 <- res2a_branch1
I1201 03:07:15.742559 18454 net.cpp:395] scale2a_branch1 -> res2a_branch1 (in-place)
I1201 03:07:15.742583 18454 layer_factory.hpp:77] Creating layer scale2a_branch1
I1201 03:07:15.742643 18454 net.cpp:150] Setting up scale2a_branch1
I1201 03:07:15.742655 18454 net.cpp:157] Top shape: 6 256 56 56 (4816896)
I1201 03:07:15.742657 18454 net.cpp:165] Memory required for data: 152936472
I1201 03:07:15.742660 18454 layer_factory.hpp:77] Creating layer res2a_branch2a
I1201 03:07:15.742666 18454 net.cpp:100] Creating Layer res2a_branch2a
I1201 03:07:15.742669 18454 net.cpp:434] res2a_branch2a <- pool1_pool1_0_split_1
I1201 03:07:15.742672 18454 net.cpp:408] res2a_branch2a -> res2a_branch2a
I1201 03:07:15.743234 18454 net.cpp:150] Setting up res2a_branch2a
I1201 03:07:15.743242 18454 net.cpp:157] Top shape: 6 64 56 56 (1204224)
I1201 03:07:15.743244 18454 net.cpp:165] Memory required for data: 157753368
I1201 03:07:15.743247 18454 layer_factory.hpp:77] Creating layer bn2a_branch2a
I1201 03:07:15.743252 18454 net.cpp:100] Creating Layer bn2a_branch2a
I1201 03:07:15.743254 18454 net.cpp:434] bn2a_branch2a <- res2a_branch2a
I1201 03:07:15.743257 18454 net.cpp:395] bn2a_branch2a -> res2a_branch2a (in-place)
I1201 03:07:15.743363 18454 net.cpp:150] Setting up bn2a_branch2a
I1201 03:07:15.743369 18454 net.cpp:157] Top shape: 6 64 56 56 (1204224)
I1201 03:07:15.743371 18454 net.cpp:165] Memory required for data: 162570264
I1201 03:07:15.743376 18454 layer_factory.hpp:77] Creating layer scale2a_branch2a
I1201 03:07:15.743378 18454 net.cpp:100] Creating Layer scale2a_branch2a
I1201 03:07:15.743381 18454 net.cpp:434] scale2a_branch2a <- res2a_branch2a
I1201 03:07:15.743383 18454 net.cpp:395] scale2a_branch2a -> res2a_branch2a (in-place)
I1201 03:07:15.743404 18454 layer_factory.hpp:77] Creating layer scale2a_branch2a
I1201 03:07:15.743470 18454 net.cpp:150] Setting up scale2a_branch2a
I1201 03:07:15.743474 18454 net.cpp:157] Top shape: 6 64 56 56 (1204224)
I1201 03:07:15.743476 18454 net.cpp:165] Memory required for data: 167387160
I1201 03:07:15.743482 18454 layer_factory.hpp:77] Creating layer res2a_branch2a_relu
I1201 03:07:15.743486 18454 net.cpp:100] Creating Layer res2a_branch2a_relu
I1201 03:07:15.743489 18454 net.cpp:434] res2a_branch2a_relu <- res2a_branch2a
I1201 03:07:15.743491 18454 net.cpp:395] res2a_branch2a_relu -> res2a_branch2a (in-place)
I1201 03:07:15.743590 18454 net.cpp:150] Setting up res2a_branch2a_relu
I1201 03:07:15.743594 18454 net.cpp:157] Top shape: 6 64 56 56 (1204224)
I1201 03:07:15.743597 18454 net.cpp:165] Memory required for data: 172204056
I1201 03:07:15.743598 18454 layer_factory.hpp:77] Creating layer res2a_branch2b
I1201 03:07:15.743603 18454 net.cpp:100] Creating Layer res2a_branch2b
I1201 03:07:15.743607 18454 net.cpp:434] res2a_branch2b <- res2a_branch2a
I1201 03:07:15.743610 18454 net.cpp:408] res2a_branch2b -> res2a_branch2b
I1201 03:07:15.744882 18454 net.cpp:150] Setting up res2a_branch2b
I1201 03:07:15.744890 18454 net.cpp:157] Top shape: 6 64 56 56 (1204224)
I1201 03:07:15.744894 18454 net.cpp:165] Memory required for data: 177020952
I1201 03:07:15.744897 18454 layer_factory.hpp:77] Creating layer bn2a_branch2b
I1201 03:07:15.744902 18454 net.cpp:100] Creating Layer bn2a_branch2b
I1201 03:07:15.744904 18454 net.cpp:434] bn2a_branch2b <- res2a_branch2b
I1201 03:07:15.744907 18454 net.cpp:395] bn2a_branch2b -> res2a_branch2b (in-place)
I1201 03:07:15.745024 18454 net.cpp:150] Setting up bn2a_branch2b
I1201 03:07:15.745028 18454 net.cpp:157] Top shape: 6 64 56 56 (1204224)
I1201 03:07:15.745030 18454 net.cpp:165] Memory required for data: 181837848
I1201 03:07:15.745034 18454 layer_factory.hpp:77] Creating layer scale2a_branch2b
I1201 03:07:15.745038 18454 net.cpp:100] Creating Layer scale2a_branch2b
I1201 03:07:15.745040 18454 net.cpp:434] scale2a_branch2b <- res2a_branch2b
I1201 03:07:15.745044 18454 net.cpp:395] scale2a_branch2b -> res2a_branch2b (in-place)
I1201 03:07:15.745066 18454 layer_factory.hpp:77] Creating layer scale2a_branch2b
I1201 03:07:15.745134 18454 net.cpp:150] Setting up scale2a_branch2b
I1201 03:07:15.745138 18454 net.cpp:157] Top shape: 6 64 56 56 (1204224)
I1201 03:07:15.745141 18454 net.cpp:165] Memory required for data: 186654744
I1201 03:07:15.745143 18454 layer_factory.hpp:77] Creating layer res2a_branch2b_relu
I1201 03:07:15.745153 18454 net.cpp:100] Creating Layer res2a_branch2b_relu
I1201 03:07:15.745156 18454 net.cpp:434] res2a_branch2b_relu <- res2a_branch2b
I1201 03:07:15.745159 18454 net.cpp:395] res2a_branch2b_relu -> res2a_branch2b (in-place)
I1201 03:07:15.745398 18454 net.cpp:150] Setting up res2a_branch2b_relu
I1201 03:07:15.745404 18454 net.cpp:157] Top shape: 6 64 56 56 (1204224)
I1201 03:07:15.745406 18454 net.cpp:165] Memory required for data: 191471640
I1201 03:07:15.745409 18454 layer_factory.hpp:77] Creating layer res2a_branch2c
I1201 03:07:15.745414 18454 net.cpp:100] Creating Layer res2a_branch2c
I1201 03:07:15.745415 18454 net.cpp:434] res2a_branch2c <- res2a_branch2b
I1201 03:07:15.745420 18454 net.cpp:408] res2a_branch2c -> res2a_branch2c
I1201 03:07:15.745882 18454 net.cpp:150] Setting up res2a_branch2c
I1201 03:07:15.745887 18454 net.cpp:157] Top shape: 6 256 56 56 (4816896)
I1201 03:07:15.745889 18454 net.cpp:165] Memory required for data: 210739224
I1201 03:07:15.745893 18454 layer_factory.hpp:77] Creating layer bn2a_branch2c
I1201 03:07:15.745895 18454 net.cpp:100] Creating Layer bn2a_branch2c
I1201 03:07:15.745898 18454 net.cpp:434] bn2a_branch2c <- res2a_branch2c
I1201 03:07:15.745900 18454 net.cpp:395] bn2a_branch2c -> res2a_branch2c (in-place)
I1201 03:07:15.746004 18454 net.cpp:150] Setting up bn2a_branch2c
I1201 03:07:15.746008 18454 net.cpp:157] Top shape: 6 256 56 56 (4816896)
I1201 03:07:15.746011 18454 net.cpp:165] Memory required for data: 230006808
I1201 03:07:15.746013 18454 layer_factory.hpp:77] Creating layer scale2a_branch2c
I1201 03:07:15.746017 18454 net.cpp:100] Creating Layer scale2a_branch2c
I1201 03:07:15.746019 18454 net.cpp:434] scale2a_branch2c <- res2a_branch2c
I1201 03:07:15.746021 18454 net.cpp:395] scale2a_branch2c -> res2a_branch2c (in-place)
I1201 03:07:15.746042 18454 layer_factory.hpp:77] Creating layer scale2a_branch2c
I1201 03:07:15.746106 18454 net.cpp:150] Setting up scale2a_branch2c
I1201 03:07:15.746110 18454 net.cpp:157] Top shape: 6 256 56 56 (4816896)
I1201 03:07:15.746112 18454 net.cpp:165] Memory required for data: 249274392
I1201 03:07:15.746115 18454 layer_factory.hpp:77] Creating layer res2a
I1201 03:07:15.746119 18454 net.cpp:100] Creating Layer res2a
I1201 03:07:15.746120 18454 net.cpp:434] res2a <- res2a_branch1
I1201 03:07:15.746122 18454 net.cpp:434] res2a <- res2a_branch2c
I1201 03:07:15.746125 18454 net.cpp:408] res2a -> res2a
I1201 03:07:15.746141 18454 net.cpp:150] Setting up res2a
I1201 03:07:15.746145 18454 net.cpp:157] Top shape: 6 256 56 56 (4816896)
I1201 03:07:15.746145 18454 net.cpp:165] Memory required for data: 268541976
I1201 03:07:15.746147 18454 layer_factory.hpp:77] Creating layer res2a_relu
I1201 03:07:15.746151 18454 net.cpp:100] Creating Layer res2a_relu
I1201 03:07:15.746153 18454 net.cpp:434] res2a_relu <- res2a
I1201 03:07:15.746156 18454 net.cpp:395] res2a_relu -> res2a (in-place)
I1201 03:07:15.746394 18454 net.cpp:150] Setting up res2a_relu
I1201 03:07:15.746402 18454 net.cpp:157] Top shape: 6 256 56 56 (4816896)
I1201 03:07:15.746403 18454 net.cpp:165] Memory required for data: 287809560
I1201 03:07:15.746405 18454 layer_factory.hpp:77] Creating layer res2a_res2a_relu_0_split
I1201 03:07:15.746410 18454 net.cpp:100] Creating Layer res2a_res2a_relu_0_split
I1201 03:07:15.746413 18454 net.cpp:434] res2a_res2a_relu_0_split <- res2a
I1201 03:07:15.746417 18454 net.cpp:408] res2a_res2a_relu_0_split -> res2a_res2a_relu_0_split_0
I1201 03:07:15.746420 18454 net.cpp:408] res2a_res2a_relu_0_split -> res2a_res2a_relu_0_split_1
I1201 03:07:15.746443 18454 net.cpp:150] Setting up res2a_res2a_relu_0_split
I1201 03:07:15.746448 18454 net.cpp:157] Top shape: 6 256 56 56 (4816896)
I1201 03:07:15.746450 18454 net.cpp:157] Top shape: 6 256 56 56 (4816896)
I1201 03:07:15.746451 18454 net.cpp:165] Memory required for data: 326344728
I1201 03:07:15.746454 18454 layer_factory.hpp:77] Creating layer res2b_branch2a
I1201 03:07:15.746459 18454 net.cpp:100] Creating Layer res2b_branch2a
I1201 03:07:15.746461 18454 net.cpp:434] res2b_branch2a <- res2a_res2a_relu_0_split_0
I1201 03:07:15.746471 18454 net.cpp:408] res2b_branch2a -> res2b_branch2a
I1201 03:07:15.747074 18454 net.cpp:150] Setting up res2b_branch2a
I1201 03:07:15.747082 18454 net.cpp:157] Top shape: 6 64 56 56 (1204224)
I1201 03:07:15.747086 18454 net.cpp:165] Memory required for data: 331161624
I1201 03:07:15.747088 18454 layer_factory.hpp:77] Creating layer bn2b_branch2a
I1201 03:07:15.747092 18454 net.cpp:100] Creating Layer bn2b_branch2a
I1201 03:07:15.747094 18454 net.cpp:434] bn2b_branch2a <- res2b_branch2a
I1201 03:07:15.747098 18454 net.cpp:395] bn2b_branch2a -> res2b_branch2a (in-place)
I1201 03:07:15.747208 18454 net.cpp:150] Setting up bn2b_branch2a
I1201 03:07:15.747213 18454 net.cpp:157] Top shape: 6 64 56 56 (1204224)
I1201 03:07:15.747215 18454 net.cpp:165] Memory required for data: 335978520
I1201 03:07:15.747222 18454 layer_factory.hpp:77] Creating layer scale2b_branch2a
I1201 03:07:15.747225 18454 net.cpp:100] Creating Layer scale2b_branch2a
I1201 03:07:15.747227 18454 net.cpp:434] scale2b_branch2a <- res2b_branch2a
I1201 03:07:15.747233 18454 net.cpp:395] scale2b_branch2a -> res2b_branch2a (in-place)
I1201 03:07:15.747256 18454 layer_factory.hpp:77] Creating layer scale2b_branch2a
I1201 03:07:15.747321 18454 net.cpp:150] Setting up scale2b_branch2a
I1201 03:07:15.747325 18454 net.cpp:157] Top shape: 6 64 56 56 (1204224)
I1201 03:07:15.747328 18454 net.cpp:165] Memory required for data: 340795416
I1201 03:07:15.747331 18454 layer_factory.hpp:77] Creating layer res2b_branch2a_relu
I1201 03:07:15.747334 18454 net.cpp:100] Creating Layer res2b_branch2a_relu
I1201 03:07:15.747337 18454 net.cpp:434] res2b_branch2a_relu <- res2b_branch2a
I1201 03:07:15.747340 18454 net.cpp:395] res2b_branch2a_relu -> res2b_branch2a (in-place)
I1201 03:07:15.747437 18454 net.cpp:150] Setting up res2b_branch2a_relu
I1201 03:07:15.747442 18454 net.cpp:157] Top shape: 6 64 56 56 (1204224)
I1201 03:07:15.747443 18454 net.cpp:165] Memory required for data: 345612312
I1201 03:07:15.747445 18454 layer_factory.hpp:77] Creating layer res2b_branch2b
I1201 03:07:15.747452 18454 net.cpp:100] Creating Layer res2b_branch2b
I1201 03:07:15.747454 18454 net.cpp:434] res2b_branch2b <- res2b_branch2a
I1201 03:07:15.747457 18454 net.cpp:408] res2b_branch2b -> res2b_branch2b
I1201 03:07:15.748128 18454 net.cpp:150] Setting up res2b_branch2b
I1201 03:07:15.748136 18454 net.cpp:157] Top shape: 6 64 56 56 (1204224)
I1201 03:07:15.748137 18454 net.cpp:165] Memory required for data: 350429208
I1201 03:07:15.748141 18454 layer_factory.hpp:77] Creating layer bn2b_branch2b
I1201 03:07:15.748145 18454 net.cpp:100] Creating Layer bn2b_branch2b
I1201 03:07:15.748148 18454 net.cpp:434] bn2b_branch2b <- res2b_branch2b
I1201 03:07:15.748150 18454 net.cpp:395] bn2b_branch2b -> res2b_branch2b (in-place)
I1201 03:07:15.748265 18454 net.cpp:150] Setting up bn2b_branch2b
I1201 03:07:15.748270 18454 net.cpp:157] Top shape: 6 64 56 56 (1204224)
I1201 03:07:15.748271 18454 net.cpp:165] Memory required for data: 355246104
I1201 03:07:15.748275 18454 layer_factory.hpp:77] Creating layer scale2b_branch2b
I1201 03:07:15.748278 18454 net.cpp:100] Creating Layer scale2b_branch2b
I1201 03:07:15.748281 18454 net.cpp:434] scale2b_branch2b <- res2b_branch2b
I1201 03:07:15.748283 18454 net.cpp:395] scale2b_branch2b -> res2b_branch2b (in-place)
I1201 03:07:15.748308 18454 layer_factory.hpp:77] Creating layer scale2b_branch2b
I1201 03:07:15.748378 18454 net.cpp:150] Setting up scale2b_branch2b
I1201 03:07:15.748383 18454 net.cpp:157] Top shape: 6 64 56 56 (1204224)
I1201 03:07:15.748385 18454 net.cpp:165] Memory required for data: 360063000
I1201 03:07:15.748389 18454 layer_factory.hpp:77] Creating layer res2b_branch2b_relu
I1201 03:07:15.748391 18454 net.cpp:100] Creating Layer res2b_branch2b_relu
I1201 03:07:15.748394 18454 net.cpp:434] res2b_branch2b_relu <- res2b_branch2b
I1201 03:07:15.748397 18454 net.cpp:395] res2b_branch2b_relu -> res2b_branch2b (in-place)
I1201 03:07:15.748495 18454 net.cpp:150] Setting up res2b_branch2b_relu
I1201 03:07:15.748507 18454 net.cpp:157] Top shape: 6 64 56 56 (1204224)
I1201 03:07:15.748509 18454 net.cpp:165] Memory required for data: 364879896
I1201 03:07:15.748510 18454 layer_factory.hpp:77] Creating layer res2b_branch2c
I1201 03:07:15.748519 18454 net.cpp:100] Creating Layer res2b_branch2c
I1201 03:07:15.748522 18454 net.cpp:434] res2b_branch2c <- res2b_branch2b
I1201 03:07:15.748525 18454 net.cpp:408] res2b_branch2c -> res2b_branch2c
I1201 03:07:15.749135 18454 net.cpp:150] Setting up res2b_branch2c
I1201 03:07:15.749142 18454 net.cpp:157] Top shape: 6 256 56 56 (4816896)
I1201 03:07:15.749145 18454 net.cpp:165] Memory required for data: 384147480
I1201 03:07:15.749148 18454 layer_factory.hpp:77] Creating layer bn2b_branch2c
I1201 03:07:15.749152 18454 net.cpp:100] Creating Layer bn2b_branch2c
I1201 03:07:15.749155 18454 net.cpp:434] bn2b_branch2c <- res2b_branch2c
I1201 03:07:15.749157 18454 net.cpp:395] bn2b_branch2c -> res2b_branch2c (in-place)
I1201 03:07:15.749266 18454 net.cpp:150] Setting up bn2b_branch2c
I1201 03:07:15.749270 18454 net.cpp:157] Top shape: 6 256 56 56 (4816896)
I1201 03:07:15.749272 18454 net.cpp:165] Memory required for data: 403415064
I1201 03:07:15.749276 18454 layer_factory.hpp:77] Creating layer scale2b_branch2c
I1201 03:07:15.749280 18454 net.cpp:100] Creating Layer scale2b_branch2c
I1201 03:07:15.749282 18454 net.cpp:434] scale2b_branch2c <- res2b_branch2c
I1201 03:07:15.749285 18454 net.cpp:395] scale2b_branch2c -> res2b_branch2c (in-place)
I1201 03:07:15.749305 18454 layer_factory.hpp:77] Creating layer scale2b_branch2c
I1201 03:07:15.749371 18454 net.cpp:150] Setting up scale2b_branch2c
I1201 03:07:15.749374 18454 net.cpp:157] Top shape: 6 256 56 56 (4816896)
I1201 03:07:15.749377 18454 net.cpp:165] Memory required for data: 422682648
I1201 03:07:15.749379 18454 layer_factory.hpp:77] Creating layer res2b
I1201 03:07:15.749383 18454 net.cpp:100] Creating Layer res2b
I1201 03:07:15.749385 18454 net.cpp:434] res2b <- res2a_res2a_relu_0_split_1
I1201 03:07:15.749387 18454 net.cpp:434] res2b <- res2b_branch2c
I1201 03:07:15.749392 18454 net.cpp:408] res2b -> res2b
I1201 03:07:15.749406 18454 net.cpp:150] Setting up res2b
I1201 03:07:15.749410 18454 net.cpp:157] Top shape: 6 256 56 56 (4816896)
I1201 03:07:15.749413 18454 net.cpp:165] Memory required for data: 441950232
I1201 03:07:15.749414 18454 layer_factory.hpp:77] Creating layer res2b_relu
I1201 03:07:15.749418 18454 net.cpp:100] Creating Layer res2b_relu
I1201 03:07:15.749419 18454 net.cpp:434] res2b_relu <- res2b
I1201 03:07:15.749423 18454 net.cpp:395] res2b_relu -> res2b (in-place)
I1201 03:07:15.749522 18454 net.cpp:150] Setting up res2b_relu
I1201 03:07:15.749527 18454 net.cpp:157] Top shape: 6 256 56 56 (4816896)
I1201 03:07:15.749529 18454 net.cpp:165] Memory required for data: 461217816
I1201 03:07:15.749531 18454 layer_factory.hpp:77] Creating layer res2b_res2b_relu_0_split
I1201 03:07:15.749534 18454 net.cpp:100] Creating Layer res2b_res2b_relu_0_split
I1201 03:07:15.749537 18454 net.cpp:434] res2b_res2b_relu_0_split <- res2b
I1201 03:07:15.749541 18454 net.cpp:408] res2b_res2b_relu_0_split -> res2b_res2b_relu_0_split_0
I1201 03:07:15.749543 18454 net.cpp:408] res2b_res2b_relu_0_split -> res2b_res2b_relu_0_split_1
I1201 03:07:15.749567 18454 net.cpp:150] Setting up res2b_res2b_relu_0_split
I1201 03:07:15.749570 18454 net.cpp:157] Top shape: 6 256 56 56 (4816896)
I1201 03:07:15.749572 18454 net.cpp:157] Top shape: 6 256 56 56 (4816896)
I1201 03:07:15.749574 18454 net.cpp:165] Memory required for data: 499752984
I1201 03:07:15.749577 18454 layer_factory.hpp:77] Creating layer res2c_branch2a
I1201 03:07:15.749581 18454 net.cpp:100] Creating Layer res2c_branch2a
I1201 03:07:15.749583 18454 net.cpp:434] res2c_branch2a <- res2b_res2b_relu_0_split_0
I1201 03:07:15.749588 18454 net.cpp:408] res2c_branch2a -> res2c_branch2a
I1201 03:07:15.750195 18454 net.cpp:150] Setting up res2c_branch2a
I1201 03:07:15.750203 18454 net.cpp:157] Top shape: 6 64 56 56 (1204224)
I1201 03:07:15.750206 18454 net.cpp:165] Memory required for data: 504569880
I1201 03:07:15.750214 18454 layer_factory.hpp:77] Creating layer bn2c_branch2a
I1201 03:07:15.750218 18454 net.cpp:100] Creating Layer bn2c_branch2a
I1201 03:07:15.750221 18454 net.cpp:434] bn2c_branch2a <- res2c_branch2a
I1201 03:07:15.750226 18454 net.cpp:395] bn2c_branch2a -> res2c_branch2a (in-place)
I1201 03:07:15.750337 18454 net.cpp:150] Setting up bn2c_branch2a
I1201 03:07:15.750341 18454 net.cpp:157] Top shape: 6 64 56 56 (1204224)
I1201 03:07:15.750344 18454 net.cpp:165] Memory required for data: 509386776
I1201 03:07:15.750349 18454 layer_factory.hpp:77] Creating layer scale2c_branch2a
I1201 03:07:15.750351 18454 net.cpp:100] Creating Layer scale2c_branch2a
I1201 03:07:15.750355 18454 net.cpp:434] scale2c_branch2a <- res2c_branch2a
I1201 03:07:15.750357 18454 net.cpp:395] scale2c_branch2a -> res2c_branch2a (in-place)
I1201 03:07:15.750378 18454 layer_factory.hpp:77] Creating layer scale2c_branch2a
I1201 03:07:15.750447 18454 net.cpp:150] Setting up scale2c_branch2a
I1201 03:07:15.750452 18454 net.cpp:157] Top shape: 6 64 56 56 (1204224)
I1201 03:07:15.750453 18454 net.cpp:165] Memory required for data: 514203672
I1201 03:07:15.750457 18454 layer_factory.hpp:77] Creating layer res2c_branch2a_relu
I1201 03:07:15.750460 18454 net.cpp:100] Creating Layer res2c_branch2a_relu
I1201 03:07:15.750463 18454 net.cpp:434] res2c_branch2a_relu <- res2c_branch2a
I1201 03:07:15.750465 18454 net.cpp:395] res2c_branch2a_relu -> res2c_branch2a (in-place)
I1201 03:07:15.750566 18454 net.cpp:150] Setting up res2c_branch2a_relu
I1201 03:07:15.750571 18454 net.cpp:157] Top shape: 6 64 56 56 (1204224)
I1201 03:07:15.750573 18454 net.cpp:165] Memory required for data: 519020568
I1201 03:07:15.750576 18454 layer_factory.hpp:77] Creating layer res2c_branch2b
I1201 03:07:15.750581 18454 net.cpp:100] Creating Layer res2c_branch2b
I1201 03:07:15.750581 18454 net.cpp:434] res2c_branch2b <- res2c_branch2a
I1201 03:07:15.750584 18454 net.cpp:408] res2c_branch2b -> res2c_branch2b
I1201 03:07:15.751394 18454 net.cpp:150] Setting up res2c_branch2b
I1201 03:07:15.751400 18454 net.cpp:157] Top shape: 6 64 56 56 (1204224)
I1201 03:07:15.751402 18454 net.cpp:165] Memory required for data: 523837464
I1201 03:07:15.751405 18454 layer_factory.hpp:77] Creating layer bn2c_branch2b
I1201 03:07:15.751408 18454 net.cpp:100] Creating Layer bn2c_branch2b
I1201 03:07:15.751410 18454 net.cpp:434] bn2c_branch2b <- res2c_branch2b
I1201 03:07:15.751413 18454 net.cpp:395] bn2c_branch2b -> res2c_branch2b (in-place)
I1201 03:07:15.751530 18454 net.cpp:150] Setting up bn2c_branch2b
I1201 03:07:15.751534 18454 net.cpp:157] Top shape: 6 64 56 56 (1204224)
I1201 03:07:15.751535 18454 net.cpp:165] Memory required for data: 528654360
I1201 03:07:15.751539 18454 layer_factory.hpp:77] Creating layer scale2c_branch2b
I1201 03:07:15.751543 18454 net.cpp:100] Creating Layer scale2c_branch2b
I1201 03:07:15.751544 18454 net.cpp:434] scale2c_branch2b <- res2c_branch2b
I1201 03:07:15.751549 18454 net.cpp:395] scale2c_branch2b -> res2c_branch2b (in-place)
I1201 03:07:15.751570 18454 layer_factory.hpp:77] Creating layer scale2c_branch2b
I1201 03:07:15.751638 18454 net.cpp:150] Setting up scale2c_branch2b
I1201 03:07:15.751642 18454 net.cpp:157] Top shape: 6 64 56 56 (1204224)
I1201 03:07:15.751643 18454 net.cpp:165] Memory required for data: 533471256
I1201 03:07:15.751646 18454 layer_factory.hpp:77] Creating layer res2c_branch2b_relu
I1201 03:07:15.751648 18454 net.cpp:100] Creating Layer res2c_branch2b_relu
I1201 03:07:15.751652 18454 net.cpp:434] res2c_branch2b_relu <- res2c_branch2b
I1201 03:07:15.751654 18454 net.cpp:395] res2c_branch2b_relu -> res2c_branch2b (in-place)
I1201 03:07:15.751899 18454 net.cpp:150] Setting up res2c_branch2b_relu
I1201 03:07:15.751905 18454 net.cpp:157] Top shape: 6 64 56 56 (1204224)
I1201 03:07:15.751907 18454 net.cpp:165] Memory required for data: 538288152
I1201 03:07:15.751909 18454 layer_factory.hpp:77] Creating layer res2c_branch2c
I1201 03:07:15.751914 18454 net.cpp:100] Creating Layer res2c_branch2c
I1201 03:07:15.751916 18454 net.cpp:434] res2c_branch2c <- res2c_branch2b
I1201 03:07:15.751926 18454 net.cpp:408] res2c_branch2c -> res2c_branch2c
I1201 03:07:15.752403 18454 net.cpp:150] Setting up res2c_branch2c
I1201 03:07:15.752408 18454 net.cpp:157] Top shape: 6 256 56 56 (4816896)
I1201 03:07:15.752409 18454 net.cpp:165] Memory required for data: 557555736
I1201 03:07:15.752413 18454 layer_factory.hpp:77] Creating layer bn2c_branch2c
I1201 03:07:15.752415 18454 net.cpp:100] Creating Layer bn2c_branch2c
I1201 03:07:15.752418 18454 net.cpp:434] bn2c_branch2c <- res2c_branch2c
I1201 03:07:15.752420 18454 net.cpp:395] bn2c_branch2c -> res2c_branch2c (in-place)
I1201 03:07:15.752532 18454 net.cpp:150] Setting up bn2c_branch2c
I1201 03:07:15.752537 18454 net.cpp:157] Top shape: 6 256 56 56 (4816896)
I1201 03:07:15.752537 18454 net.cpp:165] Memory required for data: 576823320
I1201 03:07:15.752542 18454 layer_factory.hpp:77] Creating layer scale2c_branch2c
I1201 03:07:15.752545 18454 net.cpp:100] Creating Layer scale2c_branch2c
I1201 03:07:15.752547 18454 net.cpp:434] scale2c_branch2c <- res2c_branch2c
I1201 03:07:15.752549 18454 net.cpp:395] scale2c_branch2c -> res2c_branch2c (in-place)
I1201 03:07:15.752570 18454 layer_factory.hpp:77] Creating layer scale2c_branch2c
I1201 03:07:15.752635 18454 net.cpp:150] Setting up scale2c_branch2c
I1201 03:07:15.752640 18454 net.cpp:157] Top shape: 6 256 56 56 (4816896)
I1201 03:07:15.752641 18454 net.cpp:165] Memory required for data: 596090904
I1201 03:07:15.752650 18454 layer_factory.hpp:77] Creating layer res2c
I1201 03:07:15.752655 18454 net.cpp:100] Creating Layer res2c
I1201 03:07:15.752656 18454 net.cpp:434] res2c <- res2b_res2b_relu_0_split_1
I1201 03:07:15.752658 18454 net.cpp:434] res2c <- res2c_branch2c
I1201 03:07:15.752660 18454 net.cpp:408] res2c -> res2c
I1201 03:07:15.752674 18454 net.cpp:150] Setting up res2c
I1201 03:07:15.752676 18454 net.cpp:157] Top shape: 6 256 56 56 (4816896)
I1201 03:07:15.752678 18454 net.cpp:165] Memory required for data: 615358488
I1201 03:07:15.752679 18454 layer_factory.hpp:77] Creating layer res2c_relu
I1201 03:07:15.752683 18454 net.cpp:100] Creating Layer res2c_relu
I1201 03:07:15.752686 18454 net.cpp:434] res2c_relu <- res2c
I1201 03:07:15.752687 18454 net.cpp:395] res2c_relu -> res2c (in-place)
I1201 03:07:15.752938 18454 net.cpp:150] Setting up res2c_relu
I1201 03:07:15.752945 18454 net.cpp:157] Top shape: 6 256 56 56 (4816896)
I1201 03:07:15.752948 18454 net.cpp:165] Memory required for data: 634626072
I1201 03:07:15.752949 18454 layer_factory.hpp:77] Creating layer res2c_res2c_relu_0_split
I1201 03:07:15.752952 18454 net.cpp:100] Creating Layer res2c_res2c_relu_0_split
I1201 03:07:15.752954 18454 net.cpp:434] res2c_res2c_relu_0_split <- res2c
I1201 03:07:15.752959 18454 net.cpp:408] res2c_res2c_relu_0_split -> res2c_res2c_relu_0_split_0
I1201 03:07:15.752962 18454 net.cpp:408] res2c_res2c_relu_0_split -> res2c_res2c_relu_0_split_1
I1201 03:07:15.752986 18454 net.cpp:150] Setting up res2c_res2c_relu_0_split
I1201 03:07:15.752990 18454 net.cpp:157] Top shape: 6 256 56 56 (4816896)
I1201 03:07:15.752992 18454 net.cpp:157] Top shape: 6 256 56 56 (4816896)
I1201 03:07:15.752993 18454 net.cpp:165] Memory required for data: 673161240
I1201 03:07:15.752995 18454 layer_factory.hpp:77] Creating layer res3a_branch1
I1201 03:07:15.753001 18454 net.cpp:100] Creating Layer res3a_branch1
I1201 03:07:15.753003 18454 net.cpp:434] res3a_branch1 <- res2c_res2c_relu_0_split_0
I1201 03:07:15.753006 18454 net.cpp:408] res3a_branch1 -> res3a_branch1
I1201 03:07:15.754151 18454 net.cpp:150] Setting up res3a_branch1
I1201 03:07:15.754159 18454 net.cpp:157] Top shape: 6 512 28 28 (2408448)
I1201 03:07:15.754160 18454 net.cpp:165] Memory required for data: 682795032
I1201 03:07:15.754164 18454 layer_factory.hpp:77] Creating layer bn3a_branch1
I1201 03:07:15.754168 18454 net.cpp:100] Creating Layer bn3a_branch1
I1201 03:07:15.754170 18454 net.cpp:434] bn3a_branch1 <- res3a_branch1
I1201 03:07:15.754173 18454 net.cpp:395] bn3a_branch1 -> res3a_branch1 (in-place)
I1201 03:07:15.754739 18454 net.cpp:150] Setting up bn3a_branch1
I1201 03:07:15.754755 18454 net.cpp:157] Top shape: 6 512 28 28 (2408448)
I1201 03:07:15.754756 18454 net.cpp:165] Memory required for data: 692428824
I1201 03:07:15.754761 18454 layer_factory.hpp:77] Creating layer scale3a_branch1
I1201 03:07:15.754765 18454 net.cpp:100] Creating Layer scale3a_branch1
I1201 03:07:15.754766 18454 net.cpp:434] scale3a_branch1 <- res3a_branch1
I1201 03:07:15.754770 18454 net.cpp:395] scale3a_branch1 -> res3a_branch1 (in-place)
I1201 03:07:15.754796 18454 layer_factory.hpp:77] Creating layer scale3a_branch1
I1201 03:07:15.754860 18454 net.cpp:150] Setting up scale3a_branch1
I1201 03:07:15.754864 18454 net.cpp:157] Top shape: 6 512 28 28 (2408448)
I1201 03:07:15.754866 18454 net.cpp:165] Memory required for data: 702062616
I1201 03:07:15.754869 18454 layer_factory.hpp:77] Creating layer res3a_branch2a
I1201 03:07:15.754874 18454 net.cpp:100] Creating Layer res3a_branch2a
I1201 03:07:15.754876 18454 net.cpp:434] res3a_branch2a <- res2c_res2c_relu_0_split_1
I1201 03:07:15.754880 18454 net.cpp:408] res3a_branch2a -> res3a_branch2a
I1201 03:07:15.755729 18454 net.cpp:150] Setting up res3a_branch2a
I1201 03:07:15.755738 18454 net.cpp:157] Top shape: 6 128 28 28 (602112)
I1201 03:07:15.755738 18454 net.cpp:165] Memory required for data: 704471064
I1201 03:07:15.755743 18454 layer_factory.hpp:77] Creating layer bn3a_branch2a
I1201 03:07:15.755746 18454 net.cpp:100] Creating Layer bn3a_branch2a
I1201 03:07:15.755748 18454 net.cpp:434] bn3a_branch2a <- res3a_branch2a
I1201 03:07:15.755751 18454 net.cpp:395] bn3a_branch2a -> res3a_branch2a (in-place)
I1201 03:07:15.755875 18454 net.cpp:150] Setting up bn3a_branch2a
I1201 03:07:15.755879 18454 net.cpp:157] Top shape: 6 128 28 28 (602112)
I1201 03:07:15.755882 18454 net.cpp:165] Memory required for data: 706879512
I1201 03:07:15.755885 18454 layer_factory.hpp:77] Creating layer scale3a_branch2a
I1201 03:07:15.755888 18454 net.cpp:100] Creating Layer scale3a_branch2a
I1201 03:07:15.755890 18454 net.cpp:434] scale3a_branch2a <- res3a_branch2a
I1201 03:07:15.755893 18454 net.cpp:395] scale3a_branch2a -> res3a_branch2a (in-place)
I1201 03:07:15.755915 18454 layer_factory.hpp:77] Creating layer scale3a_branch2a
I1201 03:07:15.755980 18454 net.cpp:150] Setting up scale3a_branch2a
I1201 03:07:15.755983 18454 net.cpp:157] Top shape: 6 128 28 28 (602112)
I1201 03:07:15.755985 18454 net.cpp:165] Memory required for data: 709287960
I1201 03:07:15.755988 18454 layer_factory.hpp:77] Creating layer res3a_branch2a_relu
I1201 03:07:15.755991 18454 net.cpp:100] Creating Layer res3a_branch2a_relu
I1201 03:07:15.755993 18454 net.cpp:434] res3a_branch2a_relu <- res3a_branch2a
I1201 03:07:15.755996 18454 net.cpp:395] res3a_branch2a_relu -> res3a_branch2a (in-place)
I1201 03:07:15.756104 18454 net.cpp:150] Setting up res3a_branch2a_relu
I1201 03:07:15.756109 18454 net.cpp:157] Top shape: 6 128 28 28 (602112)
I1201 03:07:15.756111 18454 net.cpp:165] Memory required for data: 711696408
I1201 03:07:15.756114 18454 layer_factory.hpp:77] Creating layer res3a_branch2b
I1201 03:07:15.756117 18454 net.cpp:100] Creating Layer res3a_branch2b
I1201 03:07:15.756120 18454 net.cpp:434] res3a_branch2b <- res3a_branch2a
I1201 03:07:15.756124 18454 net.cpp:408] res3a_branch2b -> res3a_branch2b
I1201 03:07:15.757349 18454 net.cpp:150] Setting up res3a_branch2b
I1201 03:07:15.757356 18454 net.cpp:157] Top shape: 6 128 28 28 (602112)
I1201 03:07:15.757359 18454 net.cpp:165] Memory required for data: 714104856
I1201 03:07:15.757362 18454 layer_factory.hpp:77] Creating layer bn3a_branch2b
I1201 03:07:15.757366 18454 net.cpp:100] Creating Layer bn3a_branch2b
I1201 03:07:15.757369 18454 net.cpp:434] bn3a_branch2b <- res3a_branch2b
I1201 03:07:15.757374 18454 net.cpp:395] bn3a_branch2b -> res3a_branch2b (in-place)
I1201 03:07:15.757493 18454 net.cpp:150] Setting up bn3a_branch2b
I1201 03:07:15.757496 18454 net.cpp:157] Top shape: 6 128 28 28 (602112)
I1201 03:07:15.757498 18454 net.cpp:165] Memory required for data: 716513304
I1201 03:07:15.757501 18454 layer_factory.hpp:77] Creating layer scale3a_branch2b
I1201 03:07:15.757510 18454 net.cpp:100] Creating Layer scale3a_branch2b
I1201 03:07:15.757513 18454 net.cpp:434] scale3a_branch2b <- res3a_branch2b
I1201 03:07:15.757515 18454 net.cpp:395] scale3a_branch2b -> res3a_branch2b (in-place)
I1201 03:07:15.757539 18454 layer_factory.hpp:77] Creating layer scale3a_branch2b
I1201 03:07:15.757604 18454 net.cpp:150] Setting up scale3a_branch2b
I1201 03:07:15.757608 18454 net.cpp:157] Top shape: 6 128 28 28 (602112)
I1201 03:07:15.757611 18454 net.cpp:165] Memory required for data: 718921752
I1201 03:07:15.757613 18454 layer_factory.hpp:77] Creating layer res3a_branch2b_relu
I1201 03:07:15.757616 18454 net.cpp:100] Creating Layer res3a_branch2b_relu
I1201 03:07:15.757618 18454 net.cpp:434] res3a_branch2b_relu <- res3a_branch2b
I1201 03:07:15.757622 18454 net.cpp:395] res3a_branch2b_relu -> res3a_branch2b (in-place)
I1201 03:07:15.757727 18454 net.cpp:150] Setting up res3a_branch2b_relu
I1201 03:07:15.757732 18454 net.cpp:157] Top shape: 6 128 28 28 (602112)
I1201 03:07:15.757733 18454 net.cpp:165] Memory required for data: 721330200
I1201 03:07:15.757735 18454 layer_factory.hpp:77] Creating layer res3a_branch2c
I1201 03:07:15.757741 18454 net.cpp:100] Creating Layer res3a_branch2c
I1201 03:07:15.757743 18454 net.cpp:434] res3a_branch2c <- res3a_branch2b
I1201 03:07:15.757747 18454 net.cpp:408] res3a_branch2c -> res3a_branch2c
I1201 03:07:15.758558 18454 net.cpp:150] Setting up res3a_branch2c
I1201 03:07:15.758564 18454 net.cpp:157] Top shape: 6 512 28 28 (2408448)
I1201 03:07:15.758566 18454 net.cpp:165] Memory required for data: 730963992
I1201 03:07:15.758569 18454 layer_factory.hpp:77] Creating layer bn3a_branch2c
I1201 03:07:15.758579 18454 net.cpp:100] Creating Layer bn3a_branch2c
I1201 03:07:15.758581 18454 net.cpp:434] bn3a_branch2c <- res3a_branch2c
I1201 03:07:15.758584 18454 net.cpp:395] bn3a_branch2c -> res3a_branch2c (in-place)
I1201 03:07:15.758697 18454 net.cpp:150] Setting up bn3a_branch2c
I1201 03:07:15.758700 18454 net.cpp:157] Top shape: 6 512 28 28 (2408448)
I1201 03:07:15.758702 18454 net.cpp:165] Memory required for data: 740597784
I1201 03:07:15.758707 18454 layer_factory.hpp:77] Creating layer scale3a_branch2c
I1201 03:07:15.758710 18454 net.cpp:100] Creating Layer scale3a_branch2c
I1201 03:07:15.758713 18454 net.cpp:434] scale3a_branch2c <- res3a_branch2c
I1201 03:07:15.758714 18454 net.cpp:395] scale3a_branch2c -> res3a_branch2c (in-place)
I1201 03:07:15.758738 18454 layer_factory.hpp:77] Creating layer scale3a_branch2c
I1201 03:07:15.758801 18454 net.cpp:150] Setting up scale3a_branch2c
I1201 03:07:15.758805 18454 net.cpp:157] Top shape: 6 512 28 28 (2408448)
I1201 03:07:15.758807 18454 net.cpp:165] Memory required for data: 750231576
I1201 03:07:15.758810 18454 layer_factory.hpp:77] Creating layer res3a
I1201 03:07:15.758812 18454 net.cpp:100] Creating Layer res3a
I1201 03:07:15.758815 18454 net.cpp:434] res3a <- res3a_branch1
I1201 03:07:15.758817 18454 net.cpp:434] res3a <- res3a_branch2c
I1201 03:07:15.758821 18454 net.cpp:408] res3a -> res3a
I1201 03:07:15.758833 18454 net.cpp:150] Setting up res3a
I1201 03:07:15.758836 18454 net.cpp:157] Top shape: 6 512 28 28 (2408448)
I1201 03:07:15.758838 18454 net.cpp:165] Memory required for data: 759865368
I1201 03:07:15.758841 18454 layer_factory.hpp:77] Creating layer res3a_relu
I1201 03:07:15.758843 18454 net.cpp:100] Creating Layer res3a_relu
I1201 03:07:15.758846 18454 net.cpp:434] res3a_relu <- res3a
I1201 03:07:15.758847 18454 net.cpp:395] res3a_relu -> res3a (in-place)
I1201 03:07:15.758957 18454 net.cpp:150] Setting up res3a_relu
I1201 03:07:15.758962 18454 net.cpp:157] Top shape: 6 512 28 28 (2408448)
I1201 03:07:15.758965 18454 net.cpp:165] Memory required for data: 769499160
I1201 03:07:15.758966 18454 layer_factory.hpp:77] Creating layer res3a_res3a_relu_0_split
I1201 03:07:15.758970 18454 net.cpp:100] Creating Layer res3a_res3a_relu_0_split
I1201 03:07:15.758970 18454 net.cpp:434] res3a_res3a_relu_0_split <- res3a
I1201 03:07:15.758975 18454 net.cpp:408] res3a_res3a_relu_0_split -> res3a_res3a_relu_0_split_0
I1201 03:07:15.758985 18454 net.cpp:408] res3a_res3a_relu_0_split -> res3a_res3a_relu_0_split_1
I1201 03:07:15.759007 18454 net.cpp:150] Setting up res3a_res3a_relu_0_split
I1201 03:07:15.759011 18454 net.cpp:157] Top shape: 6 512 28 28 (2408448)
I1201 03:07:15.759012 18454 net.cpp:157] Top shape: 6 512 28 28 (2408448)
I1201 03:07:15.759014 18454 net.cpp:165] Memory required for data: 788766744
I1201 03:07:15.759016 18454 layer_factory.hpp:77] Creating layer res3b1_branch2a
I1201 03:07:15.759021 18454 net.cpp:100] Creating Layer res3b1_branch2a
I1201 03:07:15.759023 18454 net.cpp:434] res3b1_branch2a <- res3a_res3a_relu_0_split_0
I1201 03:07:15.759027 18454 net.cpp:408] res3b1_branch2a -> res3b1_branch2a
I1201 03:07:15.759825 18454 net.cpp:150] Setting up res3b1_branch2a
I1201 03:07:15.759831 18454 net.cpp:157] Top shape: 6 128 28 28 (602112)
I1201 03:07:15.759834 18454 net.cpp:165] Memory required for data: 791175192
I1201 03:07:15.759836 18454 layer_factory.hpp:77] Creating layer bn3b1_branch2a
I1201 03:07:15.759840 18454 net.cpp:100] Creating Layer bn3b1_branch2a
I1201 03:07:15.759842 18454 net.cpp:434] bn3b1_branch2a <- res3b1_branch2a
I1201 03:07:15.759845 18454 net.cpp:395] bn3b1_branch2a -> res3b1_branch2a (in-place)
I1201 03:07:15.759968 18454 net.cpp:150] Setting up bn3b1_branch2a
I1201 03:07:15.759971 18454 net.cpp:157] Top shape: 6 128 28 28 (602112)
I1201 03:07:15.759974 18454 net.cpp:165] Memory required for data: 793583640
I1201 03:07:15.759977 18454 layer_factory.hpp:77] Creating layer scale3b1_branch2a
I1201 03:07:15.759980 18454 net.cpp:100] Creating Layer scale3b1_branch2a
I1201 03:07:15.759982 18454 net.cpp:434] scale3b1_branch2a <- res3b1_branch2a
I1201 03:07:15.759984 18454 net.cpp:395] scale3b1_branch2a -> res3b1_branch2a (in-place)
I1201 03:07:15.760006 18454 layer_factory.hpp:77] Creating layer scale3b1_branch2a
I1201 03:07:15.760071 18454 net.cpp:150] Setting up scale3b1_branch2a
I1201 03:07:15.760073 18454 net.cpp:157] Top shape: 6 128 28 28 (602112)
I1201 03:07:15.760076 18454 net.cpp:165] Memory required for data: 795992088
I1201 03:07:15.760078 18454 layer_factory.hpp:77] Creating layer res3b1_branch2a_relu
I1201 03:07:15.760082 18454 net.cpp:100] Creating Layer res3b1_branch2a_relu
I1201 03:07:15.760083 18454 net.cpp:434] res3b1_branch2a_relu <- res3b1_branch2a
I1201 03:07:15.760085 18454 net.cpp:395] res3b1_branch2a_relu -> res3b1_branch2a (in-place)
I1201 03:07:15.760192 18454 net.cpp:150] Setting up res3b1_branch2a_relu
I1201 03:07:15.760196 18454 net.cpp:157] Top shape: 6 128 28 28 (602112)
I1201 03:07:15.760198 18454 net.cpp:165] Memory required for data: 798400536
I1201 03:07:15.760200 18454 layer_factory.hpp:77] Creating layer res3b1_branch2b
I1201 03:07:15.760205 18454 net.cpp:100] Creating Layer res3b1_branch2b
I1201 03:07:15.760207 18454 net.cpp:434] res3b1_branch2b <- res3b1_branch2a
I1201 03:07:15.760210 18454 net.cpp:408] res3b1_branch2b -> res3b1_branch2b
I1201 03:07:15.761900 18454 net.cpp:150] Setting up res3b1_branch2b
I1201 03:07:15.761907 18454 net.cpp:157] Top shape: 6 128 28 28 (602112)
I1201 03:07:15.761910 18454 net.cpp:165] Memory required for data: 800808984
I1201 03:07:15.761914 18454 layer_factory.hpp:77] Creating layer bn3b1_branch2b
I1201 03:07:15.761917 18454 net.cpp:100] Creating Layer bn3b1_branch2b
I1201 03:07:15.761919 18454 net.cpp:434] bn3b1_branch2b <- res3b1_branch2b
I1201 03:07:15.761922 18454 net.cpp:395] bn3b1_branch2b -> res3b1_branch2b (in-place)
I1201 03:07:15.762044 18454 net.cpp:150] Setting up bn3b1_branch2b
I1201 03:07:15.762048 18454 net.cpp:157] Top shape: 6 128 28 28 (602112)
I1201 03:07:15.762049 18454 net.cpp:165] Memory required for data: 803217432
I1201 03:07:15.762053 18454 layer_factory.hpp:77] Creating layer scale3b1_branch2b
I1201 03:07:15.762056 18454 net.cpp:100] Creating Layer scale3b1_branch2b
I1201 03:07:15.762058 18454 net.cpp:434] scale3b1_branch2b <- res3b1_branch2b
I1201 03:07:15.762060 18454 net.cpp:395] scale3b1_branch2b -> res3b1_branch2b (in-place)
I1201 03:07:15.762084 18454 layer_factory.hpp:77] Creating layer scale3b1_branch2b
I1201 03:07:15.762158 18454 net.cpp:150] Setting up scale3b1_branch2b
I1201 03:07:15.762162 18454 net.cpp:157] Top shape: 6 128 28 28 (602112)
I1201 03:07:15.762164 18454 net.cpp:165] Memory required for data: 805625880
I1201 03:07:15.762167 18454 layer_factory.hpp:77] Creating layer res3b1_branch2b_relu
I1201 03:07:15.762171 18454 net.cpp:100] Creating Layer res3b1_branch2b_relu
I1201 03:07:15.762172 18454 net.cpp:434] res3b1_branch2b_relu <- res3b1_branch2b
I1201 03:07:15.762174 18454 net.cpp:395] res3b1_branch2b_relu -> res3b1_branch2b (in-place)
I1201 03:07:15.762284 18454 net.cpp:150] Setting up res3b1_branch2b_relu
I1201 03:07:15.762287 18454 net.cpp:157] Top shape: 6 128 28 28 (602112)
I1201 03:07:15.762290 18454 net.cpp:165] Memory required for data: 808034328
I1201 03:07:15.762291 18454 layer_factory.hpp:77] Creating layer res3b1_branch2c
I1201 03:07:15.762296 18454 net.cpp:100] Creating Layer res3b1_branch2c
I1201 03:07:15.762298 18454 net.cpp:434] res3b1_branch2c <- res3b1_branch2b
I1201 03:07:15.762302 18454 net.cpp:408] res3b1_branch2c -> res3b1_branch2c
I1201 03:07:15.763123 18454 net.cpp:150] Setting up res3b1_branch2c
I1201 03:07:15.763129 18454 net.cpp:157] Top shape: 6 512 28 28 (2408448)
I1201 03:07:15.763130 18454 net.cpp:165] Memory required for data: 817668120
I1201 03:07:15.763134 18454 layer_factory.hpp:77] Creating layer bn3b1_branch2c
I1201 03:07:15.763137 18454 net.cpp:100] Creating Layer bn3b1_branch2c
I1201 03:07:15.763140 18454 net.cpp:434] bn3b1_branch2c <- res3b1_branch2c
I1201 03:07:15.763144 18454 net.cpp:395] bn3b1_branch2c -> res3b1_branch2c (in-place)
I1201 03:07:15.763258 18454 net.cpp:150] Setting up bn3b1_branch2c
I1201 03:07:15.763262 18454 net.cpp:157] Top shape: 6 512 28 28 (2408448)
I1201 03:07:15.763264 18454 net.cpp:165] Memory required for data: 827301912
I1201 03:07:15.763267 18454 layer_factory.hpp:77] Creating layer scale3b1_branch2c
I1201 03:07:15.763270 18454 net.cpp:100] Creating Layer scale3b1_branch2c
I1201 03:07:15.763273 18454 net.cpp:434] scale3b1_branch2c <- res3b1_branch2c
I1201 03:07:15.763275 18454 net.cpp:395] scale3b1_branch2c -> res3b1_branch2c (in-place)
I1201 03:07:15.763298 18454 layer_factory.hpp:77] Creating layer scale3b1_branch2c
I1201 03:07:15.763362 18454 net.cpp:150] Setting up scale3b1_branch2c
I1201 03:07:15.763366 18454 net.cpp:157] Top shape: 6 512 28 28 (2408448)
I1201 03:07:15.763368 18454 net.cpp:165] Memory required for data: 836935704
I1201 03:07:15.763371 18454 layer_factory.hpp:77] Creating layer res3b1
I1201 03:07:15.763375 18454 net.cpp:100] Creating Layer res3b1
I1201 03:07:15.763376 18454 net.cpp:434] res3b1 <- res3a_res3a_relu_0_split_1
I1201 03:07:15.763380 18454 net.cpp:434] res3b1 <- res3b1_branch2c
I1201 03:07:15.763382 18454 net.cpp:408] res3b1 -> res3b1
I1201 03:07:15.763396 18454 net.cpp:150] Setting up res3b1
I1201 03:07:15.763399 18454 net.cpp:157] Top shape: 6 512 28 28 (2408448)
I1201 03:07:15.763401 18454 net.cpp:165] Memory required for data: 846569496
I1201 03:07:15.763403 18454 layer_factory.hpp:77] Creating layer res3b1_relu
I1201 03:07:15.763406 18454 net.cpp:100] Creating Layer res3b1_relu
I1201 03:07:15.763408 18454 net.cpp:434] res3b1_relu <- res3b1
I1201 03:07:15.763411 18454 net.cpp:395] res3b1_relu -> res3b1 (in-place)
I1201 03:07:15.763661 18454 net.cpp:150] Setting up res3b1_relu
I1201 03:07:15.763667 18454 net.cpp:157] Top shape: 6 512 28 28 (2408448)
I1201 03:07:15.763669 18454 net.cpp:165] Memory required for data: 856203288
I1201 03:07:15.763671 18454 layer_factory.hpp:77] Creating layer res3b1_res3b1_relu_0_split
I1201 03:07:15.763674 18454 net.cpp:100] Creating Layer res3b1_res3b1_relu_0_split
I1201 03:07:15.763676 18454 net.cpp:434] res3b1_res3b1_relu_0_split <- res3b1
I1201 03:07:15.763679 18454 net.cpp:408] res3b1_res3b1_relu_0_split -> res3b1_res3b1_relu_0_split_0
I1201 03:07:15.763684 18454 net.cpp:408] res3b1_res3b1_relu_0_split -> res3b1_res3b1_relu_0_split_1
I1201 03:07:15.763708 18454 net.cpp:150] Setting up res3b1_res3b1_relu_0_split
I1201 03:07:15.763717 18454 net.cpp:157] Top shape: 6 512 28 28 (2408448)
I1201 03:07:15.763720 18454 net.cpp:157] Top shape: 6 512 28 28 (2408448)
I1201 03:07:15.763721 18454 net.cpp:165] Memory required for data: 875470872
I1201 03:07:15.763723 18454 layer_factory.hpp:77] Creating layer res3b2_branch2a
I1201 03:07:15.763728 18454 net.cpp:100] Creating Layer res3b2_branch2a
I1201 03:07:15.763731 18454 net.cpp:434] res3b2_branch2a <- res3b1_res3b1_relu_0_split_0
I1201 03:07:15.763734 18454 net.cpp:408] res3b2_branch2a -> res3b2_branch2a
I1201 03:07:15.764559 18454 net.cpp:150] Setting up res3b2_branch2a
I1201 03:07:15.764565 18454 net.cpp:157] Top shape: 6 128 28 28 (602112)
I1201 03:07:15.764567 18454 net.cpp:165] Memory required for data: 877879320
I1201 03:07:15.764570 18454 layer_factory.hpp:77] Creating layer bn3b2_branch2a
I1201 03:07:15.764575 18454 net.cpp:100] Creating Layer bn3b2_branch2a
I1201 03:07:15.764576 18454 net.cpp:434] bn3b2_branch2a <- res3b2_branch2a
I1201 03:07:15.764580 18454 net.cpp:395] bn3b2_branch2a -> res3b2_branch2a (in-place)
I1201 03:07:15.764698 18454 net.cpp:150] Setting up bn3b2_branch2a
I1201 03:07:15.764701 18454 net.cpp:157] Top shape: 6 128 28 28 (602112)
I1201 03:07:15.764703 18454 net.cpp:165] Memory required for data: 880287768
I1201 03:07:15.764706 18454 layer_factory.hpp:77] Creating layer scale3b2_branch2a
I1201 03:07:15.764709 18454 net.cpp:100] Creating Layer scale3b2_branch2a
I1201 03:07:15.764711 18454 net.cpp:434] scale3b2_branch2a <- res3b2_branch2a
I1201 03:07:15.764714 18454 net.cpp:395] scale3b2_branch2a -> res3b2_branch2a (in-place)
I1201 03:07:15.764736 18454 layer_factory.hpp:77] Creating layer scale3b2_branch2a
I1201 03:07:15.764802 18454 net.cpp:150] Setting up scale3b2_branch2a
I1201 03:07:15.764806 18454 net.cpp:157] Top shape: 6 128 28 28 (602112)
I1201 03:07:15.764807 18454 net.cpp:165] Memory required for data: 882696216
I1201 03:07:15.764811 18454 layer_factory.hpp:77] Creating layer res3b2_branch2a_relu
I1201 03:07:15.764814 18454 net.cpp:100] Creating Layer res3b2_branch2a_relu
I1201 03:07:15.764816 18454 net.cpp:434] res3b2_branch2a_relu <- res3b2_branch2a
I1201 03:07:15.764818 18454 net.cpp:395] res3b2_branch2a_relu -> res3b2_branch2a (in-place)
I1201 03:07:15.764930 18454 net.cpp:150] Setting up res3b2_branch2a_relu
I1201 03:07:15.764933 18454 net.cpp:157] Top shape: 6 128 28 28 (602112)
I1201 03:07:15.764935 18454 net.cpp:165] Memory required for data: 885104664
I1201 03:07:15.764937 18454 layer_factory.hpp:77] Creating layer res3b2_branch2b
I1201 03:07:15.764941 18454 net.cpp:100] Creating Layer res3b2_branch2b
I1201 03:07:15.764945 18454 net.cpp:434] res3b2_branch2b <- res3b2_branch2a
I1201 03:07:15.764947 18454 net.cpp:408] res3b2_branch2b -> res3b2_branch2b
I1201 03:07:15.766180 18454 net.cpp:150] Setting up res3b2_branch2b
I1201 03:07:15.766185 18454 net.cpp:157] Top shape: 6 128 28 28 (602112)
I1201 03:07:15.766187 18454 net.cpp:165] Memory required for data: 887513112
I1201 03:07:15.766191 18454 layer_factory.hpp:77] Creating layer bn3b2_branch2b
I1201 03:07:15.766194 18454 net.cpp:100] Creating Layer bn3b2_branch2b
I1201 03:07:15.766196 18454 net.cpp:434] bn3b2_branch2b <- res3b2_branch2b
I1201 03:07:15.766201 18454 net.cpp:395] bn3b2_branch2b -> res3b2_branch2b (in-place)
I1201 03:07:15.766324 18454 net.cpp:150] Setting up bn3b2_branch2b
I1201 03:07:15.766326 18454 net.cpp:157] Top shape: 6 128 28 28 (602112)
I1201 03:07:15.766329 18454 net.cpp:165] Memory required for data: 889921560
I1201 03:07:15.766332 18454 layer_factory.hpp:77] Creating layer scale3b2_branch2b
I1201 03:07:15.766335 18454 net.cpp:100] Creating Layer scale3b2_branch2b
I1201 03:07:15.766336 18454 net.cpp:434] scale3b2_branch2b <- res3b2_branch2b
I1201 03:07:15.766340 18454 net.cpp:395] scale3b2_branch2b -> res3b2_branch2b (in-place)
I1201 03:07:15.766363 18454 layer_factory.hpp:77] Creating layer scale3b2_branch2b
I1201 03:07:15.766430 18454 net.cpp:150] Setting up scale3b2_branch2b
I1201 03:07:15.766433 18454 net.cpp:157] Top shape: 6 128 28 28 (602112)
I1201 03:07:15.766441 18454 net.cpp:165] Memory required for data: 892330008
I1201 03:07:15.766445 18454 layer_factory.hpp:77] Creating layer res3b2_branch2b_relu
I1201 03:07:15.766448 18454 net.cpp:100] Creating Layer res3b2_branch2b_relu
I1201 03:07:15.766450 18454 net.cpp:434] res3b2_branch2b_relu <- res3b2_branch2b
I1201 03:07:15.766453 18454 net.cpp:395] res3b2_branch2b_relu -> res3b2_branch2b (in-place)
I1201 03:07:15.766562 18454 net.cpp:150] Setting up res3b2_branch2b_relu
I1201 03:07:15.766566 18454 net.cpp:157] Top shape: 6 128 28 28 (602112)
I1201 03:07:15.766568 18454 net.cpp:165] Memory required for data: 894738456
I1201 03:07:15.766569 18454 layer_factory.hpp:77] Creating layer res3b2_branch2c
I1201 03:07:15.766577 18454 net.cpp:100] Creating Layer res3b2_branch2c
I1201 03:07:15.766578 18454 net.cpp:434] res3b2_branch2c <- res3b2_branch2b
I1201 03:07:15.766582 18454 net.cpp:408] res3b2_branch2c -> res3b2_branch2c
I1201 03:07:15.767415 18454 net.cpp:150] Setting up res3b2_branch2c
I1201 03:07:15.767421 18454 net.cpp:157] Top shape: 6 512 28 28 (2408448)
I1201 03:07:15.767422 18454 net.cpp:165] Memory required for data: 904372248
I1201 03:07:15.767426 18454 layer_factory.hpp:77] Creating layer bn3b2_branch2c
I1201 03:07:15.767428 18454 net.cpp:100] Creating Layer bn3b2_branch2c
I1201 03:07:15.767431 18454 net.cpp:434] bn3b2_branch2c <- res3b2_branch2c
I1201 03:07:15.767434 18454 net.cpp:395] bn3b2_branch2c -> res3b2_branch2c (in-place)
I1201 03:07:15.767554 18454 net.cpp:150] Setting up bn3b2_branch2c
I1201 03:07:15.767559 18454 net.cpp:157] Top shape: 6 512 28 28 (2408448)
I1201 03:07:15.767560 18454 net.cpp:165] Memory required for data: 914006040
I1201 03:07:15.767563 18454 layer_factory.hpp:77] Creating layer scale3b2_branch2c
I1201 03:07:15.767566 18454 net.cpp:100] Creating Layer scale3b2_branch2c
I1201 03:07:15.767568 18454 net.cpp:434] scale3b2_branch2c <- res3b2_branch2c
I1201 03:07:15.767571 18454 net.cpp:395] scale3b2_branch2c -> res3b2_branch2c (in-place)
I1201 03:07:15.767596 18454 layer_factory.hpp:77] Creating layer scale3b2_branch2c
I1201 03:07:15.767662 18454 net.cpp:150] Setting up scale3b2_branch2c
I1201 03:07:15.767665 18454 net.cpp:157] Top shape: 6 512 28 28 (2408448)
I1201 03:07:15.767668 18454 net.cpp:165] Memory required for data: 923639832
I1201 03:07:15.767670 18454 layer_factory.hpp:77] Creating layer res3b2
I1201 03:07:15.767674 18454 net.cpp:100] Creating Layer res3b2
I1201 03:07:15.767676 18454 net.cpp:434] res3b2 <- res3b1_res3b1_relu_0_split_1
I1201 03:07:15.767679 18454 net.cpp:434] res3b2 <- res3b2_branch2c
I1201 03:07:15.767681 18454 net.cpp:408] res3b2 -> res3b2
I1201 03:07:15.767695 18454 net.cpp:150] Setting up res3b2
I1201 03:07:15.767699 18454 net.cpp:157] Top shape: 6 512 28 28 (2408448)
I1201 03:07:15.767700 18454 net.cpp:165] Memory required for data: 933273624
I1201 03:07:15.767702 18454 layer_factory.hpp:77] Creating layer res3b2_relu
I1201 03:07:15.767704 18454 net.cpp:100] Creating Layer res3b2_relu
I1201 03:07:15.767706 18454 net.cpp:434] res3b2_relu <- res3b2
I1201 03:07:15.767710 18454 net.cpp:395] res3b2_relu -> res3b2 (in-place)
I1201 03:07:15.767814 18454 net.cpp:150] Setting up res3b2_relu
I1201 03:07:15.767818 18454 net.cpp:157] Top shape: 6 512 28 28 (2408448)
I1201 03:07:15.767820 18454 net.cpp:165] Memory required for data: 942907416
I1201 03:07:15.767822 18454 layer_factory.hpp:77] Creating layer res3b2_res3b2_relu_0_split
I1201 03:07:15.767825 18454 net.cpp:100] Creating Layer res3b2_res3b2_relu_0_split
I1201 03:07:15.767827 18454 net.cpp:434] res3b2_res3b2_relu_0_split <- res3b2
I1201 03:07:15.767830 18454 net.cpp:408] res3b2_res3b2_relu_0_split -> res3b2_res3b2_relu_0_split_0
I1201 03:07:15.767834 18454 net.cpp:408] res3b2_res3b2_relu_0_split -> res3b2_res3b2_relu_0_split_1
I1201 03:07:15.767864 18454 net.cpp:150] Setting up res3b2_res3b2_relu_0_split
I1201 03:07:15.767868 18454 net.cpp:157] Top shape: 6 512 28 28 (2408448)
I1201 03:07:15.767870 18454 net.cpp:157] Top shape: 6 512 28 28 (2408448)
I1201 03:07:15.767873 18454 net.cpp:165] Memory required for data: 962175000
I1201 03:07:15.767880 18454 layer_factory.hpp:77] Creating layer res3b3_branch2a
I1201 03:07:15.767885 18454 net.cpp:100] Creating Layer res3b3_branch2a
I1201 03:07:15.767887 18454 net.cpp:434] res3b3_branch2a <- res3b2_res3b2_relu_0_split_0
I1201 03:07:15.767892 18454 net.cpp:408] res3b3_branch2a -> res3b3_branch2a
I1201 03:07:15.769235 18454 net.cpp:150] Setting up res3b3_branch2a
I1201 03:07:15.769244 18454 net.cpp:157] Top shape: 6 128 28 28 (602112)
I1201 03:07:15.769246 18454 net.cpp:165] Memory required for data: 964583448
I1201 03:07:15.769250 18454 layer_factory.hpp:77] Creating layer bn3b3_branch2a
I1201 03:07:15.769255 18454 net.cpp:100] Creating Layer bn3b3_branch2a
I1201 03:07:15.769258 18454 net.cpp:434] bn3b3_branch2a <- res3b3_branch2a
I1201 03:07:15.769260 18454 net.cpp:395] bn3b3_branch2a -> res3b3_branch2a (in-place)
I1201 03:07:15.769387 18454 net.cpp:150] Setting up bn3b3_branch2a
I1201 03:07:15.769389 18454 net.cpp:157] Top shape: 6 128 28 28 (602112)
I1201 03:07:15.769392 18454 net.cpp:165] Memory required for data: 966991896
I1201 03:07:15.769404 18454 layer_factory.hpp:77] Creating layer scale3b3_branch2a
I1201 03:07:15.769408 18454 net.cpp:100] Creating Layer scale3b3_branch2a
I1201 03:07:15.769410 18454 net.cpp:434] scale3b3_branch2a <- res3b3_branch2a
I1201 03:07:15.769413 18454 net.cpp:395] scale3b3_branch2a -> res3b3_branch2a (in-place)
I1201 03:07:15.769439 18454 layer_factory.hpp:77] Creating layer scale3b3_branch2a
I1201 03:07:15.769507 18454 net.cpp:150] Setting up scale3b3_branch2a
I1201 03:07:15.769511 18454 net.cpp:157] Top shape: 6 128 28 28 (602112)
I1201 03:07:15.769512 18454 net.cpp:165] Memory required for data: 969400344
I1201 03:07:15.769515 18454 layer_factory.hpp:77] Creating layer res3b3_branch2a_relu
I1201 03:07:15.769520 18454 net.cpp:100] Creating Layer res3b3_branch2a_relu
I1201 03:07:15.769520 18454 net.cpp:434] res3b3_branch2a_relu <- res3b3_branch2a
I1201 03:07:15.769523 18454 net.cpp:395] res3b3_branch2a_relu -> res3b3_branch2a (in-place)
I1201 03:07:15.769634 18454 net.cpp:150] Setting up res3b3_branch2a_relu
I1201 03:07:15.769639 18454 net.cpp:157] Top shape: 6 128 28 28 (602112)
I1201 03:07:15.769640 18454 net.cpp:165] Memory required for data: 971808792
I1201 03:07:15.769641 18454 layer_factory.hpp:77] Creating layer res3b3_branch2b
I1201 03:07:15.769647 18454 net.cpp:100] Creating Layer res3b3_branch2b
I1201 03:07:15.769650 18454 net.cpp:434] res3b3_branch2b <- res3b3_branch2a
I1201 03:07:15.769654 18454 net.cpp:408] res3b3_branch2b -> res3b3_branch2b
I1201 03:07:15.770905 18454 net.cpp:150] Setting up res3b3_branch2b
I1201 03:07:15.770911 18454 net.cpp:157] Top shape: 6 128 28 28 (602112)
I1201 03:07:15.770913 18454 net.cpp:165] Memory required for data: 974217240
I1201 03:07:15.770916 18454 layer_factory.hpp:77] Creating layer bn3b3_branch2b
I1201 03:07:15.770920 18454 net.cpp:100] Creating Layer bn3b3_branch2b
I1201 03:07:15.770922 18454 net.cpp:434] bn3b3_branch2b <- res3b3_branch2b
I1201 03:07:15.770925 18454 net.cpp:395] bn3b3_branch2b -> res3b3_branch2b (in-place)
I1201 03:07:15.771049 18454 net.cpp:150] Setting up bn3b3_branch2b
I1201 03:07:15.771052 18454 net.cpp:157] Top shape: 6 128 28 28 (602112)
I1201 03:07:15.771054 18454 net.cpp:165] Memory required for data: 976625688
I1201 03:07:15.771059 18454 layer_factory.hpp:77] Creating layer scale3b3_branch2b
I1201 03:07:15.771061 18454 net.cpp:100] Creating Layer scale3b3_branch2b
I1201 03:07:15.771064 18454 net.cpp:434] scale3b3_branch2b <- res3b3_branch2b
I1201 03:07:15.771066 18454 net.cpp:395] scale3b3_branch2b -> res3b3_branch2b (in-place)
I1201 03:07:15.771090 18454 layer_factory.hpp:77] Creating layer scale3b3_branch2b
I1201 03:07:15.771157 18454 net.cpp:150] Setting up scale3b3_branch2b
I1201 03:07:15.771160 18454 net.cpp:157] Top shape: 6 128 28 28 (602112)
I1201 03:07:15.771162 18454 net.cpp:165] Memory required for data: 979034136
I1201 03:07:15.771165 18454 layer_factory.hpp:77] Creating layer res3b3_branch2b_relu
I1201 03:07:15.771167 18454 net.cpp:100] Creating Layer res3b3_branch2b_relu
I1201 03:07:15.771176 18454 net.cpp:434] res3b3_branch2b_relu <- res3b3_branch2b
I1201 03:07:15.771179 18454 net.cpp:395] res3b3_branch2b_relu -> res3b3_branch2b (in-place)
I1201 03:07:15.771294 18454 net.cpp:150] Setting up res3b3_branch2b_relu
I1201 03:07:15.771298 18454 net.cpp:157] Top shape: 6 128 28 28 (602112)
I1201 03:07:15.771301 18454 net.cpp:165] Memory required for data: 981442584
I1201 03:07:15.771301 18454 layer_factory.hpp:77] Creating layer res3b3_branch2c
I1201 03:07:15.771306 18454 net.cpp:100] Creating Layer res3b3_branch2c
I1201 03:07:15.771308 18454 net.cpp:434] res3b3_branch2c <- res3b3_branch2b
I1201 03:07:15.771312 18454 net.cpp:408] res3b3_branch2c -> res3b3_branch2c
I1201 03:07:15.772140 18454 net.cpp:150] Setting up res3b3_branch2c
I1201 03:07:15.772148 18454 net.cpp:157] Top shape: 6 512 28 28 (2408448)
I1201 03:07:15.772150 18454 net.cpp:165] Memory required for data: 991076376
I1201 03:07:15.772153 18454 layer_factory.hpp:77] Creating layer bn3b3_branch2c
I1201 03:07:15.772156 18454 net.cpp:100] Creating Layer bn3b3_branch2c
I1201 03:07:15.772159 18454 net.cpp:434] bn3b3_branch2c <- res3b3_branch2c
I1201 03:07:15.772163 18454 net.cpp:395] bn3b3_branch2c -> res3b3_branch2c (in-place)
I1201 03:07:15.772286 18454 net.cpp:150] Setting up bn3b3_branch2c
I1201 03:07:15.772289 18454 net.cpp:157] Top shape: 6 512 28 28 (2408448)
I1201 03:07:15.772291 18454 net.cpp:165] Memory required for data: 1000710168
I1201 03:07:15.772295 18454 layer_factory.hpp:77] Creating layer scale3b3_branch2c
I1201 03:07:15.772299 18454 net.cpp:100] Creating Layer scale3b3_branch2c
I1201 03:07:15.772300 18454 net.cpp:434] scale3b3_branch2c <- res3b3_branch2c
I1201 03:07:15.772303 18454 net.cpp:395] scale3b3_branch2c -> res3b3_branch2c (in-place)
I1201 03:07:15.772327 18454 layer_factory.hpp:77] Creating layer scale3b3_branch2c
I1201 03:07:15.772395 18454 net.cpp:150] Setting up scale3b3_branch2c
I1201 03:07:15.772399 18454 net.cpp:157] Top shape: 6 512 28 28 (2408448)
I1201 03:07:15.772402 18454 net.cpp:165] Memory required for data: 1010343960
I1201 03:07:15.772404 18454 layer_factory.hpp:77] Creating layer res3b3
I1201 03:07:15.772406 18454 net.cpp:100] Creating Layer res3b3
I1201 03:07:15.772408 18454 net.cpp:434] res3b3 <- res3b2_res3b2_relu_0_split_1
I1201 03:07:15.772411 18454 net.cpp:434] res3b3 <- res3b3_branch2c
I1201 03:07:15.772414 18454 net.cpp:408] res3b3 -> res3b3
I1201 03:07:15.772429 18454 net.cpp:150] Setting up res3b3
I1201 03:07:15.772433 18454 net.cpp:157] Top shape: 6 512 28 28 (2408448)
I1201 03:07:15.772434 18454 net.cpp:165] Memory required for data: 1019977752
I1201 03:07:15.772436 18454 layer_factory.hpp:77] Creating layer res3b3_relu
I1201 03:07:15.772439 18454 net.cpp:100] Creating Layer res3b3_relu
I1201 03:07:15.772440 18454 net.cpp:434] res3b3_relu <- res3b3
I1201 03:07:15.772442 18454 net.cpp:395] res3b3_relu -> res3b3 (in-place)
I1201 03:07:15.772698 18454 net.cpp:150] Setting up res3b3_relu
I1201 03:07:15.772704 18454 net.cpp:157] Top shape: 6 512 28 28 (2408448)
I1201 03:07:15.772706 18454 net.cpp:165] Memory required for data: 1029611544
I1201 03:07:15.772708 18454 layer_factory.hpp:77] Creating layer res3b3_res3b3_relu_0_split
I1201 03:07:15.772711 18454 net.cpp:100] Creating Layer res3b3_res3b3_relu_0_split
I1201 03:07:15.772713 18454 net.cpp:434] res3b3_res3b3_relu_0_split <- res3b3
I1201 03:07:15.772716 18454 net.cpp:408] res3b3_res3b3_relu_0_split -> res3b3_res3b3_relu_0_split_0
I1201 03:07:15.772722 18454 net.cpp:408] res3b3_res3b3_relu_0_split -> res3b3_res3b3_relu_0_split_1
I1201 03:07:15.772747 18454 net.cpp:150] Setting up res3b3_res3b3_relu_0_split
I1201 03:07:15.772750 18454 net.cpp:157] Top shape: 6 512 28 28 (2408448)
I1201 03:07:15.772753 18454 net.cpp:157] Top shape: 6 512 28 28 (2408448)
I1201 03:07:15.772754 18454 net.cpp:165] Memory required for data: 1048879128
I1201 03:07:15.772755 18454 layer_factory.hpp:77] Creating layer res3b4_branch2a
I1201 03:07:15.772760 18454 net.cpp:100] Creating Layer res3b4_branch2a
I1201 03:07:15.772763 18454 net.cpp:434] res3b4_branch2a <- res3b3_res3b3_relu_0_split_0
I1201 03:07:15.772774 18454 net.cpp:408] res3b4_branch2a -> res3b4_branch2a
I1201 03:07:15.773587 18454 net.cpp:150] Setting up res3b4_branch2a
I1201 03:07:15.773593 18454 net.cpp:157] Top shape: 6 128 28 28 (602112)
I1201 03:07:15.773594 18454 net.cpp:165] Memory required for data: 1051287576
I1201 03:07:15.773598 18454 layer_factory.hpp:77] Creating layer bn3b4_branch2a
I1201 03:07:15.773602 18454 net.cpp:100] Creating Layer bn3b4_branch2a
I1201 03:07:15.773604 18454 net.cpp:434] bn3b4_branch2a <- res3b4_branch2a
I1201 03:07:15.773607 18454 net.cpp:395] bn3b4_branch2a -> res3b4_branch2a (in-place)
I1201 03:07:15.773728 18454 net.cpp:150] Setting up bn3b4_branch2a
I1201 03:07:15.773731 18454 net.cpp:157] Top shape: 6 128 28 28 (602112)
I1201 03:07:15.773733 18454 net.cpp:165] Memory required for data: 1053696024
I1201 03:07:15.773737 18454 layer_factory.hpp:77] Creating layer scale3b4_branch2a
I1201 03:07:15.773741 18454 net.cpp:100] Creating Layer scale3b4_branch2a
I1201 03:07:15.773742 18454 net.cpp:434] scale3b4_branch2a <- res3b4_branch2a
I1201 03:07:15.773746 18454 net.cpp:395] scale3b4_branch2a -> res3b4_branch2a (in-place)
I1201 03:07:15.773768 18454 layer_factory.hpp:77] Creating layer scale3b4_branch2a
I1201 03:07:15.773836 18454 net.cpp:150] Setting up scale3b4_branch2a
I1201 03:07:15.773840 18454 net.cpp:157] Top shape: 6 128 28 28 (602112)
I1201 03:07:15.773843 18454 net.cpp:165] Memory required for data: 1056104472
I1201 03:07:15.773845 18454 layer_factory.hpp:77] Creating layer res3b4_branch2a_relu
I1201 03:07:15.773849 18454 net.cpp:100] Creating Layer res3b4_branch2a_relu
I1201 03:07:15.773850 18454 net.cpp:434] res3b4_branch2a_relu <- res3b4_branch2a
I1201 03:07:15.773852 18454 net.cpp:395] res3b4_branch2a_relu -> res3b4_branch2a (in-place)
I1201 03:07:15.773959 18454 net.cpp:150] Setting up res3b4_branch2a_relu
I1201 03:07:15.773964 18454 net.cpp:157] Top shape: 6 128 28 28 (602112)
I1201 03:07:15.773967 18454 net.cpp:165] Memory required for data: 1058512920
I1201 03:07:15.773967 18454 layer_factory.hpp:77] Creating layer res3b4_branch2b
I1201 03:07:15.773973 18454 net.cpp:100] Creating Layer res3b4_branch2b
I1201 03:07:15.773975 18454 net.cpp:434] res3b4_branch2b <- res3b4_branch2a
I1201 03:07:15.773979 18454 net.cpp:408] res3b4_branch2b -> res3b4_branch2b
I1201 03:07:15.775694 18454 net.cpp:150] Setting up res3b4_branch2b
I1201 03:07:15.775701 18454 net.cpp:157] Top shape: 6 128 28 28 (602112)
I1201 03:07:15.775703 18454 net.cpp:165] Memory required for data: 1060921368
I1201 03:07:15.775707 18454 layer_factory.hpp:77] Creating layer bn3b4_branch2b
I1201 03:07:15.775710 18454 net.cpp:100] Creating Layer bn3b4_branch2b
I1201 03:07:15.775712 18454 net.cpp:434] bn3b4_branch2b <- res3b4_branch2b
I1201 03:07:15.775717 18454 net.cpp:395] bn3b4_branch2b -> res3b4_branch2b (in-place)
I1201 03:07:15.775846 18454 net.cpp:150] Setting up bn3b4_branch2b
I1201 03:07:15.775858 18454 net.cpp:157] Top shape: 6 128 28 28 (602112)
I1201 03:07:15.775861 18454 net.cpp:165] Memory required for data: 1063329816
I1201 03:07:15.775864 18454 layer_factory.hpp:77] Creating layer scale3b4_branch2b
I1201 03:07:15.775867 18454 net.cpp:100] Creating Layer scale3b4_branch2b
I1201 03:07:15.775869 18454 net.cpp:434] scale3b4_branch2b <- res3b4_branch2b
I1201 03:07:15.775871 18454 net.cpp:395] scale3b4_branch2b -> res3b4_branch2b (in-place)
I1201 03:07:15.775898 18454 layer_factory.hpp:77] Creating layer scale3b4_branch2b
I1201 03:07:15.775969 18454 net.cpp:150] Setting up scale3b4_branch2b
I1201 03:07:15.775971 18454 net.cpp:157] Top shape: 6 128 28 28 (602112)
I1201 03:07:15.775974 18454 net.cpp:165] Memory required for data: 1065738264
I1201 03:07:15.775977 18454 layer_factory.hpp:77] Creating layer res3b4_branch2b_relu
I1201 03:07:15.775980 18454 net.cpp:100] Creating Layer res3b4_branch2b_relu
I1201 03:07:15.775982 18454 net.cpp:434] res3b4_branch2b_relu <- res3b4_branch2b
I1201 03:07:15.775985 18454 net.cpp:395] res3b4_branch2b_relu -> res3b4_branch2b (in-place)
I1201 03:07:15.776095 18454 net.cpp:150] Setting up res3b4_branch2b_relu
I1201 03:07:15.776108 18454 net.cpp:157] Top shape: 6 128 28 28 (602112)
I1201 03:07:15.776109 18454 net.cpp:165] Memory required for data: 1068146712
I1201 03:07:15.776111 18454 layer_factory.hpp:77] Creating layer res3b4_branch2c
I1201 03:07:15.776118 18454 net.cpp:100] Creating Layer res3b4_branch2c
I1201 03:07:15.776119 18454 net.cpp:434] res3b4_branch2c <- res3b4_branch2b
I1201 03:07:15.776123 18454 net.cpp:408] res3b4_branch2c -> res3b4_branch2c
I1201 03:07:15.776964 18454 net.cpp:150] Setting up res3b4_branch2c
I1201 03:07:15.776973 18454 net.cpp:157] Top shape: 6 512 28 28 (2408448)
I1201 03:07:15.776974 18454 net.cpp:165] Memory required for data: 1077780504
I1201 03:07:15.776976 18454 layer_factory.hpp:77] Creating layer bn3b4_branch2c
I1201 03:07:15.776980 18454 net.cpp:100] Creating Layer bn3b4_branch2c
I1201 03:07:15.776983 18454 net.cpp:434] bn3b4_branch2c <- res3b4_branch2c
I1201 03:07:15.776985 18454 net.cpp:395] bn3b4_branch2c -> res3b4_branch2c (in-place)
I1201 03:07:15.777112 18454 net.cpp:150] Setting up bn3b4_branch2c
I1201 03:07:15.777114 18454 net.cpp:157] Top shape: 6 512 28 28 (2408448)
I1201 03:07:15.777117 18454 net.cpp:165] Memory required for data: 1087414296
I1201 03:07:15.777120 18454 layer_factory.hpp:77] Creating layer scale3b4_branch2c
I1201 03:07:15.777123 18454 net.cpp:100] Creating Layer scale3b4_branch2c
I1201 03:07:15.777124 18454 net.cpp:434] scale3b4_branch2c <- res3b4_branch2c
I1201 03:07:15.777127 18454 net.cpp:395] scale3b4_branch2c -> res3b4_branch2c (in-place)
I1201 03:07:15.777151 18454 layer_factory.hpp:77] Creating layer scale3b4_branch2c
I1201 03:07:15.777220 18454 net.cpp:150] Setting up scale3b4_branch2c
I1201 03:07:15.777223 18454 net.cpp:157] Top shape: 6 512 28 28 (2408448)
I1201 03:07:15.777225 18454 net.cpp:165] Memory required for data: 1097048088
I1201 03:07:15.777228 18454 layer_factory.hpp:77] Creating layer res3b4
I1201 03:07:15.777231 18454 net.cpp:100] Creating Layer res3b4
I1201 03:07:15.777233 18454 net.cpp:434] res3b4 <- res3b3_res3b3_relu_0_split_1
I1201 03:07:15.777236 18454 net.cpp:434] res3b4 <- res3b4_branch2c
I1201 03:07:15.777240 18454 net.cpp:408] res3b4 -> res3b4
I1201 03:07:15.777254 18454 net.cpp:150] Setting up res3b4
I1201 03:07:15.777257 18454 net.cpp:157] Top shape: 6 512 28 28 (2408448)
I1201 03:07:15.777258 18454 net.cpp:165] Memory required for data: 1106681880
I1201 03:07:15.777261 18454 layer_factory.hpp:77] Creating layer res3b4_relu
I1201 03:07:15.777263 18454 net.cpp:100] Creating Layer res3b4_relu
I1201 03:07:15.777266 18454 net.cpp:434] res3b4_relu <- res3b4
I1201 03:07:15.777268 18454 net.cpp:395] res3b4_relu -> res3b4 (in-place)
I1201 03:07:15.777372 18454 net.cpp:150] Setting up res3b4_relu
I1201 03:07:15.777376 18454 net.cpp:157] Top shape: 6 512 28 28 (2408448)
I1201 03:07:15.777377 18454 net.cpp:165] Memory required for data: 1116315672
I1201 03:07:15.777379 18454 layer_factory.hpp:77] Creating layer res3b4_res3b4_relu_0_split
I1201 03:07:15.777384 18454 net.cpp:100] Creating Layer res3b4_res3b4_relu_0_split
I1201 03:07:15.777384 18454 net.cpp:434] res3b4_res3b4_relu_0_split <- res3b4
I1201 03:07:15.777389 18454 net.cpp:408] res3b4_res3b4_relu_0_split -> res3b4_res3b4_relu_0_split_0
I1201 03:07:15.777392 18454 net.cpp:408] res3b4_res3b4_relu_0_split -> res3b4_res3b4_relu_0_split_1
I1201 03:07:15.777416 18454 net.cpp:150] Setting up res3b4_res3b4_relu_0_split
I1201 03:07:15.777420 18454 net.cpp:157] Top shape: 6 512 28 28 (2408448)
I1201 03:07:15.777421 18454 net.cpp:157] Top shape: 6 512 28 28 (2408448)
I1201 03:07:15.777423 18454 net.cpp:165] Memory required for data: 1135583256
I1201 03:07:15.777426 18454 layer_factory.hpp:77] Creating layer res3b5_branch2a
I1201 03:07:15.777429 18454 net.cpp:100] Creating Layer res3b5_branch2a
I1201 03:07:15.777431 18454 net.cpp:434] res3b5_branch2a <- res3b4_res3b4_relu_0_split_0
I1201 03:07:15.777434 18454 net.cpp:408] res3b5_branch2a -> res3b5_branch2a
I1201 03:07:15.778396 18454 net.cpp:150] Setting up res3b5_branch2a
I1201 03:07:15.778409 18454 net.cpp:157] Top shape: 6 128 28 28 (602112)
I1201 03:07:15.778411 18454 net.cpp:165] Memory required for data: 1137991704
I1201 03:07:15.778415 18454 layer_factory.hpp:77] Creating layer bn3b5_branch2a
I1201 03:07:15.778419 18454 net.cpp:100] Creating Layer bn3b5_branch2a
I1201 03:07:15.778421 18454 net.cpp:434] bn3b5_branch2a <- res3b5_branch2a
I1201 03:07:15.778424 18454 net.cpp:395] bn3b5_branch2a -> res3b5_branch2a (in-place)
I1201 03:07:15.778550 18454 net.cpp:150] Setting up bn3b5_branch2a
I1201 03:07:15.778554 18454 net.cpp:157] Top shape: 6 128 28 28 (602112)
I1201 03:07:15.778556 18454 net.cpp:165] Memory required for data: 1140400152
I1201 03:07:15.778559 18454 layer_factory.hpp:77] Creating layer scale3b5_branch2a
I1201 03:07:15.778563 18454 net.cpp:100] Creating Layer scale3b5_branch2a
I1201 03:07:15.778565 18454 net.cpp:434] scale3b5_branch2a <- res3b5_branch2a
I1201 03:07:15.778568 18454 net.cpp:395] scale3b5_branch2a -> res3b5_branch2a (in-place)
I1201 03:07:15.778592 18454 layer_factory.hpp:77] Creating layer scale3b5_branch2a
I1201 03:07:15.778662 18454 net.cpp:150] Setting up scale3b5_branch2a
I1201 03:07:15.778666 18454 net.cpp:157] Top shape: 6 128 28 28 (602112)
I1201 03:07:15.778666 18454 net.cpp:165] Memory required for data: 1142808600
I1201 03:07:15.778669 18454 layer_factory.hpp:77] Creating layer res3b5_branch2a_relu
I1201 03:07:15.778686 18454 net.cpp:100] Creating Layer res3b5_branch2a_relu
I1201 03:07:15.778687 18454 net.cpp:434] res3b5_branch2a_relu <- res3b5_branch2a
I1201 03:07:15.778689 18454 net.cpp:395] res3b5_branch2a_relu -> res3b5_branch2a (in-place)
I1201 03:07:15.778803 18454 net.cpp:150] Setting up res3b5_branch2a_relu
I1201 03:07:15.778808 18454 net.cpp:157] Top shape: 6 128 28 28 (602112)
I1201 03:07:15.778810 18454 net.cpp:165] Memory required for data: 1145217048
I1201 03:07:15.778812 18454 layer_factory.hpp:77] Creating layer res3b5_branch2b
I1201 03:07:15.778816 18454 net.cpp:100] Creating Layer res3b5_branch2b
I1201 03:07:15.778820 18454 net.cpp:434] res3b5_branch2b <- res3b5_branch2a
I1201 03:07:15.778822 18454 net.cpp:408] res3b5_branch2b -> res3b5_branch2b
I1201 03:07:15.780078 18454 net.cpp:150] Setting up res3b5_branch2b
I1201 03:07:15.780086 18454 net.cpp:157] Top shape: 6 128 28 28 (602112)
I1201 03:07:15.780087 18454 net.cpp:165] Memory required for data: 1147625496
I1201 03:07:15.780091 18454 layer_factory.hpp:77] Creating layer bn3b5_branch2b
I1201 03:07:15.780093 18454 net.cpp:100] Creating Layer bn3b5_branch2b
I1201 03:07:15.780095 18454 net.cpp:434] bn3b5_branch2b <- res3b5_branch2b
I1201 03:07:15.780099 18454 net.cpp:395] bn3b5_branch2b -> res3b5_branch2b (in-place)
I1201 03:07:15.780225 18454 net.cpp:150] Setting up bn3b5_branch2b
I1201 03:07:15.780228 18454 net.cpp:157] Top shape: 6 128 28 28 (602112)
I1201 03:07:15.780230 18454 net.cpp:165] Memory required for data: 1150033944
I1201 03:07:15.780235 18454 layer_factory.hpp:77] Creating layer scale3b5_branch2b
I1201 03:07:15.780237 18454 net.cpp:100] Creating Layer scale3b5_branch2b
I1201 03:07:15.780238 18454 net.cpp:434] scale3b5_branch2b <- res3b5_branch2b
I1201 03:07:15.780241 18454 net.cpp:395] scale3b5_branch2b -> res3b5_branch2b (in-place)
I1201 03:07:15.780266 18454 layer_factory.hpp:77] Creating layer scale3b5_branch2b
I1201 03:07:15.780335 18454 net.cpp:150] Setting up scale3b5_branch2b
I1201 03:07:15.780339 18454 net.cpp:157] Top shape: 6 128 28 28 (602112)
I1201 03:07:15.780339 18454 net.cpp:165] Memory required for data: 1152442392
I1201 03:07:15.780344 18454 layer_factory.hpp:77] Creating layer res3b5_branch2b_relu
I1201 03:07:15.780346 18454 net.cpp:100] Creating Layer res3b5_branch2b_relu
I1201 03:07:15.780349 18454 net.cpp:434] res3b5_branch2b_relu <- res3b5_branch2b
I1201 03:07:15.780350 18454 net.cpp:395] res3b5_branch2b_relu -> res3b5_branch2b (in-place)
I1201 03:07:15.780463 18454 net.cpp:150] Setting up res3b5_branch2b_relu
I1201 03:07:15.780467 18454 net.cpp:157] Top shape: 6 128 28 28 (602112)
I1201 03:07:15.780469 18454 net.cpp:165] Memory required for data: 1154850840
I1201 03:07:15.780478 18454 layer_factory.hpp:77] Creating layer res3b5_branch2c
I1201 03:07:15.780483 18454 net.cpp:100] Creating Layer res3b5_branch2c
I1201 03:07:15.780484 18454 net.cpp:434] res3b5_branch2c <- res3b5_branch2b
I1201 03:07:15.780488 18454 net.cpp:408] res3b5_branch2c -> res3b5_branch2c
I1201 03:07:15.781337 18454 net.cpp:150] Setting up res3b5_branch2c
I1201 03:07:15.781344 18454 net.cpp:157] Top shape: 6 512 28 28 (2408448)
I1201 03:07:15.781345 18454 net.cpp:165] Memory required for data: 1164484632
I1201 03:07:15.781348 18454 layer_factory.hpp:77] Creating layer bn3b5_branch2c
I1201 03:07:15.781353 18454 net.cpp:100] Creating Layer bn3b5_branch2c
I1201 03:07:15.781355 18454 net.cpp:434] bn3b5_branch2c <- res3b5_branch2c
I1201 03:07:15.781358 18454 net.cpp:395] bn3b5_branch2c -> res3b5_branch2c (in-place)
I1201 03:07:15.781484 18454 net.cpp:150] Setting up bn3b5_branch2c
I1201 03:07:15.781487 18454 net.cpp:157] Top shape: 6 512 28 28 (2408448)
I1201 03:07:15.781489 18454 net.cpp:165] Memory required for data: 1174118424
I1201 03:07:15.781493 18454 layer_factory.hpp:77] Creating layer scale3b5_branch2c
I1201 03:07:15.781497 18454 net.cpp:100] Creating Layer scale3b5_branch2c
I1201 03:07:15.781498 18454 net.cpp:434] scale3b5_branch2c <- res3b5_branch2c
I1201 03:07:15.781502 18454 net.cpp:395] scale3b5_branch2c -> res3b5_branch2c (in-place)
I1201 03:07:15.781525 18454 layer_factory.hpp:77] Creating layer scale3b5_branch2c
I1201 03:07:15.781594 18454 net.cpp:150] Setting up scale3b5_branch2c
I1201 03:07:15.781596 18454 net.cpp:157] Top shape: 6 512 28 28 (2408448)
I1201 03:07:15.781599 18454 net.cpp:165] Memory required for data: 1183752216
I1201 03:07:15.781601 18454 layer_factory.hpp:77] Creating layer res3b5
I1201 03:07:15.781605 18454 net.cpp:100] Creating Layer res3b5
I1201 03:07:15.781607 18454 net.cpp:434] res3b5 <- res3b4_res3b4_relu_0_split_1
I1201 03:07:15.781610 18454 net.cpp:434] res3b5 <- res3b5_branch2c
I1201 03:07:15.781613 18454 net.cpp:408] res3b5 -> res3b5
I1201 03:07:15.781628 18454 net.cpp:150] Setting up res3b5
I1201 03:07:15.781631 18454 net.cpp:157] Top shape: 6 512 28 28 (2408448)
I1201 03:07:15.781633 18454 net.cpp:165] Memory required for data: 1193386008
I1201 03:07:15.781635 18454 layer_factory.hpp:77] Creating layer res3b5_relu
I1201 03:07:15.781637 18454 net.cpp:100] Creating Layer res3b5_relu
I1201 03:07:15.781639 18454 net.cpp:434] res3b5_relu <- res3b5
I1201 03:07:15.781642 18454 net.cpp:395] res3b5_relu -> res3b5 (in-place)
I1201 03:07:15.781901 18454 net.cpp:150] Setting up res3b5_relu
I1201 03:07:15.781908 18454 net.cpp:157] Top shape: 6 512 28 28 (2408448)
I1201 03:07:15.781909 18454 net.cpp:165] Memory required for data: 1203019800
I1201 03:07:15.781911 18454 layer_factory.hpp:77] Creating layer res3b5_res3b5_relu_0_split
I1201 03:07:15.781915 18454 net.cpp:100] Creating Layer res3b5_res3b5_relu_0_split
I1201 03:07:15.781918 18454 net.cpp:434] res3b5_res3b5_relu_0_split <- res3b5
I1201 03:07:15.781919 18454 net.cpp:408] res3b5_res3b5_relu_0_split -> res3b5_res3b5_relu_0_split_0
I1201 03:07:15.781924 18454 net.cpp:408] res3b5_res3b5_relu_0_split -> res3b5_res3b5_relu_0_split_1
I1201 03:07:15.781950 18454 net.cpp:150] Setting up res3b5_res3b5_relu_0_split
I1201 03:07:15.781954 18454 net.cpp:157] Top shape: 6 512 28 28 (2408448)
I1201 03:07:15.781955 18454 net.cpp:157] Top shape: 6 512 28 28 (2408448)
I1201 03:07:15.781957 18454 net.cpp:165] Memory required for data: 1222287384
I1201 03:07:15.781960 18454 layer_factory.hpp:77] Creating layer res3b6_branch2a
I1201 03:07:15.781963 18454 net.cpp:100] Creating Layer res3b6_branch2a
I1201 03:07:15.781965 18454 net.cpp:434] res3b6_branch2a <- res3b5_res3b5_relu_0_split_0
I1201 03:07:15.781970 18454 net.cpp:408] res3b6_branch2a -> res3b6_branch2a
I1201 03:07:15.782796 18454 net.cpp:150] Setting up res3b6_branch2a
I1201 03:07:15.782802 18454 net.cpp:157] Top shape: 6 128 28 28 (602112)
I1201 03:07:15.782804 18454 net.cpp:165] Memory required for data: 1224695832
I1201 03:07:15.782807 18454 layer_factory.hpp:77] Creating layer bn3b6_branch2a
I1201 03:07:15.782816 18454 net.cpp:100] Creating Layer bn3b6_branch2a
I1201 03:07:15.782819 18454 net.cpp:434] bn3b6_branch2a <- res3b6_branch2a
I1201 03:07:15.782822 18454 net.cpp:395] bn3b6_branch2a -> res3b6_branch2a (in-place)
I1201 03:07:15.782948 18454 net.cpp:150] Setting up bn3b6_branch2a
I1201 03:07:15.782951 18454 net.cpp:157] Top shape: 6 128 28 28 (602112)
I1201 03:07:15.782953 18454 net.cpp:165] Memory required for data: 1227104280
I1201 03:07:15.782958 18454 layer_factory.hpp:77] Creating layer scale3b6_branch2a
I1201 03:07:15.782960 18454 net.cpp:100] Creating Layer scale3b6_branch2a
I1201 03:07:15.782963 18454 net.cpp:434] scale3b6_branch2a <- res3b6_branch2a
I1201 03:07:15.782964 18454 net.cpp:395] scale3b6_branch2a -> res3b6_branch2a (in-place)
I1201 03:07:15.782989 18454 layer_factory.hpp:77] Creating layer scale3b6_branch2a
I1201 03:07:15.783059 18454 net.cpp:150] Setting up scale3b6_branch2a
I1201 03:07:15.783062 18454 net.cpp:157] Top shape: 6 128 28 28 (602112)
I1201 03:07:15.783064 18454 net.cpp:165] Memory required for data: 1229512728
I1201 03:07:15.783067 18454 layer_factory.hpp:77] Creating layer res3b6_branch2a_relu
I1201 03:07:15.783071 18454 net.cpp:100] Creating Layer res3b6_branch2a_relu
I1201 03:07:15.783072 18454 net.cpp:434] res3b6_branch2a_relu <- res3b6_branch2a
I1201 03:07:15.783076 18454 net.cpp:395] res3b6_branch2a_relu -> res3b6_branch2a (in-place)
I1201 03:07:15.783184 18454 net.cpp:150] Setting up res3b6_branch2a_relu
I1201 03:07:15.783188 18454 net.cpp:157] Top shape: 6 128 28 28 (602112)
I1201 03:07:15.783190 18454 net.cpp:165] Memory required for data: 1231921176
I1201 03:07:15.783192 18454 layer_factory.hpp:77] Creating layer res3b6_branch2b
I1201 03:07:15.783196 18454 net.cpp:100] Creating Layer res3b6_branch2b
I1201 03:07:15.783200 18454 net.cpp:434] res3b6_branch2b <- res3b6_branch2a
I1201 03:07:15.783202 18454 net.cpp:408] res3b6_branch2b -> res3b6_branch2b
I1201 03:07:15.784456 18454 net.cpp:150] Setting up res3b6_branch2b
I1201 03:07:15.784464 18454 net.cpp:157] Top shape: 6 128 28 28 (602112)
I1201 03:07:15.784466 18454 net.cpp:165] Memory required for data: 1234329624
I1201 03:07:15.784469 18454 layer_factory.hpp:77] Creating layer bn3b6_branch2b
I1201 03:07:15.784472 18454 net.cpp:100] Creating Layer bn3b6_branch2b
I1201 03:07:15.784474 18454 net.cpp:434] bn3b6_branch2b <- res3b6_branch2b
I1201 03:07:15.784477 18454 net.cpp:395] bn3b6_branch2b -> res3b6_branch2b (in-place)
I1201 03:07:15.784610 18454 net.cpp:150] Setting up bn3b6_branch2b
I1201 03:07:15.784613 18454 net.cpp:157] Top shape: 6 128 28 28 (602112)
I1201 03:07:15.784615 18454 net.cpp:165] Memory required for data: 1236738072
I1201 03:07:15.784620 18454 layer_factory.hpp:77] Creating layer scale3b6_branch2b
I1201 03:07:15.784622 18454 net.cpp:100] Creating Layer scale3b6_branch2b
I1201 03:07:15.784624 18454 net.cpp:434] scale3b6_branch2b <- res3b6_branch2b
I1201 03:07:15.784626 18454 net.cpp:395] scale3b6_branch2b -> res3b6_branch2b (in-place)
I1201 03:07:15.784652 18454 layer_factory.hpp:77] Creating layer scale3b6_branch2b
I1201 03:07:15.784723 18454 net.cpp:150] Setting up scale3b6_branch2b
I1201 03:07:15.784726 18454 net.cpp:157] Top shape: 6 128 28 28 (602112)
I1201 03:07:15.784728 18454 net.cpp:165] Memory required for data: 1239146520
I1201 03:07:15.784731 18454 layer_factory.hpp:77] Creating layer res3b6_branch2b_relu
I1201 03:07:15.784734 18454 net.cpp:100] Creating Layer res3b6_branch2b_relu
I1201 03:07:15.784735 18454 net.cpp:434] res3b6_branch2b_relu <- res3b6_branch2b
I1201 03:07:15.784739 18454 net.cpp:395] res3b6_branch2b_relu -> res3b6_branch2b (in-place)
I1201 03:07:15.784849 18454 net.cpp:150] Setting up res3b6_branch2b_relu
I1201 03:07:15.784853 18454 net.cpp:157] Top shape: 6 128 28 28 (602112)
I1201 03:07:15.784855 18454 net.cpp:165] Memory required for data: 1241554968
I1201 03:07:15.784857 18454 layer_factory.hpp:77] Creating layer res3b6_branch2c
I1201 03:07:15.784862 18454 net.cpp:100] Creating Layer res3b6_branch2c
I1201 03:07:15.784864 18454 net.cpp:434] res3b6_branch2c <- res3b6_branch2b
I1201 03:07:15.784875 18454 net.cpp:408] res3b6_branch2c -> res3b6_branch2c
I1201 03:07:15.785727 18454 net.cpp:150] Setting up res3b6_branch2c
I1201 03:07:15.785734 18454 net.cpp:157] Top shape: 6 512 28 28 (2408448)
I1201 03:07:15.785735 18454 net.cpp:165] Memory required for data: 1251188760
I1201 03:07:15.785738 18454 layer_factory.hpp:77] Creating layer bn3b6_branch2c
I1201 03:07:15.785742 18454 net.cpp:100] Creating Layer bn3b6_branch2c
I1201 03:07:15.785745 18454 net.cpp:434] bn3b6_branch2c <- res3b6_branch2c
I1201 03:07:15.785748 18454 net.cpp:395] bn3b6_branch2c -> res3b6_branch2c (in-place)
I1201 03:07:15.785876 18454 net.cpp:150] Setting up bn3b6_branch2c
I1201 03:07:15.785879 18454 net.cpp:157] Top shape: 6 512 28 28 (2408448)
I1201 03:07:15.785881 18454 net.cpp:165] Memory required for data: 1260822552
I1201 03:07:15.785886 18454 layer_factory.hpp:77] Creating layer scale3b6_branch2c
I1201 03:07:15.785888 18454 net.cpp:100] Creating Layer scale3b6_branch2c
I1201 03:07:15.785890 18454 net.cpp:434] scale3b6_branch2c <- res3b6_branch2c
I1201 03:07:15.785892 18454 net.cpp:395] scale3b6_branch2c -> res3b6_branch2c (in-place)
I1201 03:07:15.785917 18454 layer_factory.hpp:77] Creating layer scale3b6_branch2c
I1201 03:07:15.785987 18454 net.cpp:150] Setting up scale3b6_branch2c
I1201 03:07:15.785990 18454 net.cpp:157] Top shape: 6 512 28 28 (2408448)
I1201 03:07:15.785992 18454 net.cpp:165] Memory required for data: 1270456344
I1201 03:07:15.785995 18454 layer_factory.hpp:77] Creating layer res3b6
I1201 03:07:15.785998 18454 net.cpp:100] Creating Layer res3b6
I1201 03:07:15.786000 18454 net.cpp:434] res3b6 <- res3b5_res3b5_relu_0_split_1
I1201 03:07:15.786003 18454 net.cpp:434] res3b6 <- res3b6_branch2c
I1201 03:07:15.786005 18454 net.cpp:408] res3b6 -> res3b6
I1201 03:07:15.786020 18454 net.cpp:150] Setting up res3b6
I1201 03:07:15.786023 18454 net.cpp:157] Top shape: 6 512 28 28 (2408448)
I1201 03:07:15.786026 18454 net.cpp:165] Memory required for data: 1280090136
I1201 03:07:15.786026 18454 layer_factory.hpp:77] Creating layer res3b6_relu
I1201 03:07:15.786029 18454 net.cpp:100] Creating Layer res3b6_relu
I1201 03:07:15.786031 18454 net.cpp:434] res3b6_relu <- res3b6
I1201 03:07:15.786034 18454 net.cpp:395] res3b6_relu -> res3b6 (in-place)
I1201 03:07:15.786139 18454 net.cpp:150] Setting up res3b6_relu
I1201 03:07:15.786142 18454 net.cpp:157] Top shape: 6 512 28 28 (2408448)
I1201 03:07:15.786144 18454 net.cpp:165] Memory required for data: 1289723928
I1201 03:07:15.786145 18454 layer_factory.hpp:77] Creating layer res3b6_res3b6_relu_0_split
I1201 03:07:15.786149 18454 net.cpp:100] Creating Layer res3b6_res3b6_relu_0_split
I1201 03:07:15.786150 18454 net.cpp:434] res3b6_res3b6_relu_0_split <- res3b6
I1201 03:07:15.786154 18454 net.cpp:408] res3b6_res3b6_relu_0_split -> res3b6_res3b6_relu_0_split_0
I1201 03:07:15.786157 18454 net.cpp:408] res3b6_res3b6_relu_0_split -> res3b6_res3b6_relu_0_split_1
I1201 03:07:15.786182 18454 net.cpp:150] Setting up res3b6_res3b6_relu_0_split
I1201 03:07:15.786185 18454 net.cpp:157] Top shape: 6 512 28 28 (2408448)
I1201 03:07:15.786187 18454 net.cpp:157] Top shape: 6 512 28 28 (2408448)
I1201 03:07:15.786190 18454 net.cpp:165] Memory required for data: 1308991512
I1201 03:07:15.786190 18454 layer_factory.hpp:77] Creating layer res3b7_branch2a
I1201 03:07:15.786196 18454 net.cpp:100] Creating Layer res3b7_branch2a
I1201 03:07:15.786198 18454 net.cpp:434] res3b7_branch2a <- res3b6_res3b6_relu_0_split_0
I1201 03:07:15.786202 18454 net.cpp:408] res3b7_branch2a -> res3b7_branch2a
I1201 03:07:15.787508 18454 net.cpp:150] Setting up res3b7_branch2a
I1201 03:07:15.787514 18454 net.cpp:157] Top shape: 6 128 28 28 (602112)
I1201 03:07:15.787516 18454 net.cpp:165] Memory required for data: 1311399960
I1201 03:07:15.787520 18454 layer_factory.hpp:77] Creating layer bn3b7_branch2a
I1201 03:07:15.787524 18454 net.cpp:100] Creating Layer bn3b7_branch2a
I1201 03:07:15.787526 18454 net.cpp:434] bn3b7_branch2a <- res3b7_branch2a
I1201 03:07:15.787529 18454 net.cpp:395] bn3b7_branch2a -> res3b7_branch2a (in-place)
I1201 03:07:15.787667 18454 net.cpp:150] Setting up bn3b7_branch2a
I1201 03:07:15.787672 18454 net.cpp:157] Top shape: 6 128 28 28 (602112)
I1201 03:07:15.787674 18454 net.cpp:165] Memory required for data: 1313808408
I1201 03:07:15.787678 18454 layer_factory.hpp:77] Creating layer scale3b7_branch2a
I1201 03:07:15.787681 18454 net.cpp:100] Creating Layer scale3b7_branch2a
I1201 03:07:15.787683 18454 net.cpp:434] scale3b7_branch2a <- res3b7_branch2a
I1201 03:07:15.787685 18454 net.cpp:395] scale3b7_branch2a -> res3b7_branch2a (in-place)
I1201 03:07:15.787710 18454 layer_factory.hpp:77] Creating layer scale3b7_branch2a
I1201 03:07:15.787782 18454 net.cpp:150] Setting up scale3b7_branch2a
I1201 03:07:15.787786 18454 net.cpp:157] Top shape: 6 128 28 28 (602112)
I1201 03:07:15.787787 18454 net.cpp:165] Memory required for data: 1316216856
I1201 03:07:15.787791 18454 layer_factory.hpp:77] Creating layer res3b7_branch2a_relu
I1201 03:07:15.787794 18454 net.cpp:100] Creating Layer res3b7_branch2a_relu
I1201 03:07:15.787796 18454 net.cpp:434] res3b7_branch2a_relu <- res3b7_branch2a
I1201 03:07:15.787798 18454 net.cpp:395] res3b7_branch2a_relu -> res3b7_branch2a (in-place)
I1201 03:07:15.787917 18454 net.cpp:150] Setting up res3b7_branch2a_relu
I1201 03:07:15.787924 18454 net.cpp:157] Top shape: 6 128 28 28 (602112)
I1201 03:07:15.787925 18454 net.cpp:165] Memory required for data: 1318625304
I1201 03:07:15.787926 18454 layer_factory.hpp:77] Creating layer res3b7_branch2b
I1201 03:07:15.787931 18454 net.cpp:100] Creating Layer res3b7_branch2b
I1201 03:07:15.787933 18454 net.cpp:434] res3b7_branch2b <- res3b7_branch2a
I1201 03:07:15.787936 18454 net.cpp:408] res3b7_branch2b -> res3b7_branch2b
I1201 03:07:15.789661 18454 net.cpp:150] Setting up res3b7_branch2b
I1201 03:07:15.789669 18454 net.cpp:157] Top shape: 6 128 28 28 (602112)
I1201 03:07:15.789670 18454 net.cpp:165] Memory required for data: 1321033752
I1201 03:07:15.789674 18454 layer_factory.hpp:77] Creating layer bn3b7_branch2b
I1201 03:07:15.789677 18454 net.cpp:100] Creating Layer bn3b7_branch2b
I1201 03:07:15.789680 18454 net.cpp:434] bn3b7_branch2b <- res3b7_branch2b
I1201 03:07:15.789683 18454 net.cpp:395] bn3b7_branch2b -> res3b7_branch2b (in-place)
I1201 03:07:15.789818 18454 net.cpp:150] Setting up bn3b7_branch2b
I1201 03:07:15.789820 18454 net.cpp:157] Top shape: 6 128 28 28 (602112)
I1201 03:07:15.789822 18454 net.cpp:165] Memory required for data: 1323442200
I1201 03:07:15.789826 18454 layer_factory.hpp:77] Creating layer scale3b7_branch2b
I1201 03:07:15.789829 18454 net.cpp:100] Creating Layer scale3b7_branch2b
I1201 03:07:15.789830 18454 net.cpp:434] scale3b7_branch2b <- res3b7_branch2b
I1201 03:07:15.789834 18454 net.cpp:395] scale3b7_branch2b -> res3b7_branch2b (in-place)
I1201 03:07:15.789860 18454 layer_factory.hpp:77] Creating layer scale3b7_branch2b
I1201 03:07:15.789930 18454 net.cpp:150] Setting up scale3b7_branch2b
I1201 03:07:15.789934 18454 net.cpp:157] Top shape: 6 128 28 28 (602112)
I1201 03:07:15.789935 18454 net.cpp:165] Memory required for data: 1325850648
I1201 03:07:15.789939 18454 layer_factory.hpp:77] Creating layer res3b7_branch2b_relu
I1201 03:07:15.789942 18454 net.cpp:100] Creating Layer res3b7_branch2b_relu
I1201 03:07:15.789944 18454 net.cpp:434] res3b7_branch2b_relu <- res3b7_branch2b
I1201 03:07:15.789947 18454 net.cpp:395] res3b7_branch2b_relu -> res3b7_branch2b (in-place)
I1201 03:07:15.790060 18454 net.cpp:150] Setting up res3b7_branch2b_relu
I1201 03:07:15.790066 18454 net.cpp:157] Top shape: 6 128 28 28 (602112)
I1201 03:07:15.790066 18454 net.cpp:165] Memory required for data: 1328259096
I1201 03:07:15.790068 18454 layer_factory.hpp:77] Creating layer res3b7_branch2c
I1201 03:07:15.790073 18454 net.cpp:100] Creating Layer res3b7_branch2c
I1201 03:07:15.790076 18454 net.cpp:434] res3b7_branch2c <- res3b7_branch2b
I1201 03:07:15.790078 18454 net.cpp:408] res3b7_branch2c -> res3b7_branch2c
I1201 03:07:15.790925 18454 net.cpp:150] Setting up res3b7_branch2c
I1201 03:07:15.790931 18454 net.cpp:157] Top shape: 6 512 28 28 (2408448)
I1201 03:07:15.790943 18454 net.cpp:165] Memory required for data: 1337892888
I1201 03:07:15.790947 18454 layer_factory.hpp:77] Creating layer bn3b7_branch2c
I1201 03:07:15.790952 18454 net.cpp:100] Creating Layer bn3b7_branch2c
I1201 03:07:15.790954 18454 net.cpp:434] bn3b7_branch2c <- res3b7_branch2c
I1201 03:07:15.790957 18454 net.cpp:395] bn3b7_branch2c -> res3b7_branch2c (in-place)
I1201 03:07:15.791088 18454 net.cpp:150] Setting up bn3b7_branch2c
I1201 03:07:15.791091 18454 net.cpp:157] Top shape: 6 512 28 28 (2408448)
I1201 03:07:15.791093 18454 net.cpp:165] Memory required for data: 1347526680
I1201 03:07:15.791097 18454 layer_factory.hpp:77] Creating layer scale3b7_branch2c
I1201 03:07:15.791100 18454 net.cpp:100] Creating Layer scale3b7_branch2c
I1201 03:07:15.791102 18454 net.cpp:434] scale3b7_branch2c <- res3b7_branch2c
I1201 03:07:15.791105 18454 net.cpp:395] scale3b7_branch2c -> res3b7_branch2c (in-place)
I1201 03:07:15.791131 18454 layer_factory.hpp:77] Creating layer scale3b7_branch2c
I1201 03:07:15.791200 18454 net.cpp:150] Setting up scale3b7_branch2c
I1201 03:07:15.791203 18454 net.cpp:157] Top shape: 6 512 28 28 (2408448)
I1201 03:07:15.791205 18454 net.cpp:165] Memory required for data: 1357160472
I1201 03:07:15.791209 18454 layer_factory.hpp:77] Creating layer res3b7
I1201 03:07:15.791213 18454 net.cpp:100] Creating Layer res3b7
I1201 03:07:15.791214 18454 net.cpp:434] res3b7 <- res3b6_res3b6_relu_0_split_1
I1201 03:07:15.791216 18454 net.cpp:434] res3b7 <- res3b7_branch2c
I1201 03:07:15.791219 18454 net.cpp:408] res3b7 -> res3b7
I1201 03:07:15.791235 18454 net.cpp:150] Setting up res3b7
I1201 03:07:15.791239 18454 net.cpp:157] Top shape: 6 512 28 28 (2408448)
I1201 03:07:15.791239 18454 net.cpp:165] Memory required for data: 1366794264
I1201 03:07:15.791241 18454 layer_factory.hpp:77] Creating layer res3b7_relu
I1201 03:07:15.791244 18454 net.cpp:100] Creating Layer res3b7_relu
I1201 03:07:15.791245 18454 net.cpp:434] res3b7_relu <- res3b7
I1201 03:07:15.791249 18454 net.cpp:395] res3b7_relu -> res3b7 (in-place)
I1201 03:07:15.791507 18454 net.cpp:150] Setting up res3b7_relu
I1201 03:07:15.791512 18454 net.cpp:157] Top shape: 6 512 28 28 (2408448)
I1201 03:07:15.791513 18454 net.cpp:165] Memory required for data: 1376428056
I1201 03:07:15.791515 18454 layer_factory.hpp:77] Creating layer res3b7_res3b7_relu_0_split
I1201 03:07:15.791519 18454 net.cpp:100] Creating Layer res3b7_res3b7_relu_0_split
I1201 03:07:15.791522 18454 net.cpp:434] res3b7_res3b7_relu_0_split <- res3b7
I1201 03:07:15.791524 18454 net.cpp:408] res3b7_res3b7_relu_0_split -> res3b7_res3b7_relu_0_split_0
I1201 03:07:15.791529 18454 net.cpp:408] res3b7_res3b7_relu_0_split -> res3b7_res3b7_relu_0_split_1
I1201 03:07:15.791556 18454 net.cpp:150] Setting up res3b7_res3b7_relu_0_split
I1201 03:07:15.791559 18454 net.cpp:157] Top shape: 6 512 28 28 (2408448)
I1201 03:07:15.791561 18454 net.cpp:157] Top shape: 6 512 28 28 (2408448)
I1201 03:07:15.791563 18454 net.cpp:165] Memory required for data: 1395695640
I1201 03:07:15.791564 18454 layer_factory.hpp:77] Creating layer res4a_branch1
I1201 03:07:15.791569 18454 net.cpp:100] Creating Layer res4a_branch1
I1201 03:07:15.791571 18454 net.cpp:434] res4a_branch1 <- res3b7_res3b7_relu_0_split_0
I1201 03:07:15.791575 18454 net.cpp:408] res4a_branch1 -> res4a_branch1
I1201 03:07:15.794447 18454 net.cpp:150] Setting up res4a_branch1
I1201 03:07:15.794456 18454 net.cpp:157] Top shape: 6 1024 14 14 (1204224)
I1201 03:07:15.794457 18454 net.cpp:165] Memory required for data: 1400512536
I1201 03:07:15.794461 18454 layer_factory.hpp:77] Creating layer bn4a_branch1
I1201 03:07:15.794467 18454 net.cpp:100] Creating Layer bn4a_branch1
I1201 03:07:15.794469 18454 net.cpp:434] bn4a_branch1 <- res4a_branch1
I1201 03:07:15.794472 18454 net.cpp:395] bn4a_branch1 -> res4a_branch1 (in-place)
I1201 03:07:15.794615 18454 net.cpp:150] Setting up bn4a_branch1
I1201 03:07:15.794618 18454 net.cpp:157] Top shape: 6 1024 14 14 (1204224)
I1201 03:07:15.794620 18454 net.cpp:165] Memory required for data: 1405329432
I1201 03:07:15.794632 18454 layer_factory.hpp:77] Creating layer scale4a_branch1
I1201 03:07:15.794636 18454 net.cpp:100] Creating Layer scale4a_branch1
I1201 03:07:15.794638 18454 net.cpp:434] scale4a_branch1 <- res4a_branch1
I1201 03:07:15.794641 18454 net.cpp:395] scale4a_branch1 -> res4a_branch1 (in-place)
I1201 03:07:15.794667 18454 layer_factory.hpp:77] Creating layer scale4a_branch1
I1201 03:07:15.794741 18454 net.cpp:150] Setting up scale4a_branch1
I1201 03:07:15.794744 18454 net.cpp:157] Top shape: 6 1024 14 14 (1204224)
I1201 03:07:15.794746 18454 net.cpp:165] Memory required for data: 1410146328
I1201 03:07:15.794749 18454 layer_factory.hpp:77] Creating layer res4a_branch2a
I1201 03:07:15.794755 18454 net.cpp:100] Creating Layer res4a_branch2a
I1201 03:07:15.794757 18454 net.cpp:434] res4a_branch2a <- res3b7_res3b7_relu_0_split_1
I1201 03:07:15.794760 18454 net.cpp:408] res4a_branch2a -> res4a_branch2a
I1201 03:07:15.795675 18454 net.cpp:150] Setting up res4a_branch2a
I1201 03:07:15.795680 18454 net.cpp:157] Top shape: 6 256 14 14 (301056)
I1201 03:07:15.795682 18454 net.cpp:165] Memory required for data: 1411350552
I1201 03:07:15.795684 18454 layer_factory.hpp:77] Creating layer bn4a_branch2a
I1201 03:07:15.795689 18454 net.cpp:100] Creating Layer bn4a_branch2a
I1201 03:07:15.795692 18454 net.cpp:434] bn4a_branch2a <- res4a_branch2a
I1201 03:07:15.795694 18454 net.cpp:395] bn4a_branch2a -> res4a_branch2a (in-place)
I1201 03:07:15.795824 18454 net.cpp:150] Setting up bn4a_branch2a
I1201 03:07:15.795826 18454 net.cpp:157] Top shape: 6 256 14 14 (301056)
I1201 03:07:15.795828 18454 net.cpp:165] Memory required for data: 1412554776
I1201 03:07:15.795832 18454 layer_factory.hpp:77] Creating layer scale4a_branch2a
I1201 03:07:15.795835 18454 net.cpp:100] Creating Layer scale4a_branch2a
I1201 03:07:15.795836 18454 net.cpp:434] scale4a_branch2a <- res4a_branch2a
I1201 03:07:15.795840 18454 net.cpp:395] scale4a_branch2a -> res4a_branch2a (in-place)
I1201 03:07:15.795874 18454 layer_factory.hpp:77] Creating layer scale4a_branch2a
I1201 03:07:15.795943 18454 net.cpp:150] Setting up scale4a_branch2a
I1201 03:07:15.795948 18454 net.cpp:157] Top shape: 6 256 14 14 (301056)
I1201 03:07:15.795950 18454 net.cpp:165] Memory required for data: 1413759000
I1201 03:07:15.795953 18454 layer_factory.hpp:77] Creating layer res4a_branch2a_relu
I1201 03:07:15.795956 18454 net.cpp:100] Creating Layer res4a_branch2a_relu
I1201 03:07:15.795958 18454 net.cpp:434] res4a_branch2a_relu <- res4a_branch2a
I1201 03:07:15.795960 18454 net.cpp:395] res4a_branch2a_relu -> res4a_branch2a (in-place)
I1201 03:07:15.796233 18454 net.cpp:150] Setting up res4a_branch2a_relu
I1201 03:07:15.796239 18454 net.cpp:157] Top shape: 6 256 14 14 (301056)
I1201 03:07:15.796241 18454 net.cpp:165] Memory required for data: 1414963224
I1201 03:07:15.796243 18454 layer_factory.hpp:77] Creating layer res4a_branch2b
I1201 03:07:15.796249 18454 net.cpp:100] Creating Layer res4a_branch2b
I1201 03:07:15.796252 18454 net.cpp:434] res4a_branch2b <- res4a_branch2a
I1201 03:07:15.796254 18454 net.cpp:408] res4a_branch2b -> res4a_branch2b
I1201 03:07:15.799571 18454 net.cpp:150] Setting up res4a_branch2b
I1201 03:07:15.799582 18454 net.cpp:157] Top shape: 6 256 14 14 (301056)
I1201 03:07:15.799583 18454 net.cpp:165] Memory required for data: 1416167448
I1201 03:07:15.799588 18454 layer_factory.hpp:77] Creating layer bn4a_branch2b
I1201 03:07:15.799593 18454 net.cpp:100] Creating Layer bn4a_branch2b
I1201 03:07:15.799597 18454 net.cpp:434] bn4a_branch2b <- res4a_branch2b
I1201 03:07:15.799602 18454 net.cpp:395] bn4a_branch2b -> res4a_branch2b (in-place)
I1201 03:07:15.799743 18454 net.cpp:150] Setting up bn4a_branch2b
I1201 03:07:15.799747 18454 net.cpp:157] Top shape: 6 256 14 14 (301056)
I1201 03:07:15.799749 18454 net.cpp:165] Memory required for data: 1417371672
I1201 03:07:15.799753 18454 layer_factory.hpp:77] Creating layer scale4a_branch2b
I1201 03:07:15.799757 18454 net.cpp:100] Creating Layer scale4a_branch2b
I1201 03:07:15.799758 18454 net.cpp:434] scale4a_branch2b <- res4a_branch2b
I1201 03:07:15.799769 18454 net.cpp:395] scale4a_branch2b -> res4a_branch2b (in-place)
I1201 03:07:15.799800 18454 layer_factory.hpp:77] Creating layer scale4a_branch2b
I1201 03:07:15.799881 18454 net.cpp:150] Setting up scale4a_branch2b
I1201 03:07:15.799886 18454 net.cpp:157] Top shape: 6 256 14 14 (301056)
I1201 03:07:15.799887 18454 net.cpp:165] Memory required for data: 1418575896
I1201 03:07:15.799891 18454 layer_factory.hpp:77] Creating layer res4a_branch2b_relu
I1201 03:07:15.799895 18454 net.cpp:100] Creating Layer res4a_branch2b_relu
I1201 03:07:15.799897 18454 net.cpp:434] res4a_branch2b_relu <- res4a_branch2b
I1201 03:07:15.799899 18454 net.cpp:395] res4a_branch2b_relu -> res4a_branch2b (in-place)
I1201 03:07:15.800021 18454 net.cpp:150] Setting up res4a_branch2b_relu
I1201 03:07:15.800025 18454 net.cpp:157] Top shape: 6 256 14 14 (301056)
I1201 03:07:15.800027 18454 net.cpp:165] Memory required for data: 1419780120
I1201 03:07:15.800029 18454 layer_factory.hpp:77] Creating layer res4a_branch2c
I1201 03:07:15.800034 18454 net.cpp:100] Creating Layer res4a_branch2c
I1201 03:07:15.800036 18454 net.cpp:434] res4a_branch2c <- res4a_branch2b
I1201 03:07:15.800040 18454 net.cpp:408] res4a_branch2c -> res4a_branch2c
I1201 03:07:15.802101 18454 net.cpp:150] Setting up res4a_branch2c
I1201 03:07:15.802109 18454 net.cpp:157] Top shape: 6 1024 14 14 (1204224)
I1201 03:07:15.802111 18454 net.cpp:165] Memory required for data: 1424597016
I1201 03:07:15.802115 18454 layer_factory.hpp:77] Creating layer bn4a_branch2c
I1201 03:07:15.802119 18454 net.cpp:100] Creating Layer bn4a_branch2c
I1201 03:07:15.802122 18454 net.cpp:434] bn4a_branch2c <- res4a_branch2c
I1201 03:07:15.802125 18454 net.cpp:395] bn4a_branch2c -> res4a_branch2c (in-place)
I1201 03:07:15.802265 18454 net.cpp:150] Setting up bn4a_branch2c
I1201 03:07:15.802268 18454 net.cpp:157] Top shape: 6 1024 14 14 (1204224)
I1201 03:07:15.802270 18454 net.cpp:165] Memory required for data: 1429413912
I1201 03:07:15.802273 18454 layer_factory.hpp:77] Creating layer scale4a_branch2c
I1201 03:07:15.802278 18454 net.cpp:100] Creating Layer scale4a_branch2c
I1201 03:07:15.802279 18454 net.cpp:434] scale4a_branch2c <- res4a_branch2c
I1201 03:07:15.802281 18454 net.cpp:395] scale4a_branch2c -> res4a_branch2c (in-place)
I1201 03:07:15.802307 18454 layer_factory.hpp:77] Creating layer scale4a_branch2c
I1201 03:07:15.802386 18454 net.cpp:150] Setting up scale4a_branch2c
I1201 03:07:15.802388 18454 net.cpp:157] Top shape: 6 1024 14 14 (1204224)
I1201 03:07:15.802390 18454 net.cpp:165] Memory required for data: 1434230808
I1201 03:07:15.802393 18454 layer_factory.hpp:77] Creating layer res4a
I1201 03:07:15.802397 18454 net.cpp:100] Creating Layer res4a
I1201 03:07:15.802399 18454 net.cpp:434] res4a <- res4a_branch1
I1201 03:07:15.802402 18454 net.cpp:434] res4a <- res4a_branch2c
I1201 03:07:15.802404 18454 net.cpp:408] res4a -> res4a
I1201 03:07:15.802420 18454 net.cpp:150] Setting up res4a
I1201 03:07:15.802423 18454 net.cpp:157] Top shape: 6 1024 14 14 (1204224)
I1201 03:07:15.802424 18454 net.cpp:165] Memory required for data: 1439047704
I1201 03:07:15.802426 18454 layer_factory.hpp:77] Creating layer res4a_relu
I1201 03:07:15.802430 18454 net.cpp:100] Creating Layer res4a_relu
I1201 03:07:15.802431 18454 net.cpp:434] res4a_relu <- res4a
I1201 03:07:15.802434 18454 net.cpp:395] res4a_relu -> res4a (in-place)
I1201 03:07:15.802543 18454 net.cpp:150] Setting up res4a_relu
I1201 03:07:15.802547 18454 net.cpp:157] Top shape: 6 1024 14 14 (1204224)
I1201 03:07:15.802549 18454 net.cpp:165] Memory required for data: 1443864600
I1201 03:07:15.802551 18454 layer_factory.hpp:77] Creating layer res4a_res4a_relu_0_split
I1201 03:07:15.802554 18454 net.cpp:100] Creating Layer res4a_res4a_relu_0_split
I1201 03:07:15.802556 18454 net.cpp:434] res4a_res4a_relu_0_split <- res4a
I1201 03:07:15.802561 18454 net.cpp:408] res4a_res4a_relu_0_split -> res4a_res4a_relu_0_split_0
I1201 03:07:15.802564 18454 net.cpp:408] res4a_res4a_relu_0_split -> res4a_res4a_relu_0_split_1
I1201 03:07:15.802598 18454 net.cpp:150] Setting up res4a_res4a_relu_0_split
I1201 03:07:15.802603 18454 net.cpp:157] Top shape: 6 1024 14 14 (1204224)
I1201 03:07:15.802605 18454 net.cpp:157] Top shape: 6 1024 14 14 (1204224)
I1201 03:07:15.802606 18454 net.cpp:165] Memory required for data: 1453498392
I1201 03:07:15.802608 18454 layer_factory.hpp:77] Creating layer res4b1_branch2a
I1201 03:07:15.802613 18454 net.cpp:100] Creating Layer res4b1_branch2a
I1201 03:07:15.802615 18454 net.cpp:434] res4b1_branch2a <- res4a_res4a_relu_0_split_0
I1201 03:07:15.802618 18454 net.cpp:408] res4b1_branch2a -> res4b1_branch2a
I1201 03:07:15.804150 18454 net.cpp:150] Setting up res4b1_branch2a
I1201 03:07:15.804158 18454 net.cpp:157] Top shape: 6 256 14 14 (301056)
I1201 03:07:15.804159 18454 net.cpp:165] Memory required for data: 1454702616
I1201 03:07:15.804162 18454 layer_factory.hpp:77] Creating layer bn4b1_branch2a
I1201 03:07:15.804165 18454 net.cpp:100] Creating Layer bn4b1_branch2a
I1201 03:07:15.804168 18454 net.cpp:434] bn4b1_branch2a <- res4b1_branch2a
I1201 03:07:15.804172 18454 net.cpp:395] bn4b1_branch2a -> res4b1_branch2a (in-place)
I1201 03:07:15.804306 18454 net.cpp:150] Setting up bn4b1_branch2a
I1201 03:07:15.804308 18454 net.cpp:157] Top shape: 6 256 14 14 (301056)
I1201 03:07:15.804311 18454 net.cpp:165] Memory required for data: 1455906840
I1201 03:07:15.804313 18454 layer_factory.hpp:77] Creating layer scale4b1_branch2a
I1201 03:07:15.804316 18454 net.cpp:100] Creating Layer scale4b1_branch2a
I1201 03:07:15.804318 18454 net.cpp:434] scale4b1_branch2a <- res4b1_branch2a
I1201 03:07:15.804322 18454 net.cpp:395] scale4b1_branch2a -> res4b1_branch2a (in-place)
I1201 03:07:15.804347 18454 layer_factory.hpp:77] Creating layer scale4b1_branch2a
I1201 03:07:15.804419 18454 net.cpp:150] Setting up scale4b1_branch2a
I1201 03:07:15.804421 18454 net.cpp:157] Top shape: 6 256 14 14 (301056)
I1201 03:07:15.804424 18454 net.cpp:165] Memory required for data: 1457111064
I1201 03:07:15.804426 18454 layer_factory.hpp:77] Creating layer res4b1_branch2a_relu
I1201 03:07:15.804430 18454 net.cpp:100] Creating Layer res4b1_branch2a_relu
I1201 03:07:15.804431 18454 net.cpp:434] res4b1_branch2a_relu <- res4b1_branch2a
I1201 03:07:15.804435 18454 net.cpp:395] res4b1_branch2a_relu -> res4b1_branch2a (in-place)
I1201 03:07:15.804543 18454 net.cpp:150] Setting up res4b1_branch2a_relu
I1201 03:07:15.804546 18454 net.cpp:157] Top shape: 6 256 14 14 (301056)
I1201 03:07:15.804548 18454 net.cpp:165] Memory required for data: 1458315288
I1201 03:07:15.804550 18454 layer_factory.hpp:77] Creating layer res4b1_branch2b
I1201 03:07:15.804555 18454 net.cpp:100] Creating Layer res4b1_branch2b
I1201 03:07:15.804558 18454 net.cpp:434] res4b1_branch2b <- res4b1_branch2a
I1201 03:07:15.804561 18454 net.cpp:408] res4b1_branch2b -> res4b1_branch2b
I1201 03:07:15.807884 18454 net.cpp:150] Setting up res4b1_branch2b
I1201 03:07:15.807894 18454 net.cpp:157] Top shape: 6 256 14 14 (301056)
I1201 03:07:15.807895 18454 net.cpp:165] Memory required for data: 1459519512
I1201 03:07:15.807899 18454 layer_factory.hpp:77] Creating layer bn4b1_branch2b
I1201 03:07:15.807905 18454 net.cpp:100] Creating Layer bn4b1_branch2b
I1201 03:07:15.807909 18454 net.cpp:434] bn4b1_branch2b <- res4b1_branch2b
I1201 03:07:15.807912 18454 net.cpp:395] bn4b1_branch2b -> res4b1_branch2b (in-place)
I1201 03:07:15.808051 18454 net.cpp:150] Setting up bn4b1_branch2b
I1201 03:07:15.808055 18454 net.cpp:157] Top shape: 6 256 14 14 (301056)
I1201 03:07:15.808058 18454 net.cpp:165] Memory required for data: 1460723736
I1201 03:07:15.808061 18454 layer_factory.hpp:77] Creating layer scale4b1_branch2b
I1201 03:07:15.808064 18454 net.cpp:100] Creating Layer scale4b1_branch2b
I1201 03:07:15.808066 18454 net.cpp:434] scale4b1_branch2b <- res4b1_branch2b
I1201 03:07:15.808069 18454 net.cpp:395] scale4b1_branch2b -> res4b1_branch2b (in-place)
I1201 03:07:15.808097 18454 layer_factory.hpp:77] Creating layer scale4b1_branch2b
I1201 03:07:15.808172 18454 net.cpp:150] Setting up scale4b1_branch2b
I1201 03:07:15.808187 18454 net.cpp:157] Top shape: 6 256 14 14 (301056)
I1201 03:07:15.808188 18454 net.cpp:165] Memory required for data: 1461927960
I1201 03:07:15.808192 18454 layer_factory.hpp:77] Creating layer res4b1_branch2b_relu
I1201 03:07:15.808194 18454 net.cpp:100] Creating Layer res4b1_branch2b_relu
I1201 03:07:15.808197 18454 net.cpp:434] res4b1_branch2b_relu <- res4b1_branch2b
I1201 03:07:15.808199 18454 net.cpp:395] res4b1_branch2b_relu -> res4b1_branch2b (in-place)
I1201 03:07:15.808315 18454 net.cpp:150] Setting up res4b1_branch2b_relu
I1201 03:07:15.808320 18454 net.cpp:157] Top shape: 6 256 14 14 (301056)
I1201 03:07:15.808321 18454 net.cpp:165] Memory required for data: 1463132184
I1201 03:07:15.808323 18454 layer_factory.hpp:77] Creating layer res4b1_branch2c
I1201 03:07:15.808327 18454 net.cpp:100] Creating Layer res4b1_branch2c
I1201 03:07:15.808329 18454 net.cpp:434] res4b1_branch2c <- res4b1_branch2b
I1201 03:07:15.808334 18454 net.cpp:408] res4b1_branch2c -> res4b1_branch2c
I1201 03:07:15.810364 18454 net.cpp:150] Setting up res4b1_branch2c
I1201 03:07:15.810374 18454 net.cpp:157] Top shape: 6 1024 14 14 (1204224)
I1201 03:07:15.810375 18454 net.cpp:165] Memory required for data: 1467949080
I1201 03:07:15.810379 18454 layer_factory.hpp:77] Creating layer bn4b1_branch2c
I1201 03:07:15.810382 18454 net.cpp:100] Creating Layer bn4b1_branch2c
I1201 03:07:15.810385 18454 net.cpp:434] bn4b1_branch2c <- res4b1_branch2c
I1201 03:07:15.810389 18454 net.cpp:395] bn4b1_branch2c -> res4b1_branch2c (in-place)
I1201 03:07:15.810533 18454 net.cpp:150] Setting up bn4b1_branch2c
I1201 03:07:15.810535 18454 net.cpp:157] Top shape: 6 1024 14 14 (1204224)
I1201 03:07:15.810537 18454 net.cpp:165] Memory required for data: 1472765976
I1201 03:07:15.810541 18454 layer_factory.hpp:77] Creating layer scale4b1_branch2c
I1201 03:07:15.810544 18454 net.cpp:100] Creating Layer scale4b1_branch2c
I1201 03:07:15.810546 18454 net.cpp:434] scale4b1_branch2c <- res4b1_branch2c
I1201 03:07:15.810549 18454 net.cpp:395] scale4b1_branch2c -> res4b1_branch2c (in-place)
I1201 03:07:15.810575 18454 layer_factory.hpp:77] Creating layer scale4b1_branch2c
I1201 03:07:15.810653 18454 net.cpp:150] Setting up scale4b1_branch2c
I1201 03:07:15.810657 18454 net.cpp:157] Top shape: 6 1024 14 14 (1204224)
I1201 03:07:15.810658 18454 net.cpp:165] Memory required for data: 1477582872
I1201 03:07:15.810678 18454 layer_factory.hpp:77] Creating layer res4b1
I1201 03:07:15.810681 18454 net.cpp:100] Creating Layer res4b1
I1201 03:07:15.810683 18454 net.cpp:434] res4b1 <- res4a_res4a_relu_0_split_1
I1201 03:07:15.810685 18454 net.cpp:434] res4b1 <- res4b1_branch2c
I1201 03:07:15.810688 18454 net.cpp:408] res4b1 -> res4b1
I1201 03:07:15.810705 18454 net.cpp:150] Setting up res4b1
I1201 03:07:15.810708 18454 net.cpp:157] Top shape: 6 1024 14 14 (1204224)
I1201 03:07:15.810709 18454 net.cpp:165] Memory required for data: 1482399768
I1201 03:07:15.810711 18454 layer_factory.hpp:77] Creating layer res4b1_relu
I1201 03:07:15.810714 18454 net.cpp:100] Creating Layer res4b1_relu
I1201 03:07:15.810716 18454 net.cpp:434] res4b1_relu <- res4b1
I1201 03:07:15.810720 18454 net.cpp:395] res4b1_relu -> res4b1 (in-place)
I1201 03:07:15.811013 18454 net.cpp:150] Setting up res4b1_relu
I1201 03:07:15.811019 18454 net.cpp:157] Top shape: 6 1024 14 14 (1204224)
I1201 03:07:15.811022 18454 net.cpp:165] Memory required for data: 1487216664
I1201 03:07:15.811023 18454 layer_factory.hpp:77] Creating layer res4b1_res4b1_relu_0_split
I1201 03:07:15.811027 18454 net.cpp:100] Creating Layer res4b1_res4b1_relu_0_split
I1201 03:07:15.811028 18454 net.cpp:434] res4b1_res4b1_relu_0_split <- res4b1
I1201 03:07:15.811033 18454 net.cpp:408] res4b1_res4b1_relu_0_split -> res4b1_res4b1_relu_0_split_0
I1201 03:07:15.811038 18454 net.cpp:408] res4b1_res4b1_relu_0_split -> res4b1_res4b1_relu_0_split_1
I1201 03:07:15.811066 18454 net.cpp:150] Setting up res4b1_res4b1_relu_0_split
I1201 03:07:15.811070 18454 net.cpp:157] Top shape: 6 1024 14 14 (1204224)
I1201 03:07:15.811072 18454 net.cpp:157] Top shape: 6 1024 14 14 (1204224)
I1201 03:07:15.811081 18454 net.cpp:165] Memory required for data: 1496850456
I1201 03:07:15.811084 18454 layer_factory.hpp:77] Creating layer res4b2_branch2a
I1201 03:07:15.811089 18454 net.cpp:100] Creating Layer res4b2_branch2a
I1201 03:07:15.811091 18454 net.cpp:434] res4b2_branch2a <- res4b1_res4b1_relu_0_split_0
I1201 03:07:15.811096 18454 net.cpp:408] res4b2_branch2a -> res4b2_branch2a
I1201 03:07:15.812656 18454 net.cpp:150] Setting up res4b2_branch2a
I1201 03:07:15.812664 18454 net.cpp:157] Top shape: 6 256 14 14 (301056)
I1201 03:07:15.812666 18454 net.cpp:165] Memory required for data: 1498054680
I1201 03:07:15.812670 18454 layer_factory.hpp:77] Creating layer bn4b2_branch2a
I1201 03:07:15.812674 18454 net.cpp:100] Creating Layer bn4b2_branch2a
I1201 03:07:15.812676 18454 net.cpp:434] bn4b2_branch2a <- res4b2_branch2a
I1201 03:07:15.812680 18454 net.cpp:395] bn4b2_branch2a -> res4b2_branch2a (in-place)
I1201 03:07:15.812819 18454 net.cpp:150] Setting up bn4b2_branch2a
I1201 03:07:15.812822 18454 net.cpp:157] Top shape: 6 256 14 14 (301056)
I1201 03:07:15.812824 18454 net.cpp:165] Memory required for data: 1499258904
I1201 03:07:15.812827 18454 layer_factory.hpp:77] Creating layer scale4b2_branch2a
I1201 03:07:15.812830 18454 net.cpp:100] Creating Layer scale4b2_branch2a
I1201 03:07:15.812832 18454 net.cpp:434] scale4b2_branch2a <- res4b2_branch2a
I1201 03:07:15.812835 18454 net.cpp:395] scale4b2_branch2a -> res4b2_branch2a (in-place)
I1201 03:07:15.812863 18454 layer_factory.hpp:77] Creating layer scale4b2_branch2a
I1201 03:07:15.812937 18454 net.cpp:150] Setting up scale4b2_branch2a
I1201 03:07:15.812940 18454 net.cpp:157] Top shape: 6 256 14 14 (301056)
I1201 03:07:15.812942 18454 net.cpp:165] Memory required for data: 1500463128
I1201 03:07:15.812945 18454 layer_factory.hpp:77] Creating layer res4b2_branch2a_relu
I1201 03:07:15.812948 18454 net.cpp:100] Creating Layer res4b2_branch2a_relu
I1201 03:07:15.812950 18454 net.cpp:434] res4b2_branch2a_relu <- res4b2_branch2a
I1201 03:07:15.812953 18454 net.cpp:395] res4b2_branch2a_relu -> res4b2_branch2a (in-place)
I1201 03:07:15.813228 18454 net.cpp:150] Setting up res4b2_branch2a_relu
I1201 03:07:15.813235 18454 net.cpp:157] Top shape: 6 256 14 14 (301056)
I1201 03:07:15.813235 18454 net.cpp:165] Memory required for data: 1501667352
I1201 03:07:15.813238 18454 layer_factory.hpp:77] Creating layer res4b2_branch2b
I1201 03:07:15.813243 18454 net.cpp:100] Creating Layer res4b2_branch2b
I1201 03:07:15.813246 18454 net.cpp:434] res4b2_branch2b <- res4b2_branch2a
I1201 03:07:15.813251 18454 net.cpp:408] res4b2_branch2b -> res4b2_branch2b
I1201 03:07:15.816596 18454 net.cpp:150] Setting up res4b2_branch2b
I1201 03:07:15.816606 18454 net.cpp:157] Top shape: 6 256 14 14 (301056)
I1201 03:07:15.816606 18454 net.cpp:165] Memory required for data: 1502871576
I1201 03:07:15.816611 18454 layer_factory.hpp:77] Creating layer bn4b2_branch2b
I1201 03:07:15.816617 18454 net.cpp:100] Creating Layer bn4b2_branch2b
I1201 03:07:15.816618 18454 net.cpp:434] bn4b2_branch2b <- res4b2_branch2b
I1201 03:07:15.816622 18454 net.cpp:395] bn4b2_branch2b -> res4b2_branch2b (in-place)
I1201 03:07:15.816761 18454 net.cpp:150] Setting up bn4b2_branch2b
I1201 03:07:15.816766 18454 net.cpp:157] Top shape: 6 256 14 14 (301056)
I1201 03:07:15.816767 18454 net.cpp:165] Memory required for data: 1504075800
I1201 03:07:15.816771 18454 layer_factory.hpp:77] Creating layer scale4b2_branch2b
I1201 03:07:15.816774 18454 net.cpp:100] Creating Layer scale4b2_branch2b
I1201 03:07:15.816777 18454 net.cpp:434] scale4b2_branch2b <- res4b2_branch2b
I1201 03:07:15.816779 18454 net.cpp:395] scale4b2_branch2b -> res4b2_branch2b (in-place)
I1201 03:07:15.816808 18454 layer_factory.hpp:77] Creating layer scale4b2_branch2b
I1201 03:07:15.816882 18454 net.cpp:150] Setting up scale4b2_branch2b
I1201 03:07:15.816886 18454 net.cpp:157] Top shape: 6 256 14 14 (301056)
I1201 03:07:15.816889 18454 net.cpp:165] Memory required for data: 1505280024
I1201 03:07:15.816891 18454 layer_factory.hpp:77] Creating layer res4b2_branch2b_relu
I1201 03:07:15.816905 18454 net.cpp:100] Creating Layer res4b2_branch2b_relu
I1201 03:07:15.816908 18454 net.cpp:434] res4b2_branch2b_relu <- res4b2_branch2b
I1201 03:07:15.816910 18454 net.cpp:395] res4b2_branch2b_relu -> res4b2_branch2b (in-place)
I1201 03:07:15.817025 18454 net.cpp:150] Setting up res4b2_branch2b_relu
I1201 03:07:15.817029 18454 net.cpp:157] Top shape: 6 256 14 14 (301056)
I1201 03:07:15.817031 18454 net.cpp:165] Memory required for data: 1506484248
I1201 03:07:15.817034 18454 layer_factory.hpp:77] Creating layer res4b2_branch2c
I1201 03:07:15.817041 18454 net.cpp:100] Creating Layer res4b2_branch2c
I1201 03:07:15.817044 18454 net.cpp:434] res4b2_branch2c <- res4b2_branch2b
I1201 03:07:15.817046 18454 net.cpp:408] res4b2_branch2c -> res4b2_branch2c
I1201 03:07:15.819082 18454 net.cpp:150] Setting up res4b2_branch2c
I1201 03:07:15.819090 18454 net.cpp:157] Top shape: 6 1024 14 14 (1204224)
I1201 03:07:15.819092 18454 net.cpp:165] Memory required for data: 1511301144
I1201 03:07:15.819097 18454 layer_factory.hpp:77] Creating layer bn4b2_branch2c
I1201 03:07:15.819100 18454 net.cpp:100] Creating Layer bn4b2_branch2c
I1201 03:07:15.819103 18454 net.cpp:434] bn4b2_branch2c <- res4b2_branch2c
I1201 03:07:15.819105 18454 net.cpp:395] bn4b2_branch2c -> res4b2_branch2c (in-place)
I1201 03:07:15.819252 18454 net.cpp:150] Setting up bn4b2_branch2c
I1201 03:07:15.819254 18454 net.cpp:157] Top shape: 6 1024 14 14 (1204224)
I1201 03:07:15.819257 18454 net.cpp:165] Memory required for data: 1516118040
I1201 03:07:15.819260 18454 layer_factory.hpp:77] Creating layer scale4b2_branch2c
I1201 03:07:15.819263 18454 net.cpp:100] Creating Layer scale4b2_branch2c
I1201 03:07:15.819265 18454 net.cpp:434] scale4b2_branch2c <- res4b2_branch2c
I1201 03:07:15.819268 18454 net.cpp:395] scale4b2_branch2c -> res4b2_branch2c (in-place)
I1201 03:07:15.819294 18454 layer_factory.hpp:77] Creating layer scale4b2_branch2c
I1201 03:07:15.819372 18454 net.cpp:150] Setting up scale4b2_branch2c
I1201 03:07:15.819376 18454 net.cpp:157] Top shape: 6 1024 14 14 (1204224)
I1201 03:07:15.819378 18454 net.cpp:165] Memory required for data: 1520934936
I1201 03:07:15.819381 18454 layer_factory.hpp:77] Creating layer res4b2
I1201 03:07:15.819385 18454 net.cpp:100] Creating Layer res4b2
I1201 03:07:15.819386 18454 net.cpp:434] res4b2 <- res4b1_res4b1_relu_0_split_1
I1201 03:07:15.819388 18454 net.cpp:434] res4b2 <- res4b2_branch2c
I1201 03:07:15.819391 18454 net.cpp:408] res4b2 -> res4b2
I1201 03:07:15.819408 18454 net.cpp:150] Setting up res4b2
I1201 03:07:15.819411 18454 net.cpp:157] Top shape: 6 1024 14 14 (1204224)
I1201 03:07:15.819412 18454 net.cpp:165] Memory required for data: 1525751832
I1201 03:07:15.819414 18454 layer_factory.hpp:77] Creating layer res4b2_relu
I1201 03:07:15.819418 18454 net.cpp:100] Creating Layer res4b2_relu
I1201 03:07:15.819420 18454 net.cpp:434] res4b2_relu <- res4b2
I1201 03:07:15.819422 18454 net.cpp:395] res4b2_relu -> res4b2 (in-place)
I1201 03:07:15.819532 18454 net.cpp:150] Setting up res4b2_relu
I1201 03:07:15.819537 18454 net.cpp:157] Top shape: 6 1024 14 14 (1204224)
I1201 03:07:15.819540 18454 net.cpp:165] Memory required for data: 1530568728
I1201 03:07:15.819541 18454 layer_factory.hpp:77] Creating layer res4b2_res4b2_relu_0_split
I1201 03:07:15.819543 18454 net.cpp:100] Creating Layer res4b2_res4b2_relu_0_split
I1201 03:07:15.819546 18454 net.cpp:434] res4b2_res4b2_relu_0_split <- res4b2
I1201 03:07:15.819550 18454 net.cpp:408] res4b2_res4b2_relu_0_split -> res4b2_res4b2_relu_0_split_0
…
I1201 03:07:16.731782 18454 net.cpp:100] Creating Layer bn4b33_branch2a
I1201 03:07:16.731784 18454 net.cpp:434] bn4b33_branch2a <- res4b33_branch2a
I1201 03:07:16.731788 18454 net.cpp:395] bn4b33_branch2a -> res4b33_branch2a (in-place)
I1201 03:07:16.731973 18454 net.cpp:150] Setting up bn4b33_branch2a
I1201 03:07:16.731976 18454 net.cpp:157] Top shape: 1 256 14 14 (50176)
I1201 03:07:16.731978 18454 net.cpp:165] Memory required for data: 473862156
I1201 03:07:16.731982 18454 layer_factory.hpp:77] Creating layer scale4b33_branch2a
I1201 03:07:16.731988 18454 net.cpp:100] Creating Layer scale4b33_branch2a
I1201 03:07:16.731990 18454 net.cpp:434] scale4b33_branch2a <- res4b33_branch2a
I1201 03:07:16.731992 18454 net.cpp:395] scale4b33_branch2a -> res4b33_branch2a (in-place)
I1201 03:07:16.732024 18454 layer_factory.hpp:77] Creating layer scale4b33_branch2a
I1201 03:07:16.732120 18454 net.cpp:150] Setting up scale4b33_branch2a
I1201 03:07:16.732122 18454 net.cpp:157] Top shape: 1 256 14 14 (50176)
I1201 03:07:16.732125 18454 net.cpp:165] Memory required for data: 474062860
I1201 03:07:16.732127 18454 layer_factory.hpp:77] Creating layer res4b33_branch2a_relu
I1201 03:07:16.732131 18454 net.cpp:100] Creating Layer res4b33_branch2a_relu
I1201 03:07:16.732132 18454 net.cpp:434] res4b33_branch2a_relu <- res4b33_branch2a
I1201 03:07:16.732136 18454 net.cpp:395] res4b33_branch2a_relu -> res4b33_branch2a (in-place)
I1201 03:07:16.732678 18454 net.cpp:150] Setting up res4b33_branch2a_relu
I1201 03:07:16.732684 18454 net.cpp:157] Top shape: 1 256 14 14 (50176)
I1201 03:07:16.732694 18454 net.cpp:165] Memory required for data: 474263564
I1201 03:07:16.732697 18454 layer_factory.hpp:77] Creating layer res4b33_branch2b
I1201 03:07:16.732702 18454 net.cpp:100] Creating Layer res4b33_branch2b
I1201 03:07:16.732705 18454 net.cpp:434] res4b33_branch2b <- res4b33_branch2a
I1201 03:07:16.732709 18454 net.cpp:408] res4b33_branch2b -> res4b33_branch2b
I1201 03:07:16.736654 18454 net.cpp:150] Setting up res4b33_branch2b
I1201 03:07:16.736665 18454 net.cpp:157] Top shape: 1 256 14 14 (50176)
I1201 03:07:16.736668 18454 net.cpp:165] Memory required for data: 474464268
I1201 03:07:16.736673 18454 layer_factory.hpp:77] Creating layer bn4b33_branch2b
I1201 03:07:16.736680 18454 net.cpp:100] Creating Layer bn4b33_branch2b
I1201 03:07:16.736683 18454 net.cpp:434] bn4b33_branch2b <- res4b33_branch2b
I1201 03:07:16.736687 18454 net.cpp:395] bn4b33_branch2b -> res4b33_branch2b (in-place)
I1201 03:07:16.736878 18454 net.cpp:150] Setting up bn4b33_branch2b
I1201 03:07:16.736881 18454 net.cpp:157] Top shape: 1 256 14 14 (50176)
I1201 03:07:16.736883 18454 net.cpp:165] Memory required for data: 474664972
I1201 03:07:16.736887 18454 layer_factory.hpp:77] Creating layer scale4b33_branch2b
I1201 03:07:16.736891 18454 net.cpp:100] Creating Layer scale4b33_branch2b
I1201 03:07:16.736893 18454 net.cpp:434] scale4b33_branch2b <- res4b33_branch2b
I1201 03:07:16.736896 18454 net.cpp:395] scale4b33_branch2b -> res4b33_branch2b (in-place)
I1201 03:07:16.736930 18454 layer_factory.hpp:77] Creating layer scale4b33_branch2b
I1201 03:07:16.737025 18454 net.cpp:150] Setting up scale4b33_branch2b
I1201 03:07:16.737028 18454 net.cpp:157] Top shape: 1 256 14 14 (50176)
I1201 03:07:16.737030 18454 net.cpp:165] Memory required for data: 474865676
I1201 03:07:16.737035 18454 layer_factory.hpp:77] Creating layer res4b33_branch2b_relu
I1201 03:07:16.737037 18454 net.cpp:100] Creating Layer res4b33_branch2b_relu
I1201 03:07:16.737038 18454 net.cpp:434] res4b33_branch2b_relu <- res4b33_branch2b
I1201 03:07:16.737042 18454 net.cpp:395] res4b33_branch2b_relu -> res4b33_branch2b (in-place)
I1201 03:07:16.737640 18454 net.cpp:150] Setting up res4b33_branch2b_relu
I1201 03:07:16.737648 18454 net.cpp:157] Top shape: 1 256 14 14 (50176)
I1201 03:07:16.737648 18454 net.cpp:165] Memory required for data: 475066380
I1201 03:07:16.737650 18454 layer_factory.hpp:77] Creating layer res4b33_branch2c
I1201 03:07:16.737658 18454 net.cpp:100] Creating Layer res4b33_branch2c
I1201 03:07:16.737659 18454 net.cpp:434] res4b33_branch2c <- res4b33_branch2b
I1201 03:07:16.737664 18454 net.cpp:408] res4b33_branch2c -> res4b33_branch2c
I1201 03:07:16.740366 18454 net.cpp:150] Setting up res4b33_branch2c
I1201 03:07:16.740375 18454 net.cpp:157] Top shape: 1 1024 14 14 (200704)
I1201 03:07:16.740377 18454 net.cpp:165] Memory required for data: 475869196
I1201 03:07:16.740381 18454 layer_factory.hpp:77] Creating layer bn4b33_branch2c
I1201 03:07:16.740386 18454 net.cpp:100] Creating Layer bn4b33_branch2c
I1201 03:07:16.740388 18454 net.cpp:434] bn4b33_branch2c <- res4b33_branch2c
I1201 03:07:16.740392 18454 net.cpp:395] bn4b33_branch2c -> res4b33_branch2c (in-place)
I1201 03:07:16.740617 18454 net.cpp:150] Setting up bn4b33_branch2c
I1201 03:07:16.740622 18454 net.cpp:157] Top shape: 1 1024 14 14 (200704)
I1201 03:07:16.740623 18454 net.cpp:165] Memory required for data: 476672012
I1201 03:07:16.740628 18454 layer_factory.hpp:77] Creating layer scale4b33_branch2c
I1201 03:07:16.740631 18454 net.cpp:100] Creating Layer scale4b33_branch2c
I1201 03:07:16.740633 18454 net.cpp:434] scale4b33_branch2c <- res4b33_branch2c
I1201 03:07:16.740636 18454 net.cpp:395] scale4b33_branch2c -> res4b33_branch2c (in-place)
I1201 03:07:16.740679 18454 layer_factory.hpp:77] Creating layer scale4b33_branch2c
I1201 03:07:16.740797 18454 net.cpp:150] Setting up scale4b33_branch2c
I1201 03:07:16.740800 18454 net.cpp:157] Top shape: 1 1024 14 14 (200704)
I1201 03:07:16.740803 18454 net.cpp:165] Memory required for data: 477474828
I1201 03:07:16.740806 18454 layer_factory.hpp:77] Creating layer res4b33
I1201 03:07:16.740823 18454 net.cpp:100] Creating Layer res4b33
I1201 03:07:16.740825 18454 net.cpp:434] res4b33 <- res4b32_res4b32_relu_0_split_1
I1201 03:07:16.740828 18454 net.cpp:434] res4b33 <- res4b33_branch2c
I1201 03:07:16.740831 18454 net.cpp:408] res4b33 -> res4b33
I1201 03:07:16.740851 18454 net.cpp:150] Setting up res4b33
I1201 03:07:16.740855 18454 net.cpp:157] Top shape: 1 1024 14 14 (200704)
I1201 03:07:16.740856 18454 net.cpp:165] Memory required for data: 478277644
I1201 03:07:16.740859 18454 layer_factory.hpp:77] Creating layer res4b33_relu
I1201 03:07:16.740861 18454 net.cpp:100] Creating Layer res4b33_relu
I1201 03:07:16.740864 18454 net.cpp:434] res4b33_relu <- res4b33
I1201 03:07:16.740866 18454 net.cpp:395] res4b33_relu -> res4b33 (in-place)
I1201 03:07:16.741019 18454 net.cpp:150] Setting up res4b33_relu
I1201 03:07:16.741022 18454 net.cpp:157] Top shape: 1 1024 14 14 (200704)
I1201 03:07:16.741024 18454 net.cpp:165] Memory required for data: 479080460
I1201 03:07:16.741026 18454 layer_factory.hpp:77] Creating layer res4b33_res4b33_relu_0_split
I1201 03:07:16.741030 18454 net.cpp:100] Creating Layer res4b33_res4b33_relu_0_split
I1201 03:07:16.741032 18454 net.cpp:434] res4b33_res4b33_relu_0_split <- res4b33
I1201 03:07:16.741034 18454 net.cpp:408] res4b33_res4b33_relu_0_split -> res4b33_res4b33_relu_0_split_0
I1201 03:07:16.741039 18454 net.cpp:408] res4b33_res4b33_relu_0_split -> res4b33_res4b33_relu_0_split_1
I1201 03:07:16.741073 18454 net.cpp:150] Setting up res4b33_res4b33_relu_0_split
I1201 03:07:16.741076 18454 net.cpp:157] Top shape: 1 1024 14 14 (200704)
I1201 03:07:16.741078 18454 net.cpp:157] Top shape: 1 1024 14 14 (200704)
I1201 03:07:16.741080 18454 net.cpp:165] Memory required for data: 480686092
I1201 03:07:16.741082 18454 layer_factory.hpp:77] Creating layer res4b34_branch2a
I1201 03:07:16.741087 18454 net.cpp:100] Creating Layer res4b34_branch2a
I1201 03:07:16.741089 18454 net.cpp:434] res4b34_branch2a <- res4b33_res4b33_relu_0_split_0
I1201 03:07:16.741093 18454 net.cpp:408] res4b34_branch2a -> res4b34_branch2a
I1201 03:07:16.743074 18454 net.cpp:150] Setting up res4b34_branch2a
I1201 03:07:16.743082 18454 net.cpp:157] Top shape: 1 256 14 14 (50176)
I1201 03:07:16.743083 18454 net.cpp:165] Memory required for data: 480886796
I1201 03:07:16.743086 18454 layer_factory.hpp:77] Creating layer bn4b34_branch2a
I1201 03:07:16.743090 18454 net.cpp:100] Creating Layer bn4b34_branch2a
I1201 03:07:16.743093 18454 net.cpp:434] bn4b34_branch2a <- res4b34_branch2a
I1201 03:07:16.743095 18454 net.cpp:395] bn4b34_branch2a -> res4b34_branch2a (in-place)
I1201 03:07:16.743274 18454 net.cpp:150] Setting up bn4b34_branch2a
I1201 03:07:16.743278 18454 net.cpp:157] Top shape: 1 256 14 14 (50176)
I1201 03:07:16.743278 18454 net.cpp:165] Memory required for data: 481087500
I1201 03:07:16.743283 18454 layer_factory.hpp:77] Creating layer scale4b34_branch2a
I1201 03:07:16.743288 18454 net.cpp:100] Creating Layer scale4b34_branch2a
I1201 03:07:16.743289 18454 net.cpp:434] scale4b34_branch2a <- res4b34_branch2a
I1201 03:07:16.743293 18454 net.cpp:395] scale4b34_branch2a -> res4b34_branch2a (in-place)
I1201 03:07:16.743324 18454 layer_factory.hpp:77] Creating layer scale4b34_branch2a
I1201 03:07:16.743422 18454 net.cpp:150] Setting up scale4b34_branch2a
I1201 03:07:16.743425 18454 net.cpp:157] Top shape: 1 256 14 14 (50176)
I1201 03:07:16.743427 18454 net.cpp:165] Memory required for data: 481288204
I1201 03:07:16.743429 18454 layer_factory.hpp:77] Creating layer res4b34_branch2a_relu
I1201 03:07:16.743433 18454 net.cpp:100] Creating Layer res4b34_branch2a_relu
I1201 03:07:16.743435 18454 net.cpp:434] res4b34_branch2a_relu <- res4b34_branch2a
I1201 03:07:16.743438 18454 net.cpp:395] res4b34_branch2a_relu -> res4b34_branch2a (in-place)
I1201 03:07:16.743587 18454 net.cpp:150] Setting up res4b34_branch2a_relu
I1201 03:07:16.743592 18454 net.cpp:157] Top shape: 1 256 14 14 (50176)
I1201 03:07:16.743592 18454 net.cpp:165] Memory required for data: 481488908
I1201 03:07:16.743602 18454 layer_factory.hpp:77] Creating layer res4b34_branch2b
I1201 03:07:16.743607 18454 net.cpp:100] Creating Layer res4b34_branch2b
I1201 03:07:16.743610 18454 net.cpp:434] res4b34_branch2b <- res4b34_branch2a
I1201 03:07:16.743613 18454 net.cpp:408] res4b34_branch2b -> res4b34_branch2b
I1201 03:07:16.747990 18454 net.cpp:150] Setting up res4b34_branch2b
I1201 03:07:16.748003 18454 net.cpp:157] Top shape: 1 256 14 14 (50176)
I1201 03:07:16.748006 18454 net.cpp:165] Memory required for data: 481689612
I1201 03:07:16.748011 18454 layer_factory.hpp:77] Creating layer bn4b34_branch2b
I1201 03:07:16.748018 18454 net.cpp:100] Creating Layer bn4b34_branch2b
I1201 03:07:16.748020 18454 net.cpp:434] bn4b34_branch2b <- res4b34_branch2b
I1201 03:07:16.748025 18454 net.cpp:395] bn4b34_branch2b -> res4b34_branch2b (in-place)
I1201 03:07:16.748216 18454 net.cpp:150] Setting up bn4b34_branch2b
I1201 03:07:16.748219 18454 net.cpp:157] Top shape: 1 256 14 14 (50176)
I1201 03:07:16.748221 18454 net.cpp:165] Memory required for data: 481890316
I1201 03:07:16.748225 18454 layer_factory.hpp:77] Creating layer scale4b34_branch2b
I1201 03:07:16.748229 18454 net.cpp:100] Creating Layer scale4b34_branch2b
I1201 03:07:16.748231 18454 net.cpp:434] scale4b34_branch2b <- res4b34_branch2b
I1201 03:07:16.748234 18454 net.cpp:395] scale4b34_branch2b -> res4b34_branch2b (in-place)
I1201 03:07:16.748267 18454 layer_factory.hpp:77] Creating layer scale4b34_branch2b
I1201 03:07:16.748364 18454 net.cpp:150] Setting up scale4b34_branch2b
I1201 03:07:16.748368 18454 net.cpp:157] Top shape: 1 256 14 14 (50176)
I1201 03:07:16.748369 18454 net.cpp:165] Memory required for data: 482091020
I1201 03:07:16.748373 18454 layer_factory.hpp:77] Creating layer res4b34_branch2b_relu
I1201 03:07:16.748376 18454 net.cpp:100] Creating Layer res4b34_branch2b_relu
I1201 03:07:16.748378 18454 net.cpp:434] res4b34_branch2b_relu <- res4b34_branch2b
I1201 03:07:16.748380 18454 net.cpp:395] res4b34_branch2b_relu -> res4b34_branch2b (in-place)
I1201 03:07:16.748545 18454 net.cpp:150] Setting up res4b34_branch2b_relu
I1201 03:07:16.748550 18454 net.cpp:157] Top shape: 1 256 14 14 (50176)
I1201 03:07:16.748551 18454 net.cpp:165] Memory required for data: 482291724
I1201 03:07:16.748553 18454 layer_factory.hpp:77] Creating layer res4b34_branch2c
I1201 03:07:16.748559 18454 net.cpp:100] Creating Layer res4b34_branch2c
I1201 03:07:16.748563 18454 net.cpp:434] res4b34_branch2c <- res4b34_branch2b
I1201 03:07:16.748565 18454 net.cpp:408] res4b34_branch2c -> res4b34_branch2c
I1201 03:07:16.751610 18454 net.cpp:150] Setting up res4b34_branch2c
I1201 03:07:16.751619 18454 net.cpp:157] Top shape: 1 1024 14 14 (200704)
I1201 03:07:16.751621 18454 net.cpp:165] Memory required for data: 483094540
I1201 03:07:16.751624 18454 layer_factory.hpp:77] Creating layer bn4b34_branch2c
I1201 03:07:16.751629 18454 net.cpp:100] Creating Layer bn4b34_branch2c
I1201 03:07:16.751632 18454 net.cpp:434] bn4b34_branch2c <- res4b34_branch2c
I1201 03:07:16.751636 18454 net.cpp:395] bn4b34_branch2c -> res4b34_branch2c (in-place)
I1201 03:07:16.751868 18454 net.cpp:150] Setting up bn4b34_branch2c
I1201 03:07:16.751873 18454 net.cpp:157] Top shape: 1 1024 14 14 (200704)
I1201 03:07:16.751874 18454 net.cpp:165] Memory required for data: 483897356
I1201 03:07:16.751878 18454 layer_factory.hpp:77] Creating layer scale4b34_branch2c
I1201 03:07:16.751881 18454 net.cpp:100] Creating Layer scale4b34_branch2c
I1201 03:07:16.751883 18454 net.cpp:434] scale4b34_branch2c <- res4b34_branch2c
I1201 03:07:16.751888 18454 net.cpp:395] scale4b34_branch2c -> res4b34_branch2c (in-place)
I1201 03:07:16.751930 18454 layer_factory.hpp:77] Creating layer scale4b34_branch2c
I1201 03:07:16.752051 18454 net.cpp:150] Setting up scale4b34_branch2c
I1201 03:07:16.752055 18454 net.cpp:157] Top shape: 1 1024 14 14 (200704)
I1201 03:07:16.752058 18454 net.cpp:165] Memory required for data: 484700172
I1201 03:07:16.752060 18454 layer_factory.hpp:77] Creating layer res4b34
I1201 03:07:16.752064 18454 net.cpp:100] Creating Layer res4b34
I1201 03:07:16.752079 18454 net.cpp:434] res4b34 <- res4b33_res4b33_relu_0_split_1
I1201 03:07:16.752082 18454 net.cpp:434] res4b34 <- res4b34_branch2c
I1201 03:07:16.752084 18454 net.cpp:408] res4b34 -> res4b34
I1201 03:07:16.752106 18454 net.cpp:150] Setting up res4b34
I1201 03:07:16.752110 18454 net.cpp:157] Top shape: 1 1024 14 14 (200704)
I1201 03:07:16.752111 18454 net.cpp:165] Memory required for data: 485502988
I1201 03:07:16.752113 18454 layer_factory.hpp:77] Creating layer res4b34_relu
I1201 03:07:16.752116 18454 net.cpp:100] Creating Layer res4b34_relu
I1201 03:07:16.752118 18454 net.cpp:434] res4b34_relu <- res4b34
I1201 03:07:16.752121 18454 net.cpp:395] res4b34_relu -> res4b34 (in-place)
I1201 03:07:16.752279 18454 net.cpp:150] Setting up res4b34_relu
I1201 03:07:16.752285 18454 net.cpp:157] Top shape: 1 1024 14 14 (200704)
I1201 03:07:16.752286 18454 net.cpp:165] Memory required for data: 486305804
I1201 03:07:16.752288 18454 layer_factory.hpp:77] Creating layer res4b34_res4b34_relu_0_split
I1201 03:07:16.752291 18454 net.cpp:100] Creating Layer res4b34_res4b34_relu_0_split
I1201 03:07:16.752293 18454 net.cpp:434] res4b34_res4b34_relu_0_split <- res4b34
I1201 03:07:16.752296 18454 net.cpp:408] res4b34_res4b34_relu_0_split -> res4b34_res4b34_relu_0_split_0
I1201 03:07:16.752301 18454 net.cpp:408] res4b34_res4b34_relu_0_split -> res4b34_res4b34_relu_0_split_1
I1201 03:07:16.752336 18454 net.cpp:150] Setting up res4b34_res4b34_relu_0_split
I1201 03:07:16.752339 18454 net.cpp:157] Top shape: 1 1024 14 14 (200704)
I1201 03:07:16.752341 18454 net.cpp:157] Top shape: 1 1024 14 14 (200704)
I1201 03:07:16.752343 18454 net.cpp:165] Memory required for data: 487911436
I1201 03:07:16.752346 18454 layer_factory.hpp:77] Creating layer res4b35_branch2a
I1201 03:07:16.752351 18454 net.cpp:100] Creating Layer res4b35_branch2a
I1201 03:07:16.752353 18454 net.cpp:434] res4b35_branch2a <- res4b34_res4b34_relu_0_split_0
I1201 03:07:16.752357 18454 net.cpp:408] res4b35_branch2a -> res4b35_branch2a
I1201 03:07:16.754317 18454 net.cpp:150] Setting up res4b35_branch2a
I1201 03:07:16.754323 18454 net.cpp:157] Top shape: 1 256 14 14 (50176)
I1201 03:07:16.754324 18454 net.cpp:165] Memory required for data: 488112140
I1201 03:07:16.754328 18454 layer_factory.hpp:77] Creating layer bn4b35_branch2a
I1201 03:07:16.754333 18454 net.cpp:100] Creating Layer bn4b35_branch2a
I1201 03:07:16.754335 18454 net.cpp:434] bn4b35_branch2a <- res4b35_branch2a
I1201 03:07:16.754338 18454 net.cpp:395] bn4b35_branch2a -> res4b35_branch2a (in-place)
I1201 03:07:16.754523 18454 net.cpp:150] Setting up bn4b35_branch2a
I1201 03:07:16.754528 18454 net.cpp:157] Top shape: 1 256 14 14 (50176)
I1201 03:07:16.754529 18454 net.cpp:165] Memory required for data: 488312844
I1201 03:07:16.754534 18454 layer_factory.hpp:77] Creating layer scale4b35_branch2a
I1201 03:07:16.754536 18454 net.cpp:100] Creating Layer scale4b35_branch2a
I1201 03:07:16.754539 18454 net.cpp:434] scale4b35_branch2a <- res4b35_branch2a
I1201 03:07:16.754540 18454 net.cpp:395] scale4b35_branch2a -> res4b35_branch2a (in-place)
I1201 03:07:16.754573 18454 layer_factory.hpp:77] Creating layer scale4b35_branch2a
I1201 03:07:16.755342 18454 net.cpp:150] Setting up scale4b35_branch2a
I1201 03:07:16.755348 18454 net.cpp:157] Top shape: 1 256 14 14 (50176)
I1201 03:07:16.755350 18454 net.cpp:165] Memory required for data: 488513548
I1201 03:07:16.755353 18454 layer_factory.hpp:77] Creating layer res4b35_branch2a_relu
I1201 03:07:16.755357 18454 net.cpp:100] Creating Layer res4b35_branch2a_relu
I1201 03:07:16.755360 18454 net.cpp:434] res4b35_branch2a_relu <- res4b35_branch2a
I1201 03:07:16.755362 18454 net.cpp:395] res4b35_branch2a_relu -> res4b35_branch2a (in-place)
I1201 03:07:16.755967 18454 net.cpp:150] Setting up res4b35_branch2a_relu
I1201 03:07:16.755975 18454 net.cpp:157] Top shape: 1 256 14 14 (50176)
I1201 03:07:16.755977 18454 net.cpp:165] Memory required for data: 488714252
I1201 03:07:16.755980 18454 layer_factory.hpp:77] Creating layer res4b35_branch2b
I1201 03:07:16.755985 18454 net.cpp:100] Creating Layer res4b35_branch2b
I1201 03:07:16.755998 18454 net.cpp:434] res4b35_branch2b <- res4b35_branch2a
I1201 03:07:16.756003 18454 net.cpp:408] res4b35_branch2b -> res4b35_branch2b
I1201 03:07:16.759719 18454 net.cpp:150] Setting up res4b35_branch2b
I1201 03:07:16.759728 18454 net.cpp:157] Top shape: 1 256 14 14 (50176)
I1201 03:07:16.759730 18454 net.cpp:165] Memory required for data: 488914956
I1201 03:07:16.759734 18454 layer_factory.hpp:77] Creating layer bn4b35_branch2b
I1201 03:07:16.759739 18454 net.cpp:100] Creating Layer bn4b35_branch2b
I1201 03:07:16.759742 18454 net.cpp:434] bn4b35_branch2b <- res4b35_branch2b
I1201 03:07:16.759747 18454 net.cpp:395] bn4b35_branch2b -> res4b35_branch2b (in-place)
I1201 03:07:16.759878 18454 net.cpp:150] Setting up bn4b35_branch2b
I1201 03:07:16.759882 18454 net.cpp:157] Top shape: 1 256 14 14 (50176)
I1201 03:07:16.759884 18454 net.cpp:165] Memory required for data: 489115660
I1201 03:07:16.759888 18454 layer_factory.hpp:77] Creating layer scale4b35_branch2b
I1201 03:07:16.759892 18454 net.cpp:100] Creating Layer scale4b35_branch2b
I1201 03:07:16.759894 18454 net.cpp:434] scale4b35_branch2b <- res4b35_branch2b
I1201 03:07:16.759896 18454 net.cpp:395] scale4b35_branch2b -> res4b35_branch2b (in-place)
I1201 03:07:16.759919 18454 layer_factory.hpp:77] Creating layer scale4b35_branch2b
I1201 03:07:16.759984 18454 net.cpp:150] Setting up scale4b35_branch2b
I1201 03:07:16.759986 18454 net.cpp:157] Top shape: 1 256 14 14 (50176)
I1201 03:07:16.759987 18454 net.cpp:165] Memory required for data: 489316364
I1201 03:07:16.759991 18454 layer_factory.hpp:77] Creating layer res4b35_branch2b_relu
I1201 03:07:16.759994 18454 net.cpp:100] Creating Layer res4b35_branch2b_relu
I1201 03:07:16.759996 18454 net.cpp:434] res4b35_branch2b_relu <- res4b35_branch2b
I1201 03:07:16.759999 18454 net.cpp:395] res4b35_branch2b_relu -> res4b35_branch2b (in-place)
I1201 03:07:16.760587 18454 net.cpp:150] Setting up res4b35_branch2b_relu
I1201 03:07:16.760593 18454 net.cpp:157] Top shape: 1 256 14 14 (50176)
I1201 03:07:16.760596 18454 net.cpp:165] Memory required for data: 489517068
I1201 03:07:16.760596 18454 layer_factory.hpp:77] Creating layer res4b35_branch2c
I1201 03:07:16.760603 18454 net.cpp:100] Creating Layer res4b35_branch2c
I1201 03:07:16.760606 18454 net.cpp:434] res4b35_branch2c <- res4b35_branch2b
I1201 03:07:16.760610 18454 net.cpp:408] res4b35_branch2c -> res4b35_branch2c
I1201 03:07:16.763388 18454 net.cpp:150] Setting up res4b35_branch2c
I1201 03:07:16.763401 18454 net.cpp:157] Top shape: 1 1024 14 14 (200704)
I1201 03:07:16.763402 18454 net.cpp:165] Memory required for data: 490319884
I1201 03:07:16.763407 18454 layer_factory.hpp:77] Creating layer bn4b35_branch2c
I1201 03:07:16.763412 18454 net.cpp:100] Creating Layer bn4b35_branch2c
I1201 03:07:16.763416 18454 net.cpp:434] bn4b35_branch2c <- res4b35_branch2c
I1201 03:07:16.763419 18454 net.cpp:395] bn4b35_branch2c -> res4b35_branch2c (in-place)
I1201 03:07:16.763602 18454 net.cpp:150] Setting up bn4b35_branch2c
I1201 03:07:16.763604 18454 net.cpp:157] Top shape: 1 1024 14 14 (200704)
I1201 03:07:16.763607 18454 net.cpp:165] Memory required for data: 491122700
I1201 03:07:16.763610 18454 layer_factory.hpp:77] Creating layer scale4b35_branch2c
I1201 03:07:16.763614 18454 net.cpp:100] Creating Layer scale4b35_branch2c
I1201 03:07:16.763617 18454 net.cpp:434] scale4b35_branch2c <- res4b35_branch2c
I1201 03:07:16.763619 18454 net.cpp:395] scale4b35_branch2c -> res4b35_branch2c (in-place)
I1201 03:07:16.763660 18454 layer_factory.hpp:77] Creating layer scale4b35_branch2c
I1201 03:07:16.763751 18454 net.cpp:150] Setting up scale4b35_branch2c
I1201 03:07:16.763754 18454 net.cpp:157] Top shape: 1 1024 14 14 (200704)
I1201 03:07:16.763756 18454 net.cpp:165] Memory required for data: 491925516
I1201 03:07:16.763759 18454 layer_factory.hpp:77] Creating layer res4b35
I1201 03:07:16.763762 18454 net.cpp:100] Creating Layer res4b35
I1201 03:07:16.763766 18454 net.cpp:434] res4b35 <- res4b34_res4b34_relu_0_split_1
I1201 03:07:16.763768 18454 net.cpp:434] res4b35 <- res4b35_branch2c
I1201 03:07:16.763780 18454 net.cpp:408] res4b35 -> res4b35
I1201 03:07:16.763795 18454 net.cpp:150] Setting up res4b35
I1201 03:07:16.763798 18454 net.cpp:157] Top shape: 1 1024 14 14 (200704)
I1201 03:07:16.763800 18454 net.cpp:165] Memory required for data: 492728332
I1201 03:07:16.763802 18454 layer_factory.hpp:77] Creating layer res4b35_relu
I1201 03:07:16.763805 18454 net.cpp:100] Creating Layer res4b35_relu
I1201 03:07:16.763808 18454 net.cpp:434] res4b35_relu <- res4b35
I1201 03:07:16.763810 18454 net.cpp:395] res4b35_relu -> res4b35 (in-place)
I1201 03:07:16.763974 18454 net.cpp:150] Setting up res4b35_relu
I1201 03:07:16.763979 18454 net.cpp:157] Top shape: 1 1024 14 14 (200704)
I1201 03:07:16.763980 18454 net.cpp:165] Memory required for data: 493531148
I1201 03:07:16.763983 18454 layer_factory.hpp:77] Creating layer res4b35_res4b35_relu_0_split
I1201 03:07:16.763986 18454 net.cpp:100] Creating Layer res4b35_res4b35_relu_0_split
I1201 03:07:16.763988 18454 net.cpp:434] res4b35_res4b35_relu_0_split <- res4b35
I1201 03:07:16.763993 18454 net.cpp:408] res4b35_res4b35_relu_0_split -> res4b35_res4b35_relu_0_split_0
I1201 03:07:16.763996 18454 net.cpp:408] res4b35_res4b35_relu_0_split -> res4b35_res4b35_relu_0_split_1
I1201 03:07:16.764021 18454 net.cpp:150] Setting up res4b35_res4b35_relu_0_split
I1201 03:07:16.764024 18454 net.cpp:157] Top shape: 1 1024 14 14 (200704)
I1201 03:07:16.764026 18454 net.cpp:157] Top shape: 1 1024 14 14 (200704)
I1201 03:07:16.764027 18454 net.cpp:165] Memory required for data: 495136780
I1201 03:07:16.764029 18454 layer_factory.hpp:77] Creating layer res5a_branch1
I1201 03:07:16.764035 18454 net.cpp:100] Creating Layer res5a_branch1
I1201 03:07:16.764036 18454 net.cpp:434] res5a_branch1 <- res4b35_res4b35_relu_0_split_0
I1201 03:07:16.764041 18454 net.cpp:408] res5a_branch1 -> res5a_branch1
I1201 03:07:16.774451 18454 net.cpp:150] Setting up res5a_branch1
I1201 03:07:16.774469 18454 net.cpp:157] Top shape: 1 2048 7 7 (100352)
I1201 03:07:16.774471 18454 net.cpp:165] Memory required for data: 495538188
I1201 03:07:16.774477 18454 layer_factory.hpp:77] Creating layer bn5a_branch1
I1201 03:07:16.774483 18454 net.cpp:100] Creating Layer bn5a_branch1
I1201 03:07:16.774487 18454 net.cpp:434] bn5a_branch1 <- res5a_branch1
I1201 03:07:16.774492 18454 net.cpp:395] bn5a_branch1 -> res5a_branch1 (in-place)
I1201 03:07:16.774693 18454 net.cpp:150] Setting up bn5a_branch1
I1201 03:07:16.774696 18454 net.cpp:157] Top shape: 1 2048 7 7 (100352)
I1201 03:07:16.774698 18454 net.cpp:165] Memory required for data: 495939596
I1201 03:07:16.774703 18454 layer_factory.hpp:77] Creating layer scale5a_branch1
I1201 03:07:16.774706 18454 net.cpp:100] Creating Layer scale5a_branch1
I1201 03:07:16.774708 18454 net.cpp:434] scale5a_branch1 <- res5a_branch1
I1201 03:07:16.774710 18454 net.cpp:395] scale5a_branch1 -> res5a_branch1 (in-place)
I1201 03:07:16.774755 18454 layer_factory.hpp:77] Creating layer scale5a_branch1
I1201 03:07:16.774845 18454 net.cpp:150] Setting up scale5a_branch1
I1201 03:07:16.774848 18454 net.cpp:157] Top shape: 1 2048 7 7 (100352)
I1201 03:07:16.774850 18454 net.cpp:165] Memory required for data: 496341004
I1201 03:07:16.774853 18454 layer_factory.hpp:77] Creating layer res5a_branch2a
I1201 03:07:16.774859 18454 net.cpp:100] Creating Layer res5a_branch2a
I1201 03:07:16.774863 18454 net.cpp:434] res5a_branch2a <- res4b35_res4b35_relu_0_split_1
I1201 03:07:16.774866 18454 net.cpp:408] res5a_branch2a -> res5a_branch2a
I1201 03:07:16.778466 18454 net.cpp:150] Setting up res5a_branch2a
I1201 03:07:16.778476 18454 net.cpp:157] Top shape: 1 512 7 7 (25088)
I1201 03:07:16.778478 18454 net.cpp:165] Memory required for data: 496441356
I1201 03:07:16.778482 18454 layer_factory.hpp:77] Creating layer bn5a_branch2a
I1201 03:07:16.778487 18454 net.cpp:100] Creating Layer bn5a_branch2a
I1201 03:07:16.778491 18454 net.cpp:434] bn5a_branch2a <- res5a_branch2a
I1201 03:07:16.778494 18454 net.cpp:395] bn5a_branch2a -> res5a_branch2a (in-place)
I1201 03:07:16.778678 18454 net.cpp:150] Setting up bn5a_branch2a
I1201 03:07:16.778682 18454 net.cpp:157] Top shape: 1 512 7 7 (25088)
I1201 03:07:16.778684 18454 net.cpp:165] Memory required for data: 496541708
I1201 03:07:16.778688 18454 layer_factory.hpp:77] Creating layer scale5a_branch2a
I1201 03:07:16.778692 18454 net.cpp:100] Creating Layer scale5a_branch2a
I1201 03:07:16.778694 18454 net.cpp:434] scale5a_branch2a <- res5a_branch2a
I1201 03:07:16.778697 18454 net.cpp:395] scale5a_branch2a -> res5a_branch2a (in-place)
I1201 03:07:16.778738 18454 layer_factory.hpp:77] Creating layer scale5a_branch2a
I1201 03:07:16.778827 18454 net.cpp:150] Setting up scale5a_branch2a
I1201 03:07:16.778831 18454 net.cpp:157] Top shape: 1 512 7 7 (25088)
I1201 03:07:16.778833 18454 net.cpp:165] Memory required for data: 496642060
I1201 03:07:16.778836 18454 layer_factory.hpp:77] Creating layer res5a_branch2a_relu
I1201 03:07:16.778839 18454 net.cpp:100] Creating Layer res5a_branch2a_relu
I1201 03:07:16.778841 18454 net.cpp:434] res5a_branch2a_relu <- res5a_branch2a
I1201 03:07:16.778844 18454 net.cpp:395] res5a_branch2a_relu -> res5a_branch2a (in-place)
I1201 03:07:16.778998 18454 net.cpp:150] Setting up res5a_branch2a_relu
I1201 03:07:16.779002 18454 net.cpp:157] Top shape: 1 512 7 7 (25088)
I1201 03:07:16.779005 18454 net.cpp:165] Memory required for data: 496742412
I1201 03:07:16.779006 18454 layer_factory.hpp:77] Creating layer res5a_branch2b
I1201 03:07:16.779011 18454 net.cpp:100] Creating Layer res5a_branch2b
I1201 03:07:16.779013 18454 net.cpp:434] res5a_branch2b <- res5a_branch2a
I1201 03:07:16.779017 18454 net.cpp:408] res5a_branch2b -> res5a_branch2b
I1201 03:07:16.790942 18454 net.cpp:150] Setting up res5a_branch2b
I1201 03:07:16.790959 18454 net.cpp:157] Top shape: 1 512 7 7 (25088)
I1201 03:07:16.790962 18454 net.cpp:165] Memory required for data: 496842764
I1201 03:07:16.790968 18454 layer_factory.hpp:77] Creating layer bn5a_branch2b
I1201 03:07:16.790976 18454 net.cpp:100] Creating Layer bn5a_branch2b
I1201 03:07:16.790978 18454 net.cpp:434] bn5a_branch2b <- res5a_branch2b
I1201 03:07:16.790982 18454 net.cpp:395] bn5a_branch2b -> res5a_branch2b (in-place)
I1201 03:07:16.791180 18454 net.cpp:150] Setting up bn5a_branch2b
I1201 03:07:16.791184 18454 net.cpp:157] Top shape: 1 512 7 7 (25088)
I1201 03:07:16.791185 18454 net.cpp:165] Memory required for data: 496943116
I1201 03:07:16.791189 18454 layer_factory.hpp:77] Creating layer scale5a_branch2b
I1201 03:07:16.791193 18454 net.cpp:100] Creating Layer scale5a_branch2b
I1201 03:07:16.791196 18454 net.cpp:434] scale5a_branch2b <- res5a_branch2b
I1201 03:07:16.791198 18454 net.cpp:395] scale5a_branch2b -> res5a_branch2b (in-place)
I1201 03:07:16.791240 18454 layer_factory.hpp:77] Creating layer scale5a_branch2b
I1201 03:07:16.791329 18454 net.cpp:150] Setting up scale5a_branch2b
I1201 03:07:16.791333 18454 net.cpp:157] Top shape: 1 512 7 7 (25088)
I1201 03:07:16.791334 18454 net.cpp:165] Memory required for data: 497043468
I1201 03:07:16.791337 18454 layer_factory.hpp:77] Creating layer res5a_branch2b_relu
I1201 03:07:16.791342 18454 net.cpp:100] Creating Layer res5a_branch2b_relu
I1201 03:07:16.791344 18454 net.cpp:434] res5a_branch2b_relu <- res5a_branch2b
I1201 03:07:16.791347 18454 net.cpp:395] res5a_branch2b_relu -> res5a_branch2b (in-place)
I1201 03:07:16.791509 18454 net.cpp:150] Setting up res5a_branch2b_relu
I1201 03:07:16.791513 18454 net.cpp:157] Top shape: 1 512 7 7 (25088)
I1201 03:07:16.791515 18454 net.cpp:165] Memory required for data: 497143820
I1201 03:07:16.791517 18454 layer_factory.hpp:77] Creating layer res5a_branch2c
I1201 03:07:16.791523 18454 net.cpp:100] Creating Layer res5a_branch2c
I1201 03:07:16.791525 18454 net.cpp:434] res5a_branch2c <- res5a_branch2b
I1201 03:07:16.791530 18454 net.cpp:408] res5a_branch2c -> res5a_branch2c
I1201 03:07:16.797497 18454 net.cpp:150] Setting up res5a_branch2c
I1201 03:07:16.797513 18454 net.cpp:157] Top shape: 1 2048 7 7 (100352)
I1201 03:07:16.797515 18454 net.cpp:165] Memory required for data: 497545228
I1201 03:07:16.797521 18454 layer_factory.hpp:77] Creating layer bn5a_branch2c
I1201 03:07:16.797539 18454 net.cpp:100] Creating Layer bn5a_branch2c
I1201 03:07:16.797544 18454 net.cpp:434] bn5a_branch2c <- res5a_branch2c
I1201 03:07:16.797549 18454 net.cpp:395] bn5a_branch2c -> res5a_branch2c (in-place)
I1201 03:07:16.797736 18454 net.cpp:150] Setting up bn5a_branch2c
I1201 03:07:16.797740 18454 net.cpp:157] Top shape: 1 2048 7 7 (100352)
I1201 03:07:16.797742 18454 net.cpp:165] Memory required for data: 497946636
I1201 03:07:16.797746 18454 layer_factory.hpp:77] Creating layer scale5a_branch2c
I1201 03:07:16.797751 18454 net.cpp:100] Creating Layer scale5a_branch2c
I1201 03:07:16.797754 18454 net.cpp:434] scale5a_branch2c <- res5a_branch2c
I1201 03:07:16.797755 18454 net.cpp:395] scale5a_branch2c -> res5a_branch2c (in-place)
I1201 03:07:16.797801 18454 layer_factory.hpp:77] Creating layer scale5a_branch2c
I1201 03:07:16.797897 18454 net.cpp:150] Setting up scale5a_branch2c
I1201 03:07:16.797901 18454 net.cpp:157] Top shape: 1 2048 7 7 (100352)
I1201 03:07:16.797904 18454 net.cpp:165] Memory required for data: 498348044
I1201 03:07:16.797906 18454 layer_factory.hpp:77] Creating layer res5a
I1201 03:07:16.797909 18454 net.cpp:100] Creating Layer res5a
I1201 03:07:16.797911 18454 net.cpp:434] res5a <- res5a_branch1
I1201 03:07:16.797914 18454 net.cpp:434] res5a <- res5a_branch2c
I1201 03:07:16.797917 18454 net.cpp:408] res5a -> res5a
I1201 03:07:16.797932 18454 net.cpp:150] Setting up res5a
I1201 03:07:16.797935 18454 net.cpp:157] Top shape: 1 2048 7 7 (100352)
I1201 03:07:16.797937 18454 net.cpp:165] Memory required for data: 498749452
I1201 03:07:16.797938 18454 layer_factory.hpp:77] Creating layer res5a_relu
I1201 03:07:16.797942 18454 net.cpp:100] Creating Layer res5a_relu
I1201 03:07:16.797945 18454 net.cpp:434] res5a_relu <- res5a
I1201 03:07:16.797946 18454 net.cpp:395] res5a_relu -> res5a (in-place)
I1201 03:07:16.798100 18454 net.cpp:150] Setting up res5a_relu
I1201 03:07:16.798105 18454 net.cpp:157] Top shape: 1 2048 7 7 (100352)
I1201 03:07:16.798107 18454 net.cpp:165] Memory required for data: 499150860
I1201 03:07:16.798108 18454 layer_factory.hpp:77] Creating layer res5a_res5a_relu_0_split
I1201 03:07:16.798111 18454 net.cpp:100] Creating Layer res5a_res5a_relu_0_split
I1201 03:07:16.798113 18454 net.cpp:434] res5a_res5a_relu_0_split <- res5a
I1201 03:07:16.798117 18454 net.cpp:408] res5a_res5a_relu_0_split -> res5a_res5a_relu_0_split_0
I1201 03:07:16.798121 18454 net.cpp:408] res5a_res5a_relu_0_split -> res5a_res5a_relu_0_split_1
I1201 03:07:16.798146 18454 net.cpp:150] Setting up res5a_res5a_relu_0_split
I1201 03:07:16.798151 18454 net.cpp:157] Top shape: 1 2048 7 7 (100352)
I1201 03:07:16.798152 18454 net.cpp:157] Top shape: 1 2048 7 7 (100352)
I1201 03:07:16.798153 18454 net.cpp:165] Memory required for data: 499953676
I1201 03:07:16.798156 18454 layer_factory.hpp:77] Creating layer res5b_branch2a
I1201 03:07:16.798161 18454 net.cpp:100] Creating Layer res5b_branch2a
I1201 03:07:16.798163 18454 net.cpp:434] res5b_branch2a <- res5a_res5a_relu_0_split_0
I1201 03:07:16.798167 18454 net.cpp:408] res5b_branch2a -> res5b_branch2a
I1201 03:07:16.804188 18454 net.cpp:150] Setting up res5b_branch2a
I1201 03:07:16.804206 18454 net.cpp:157] Top shape: 1 512 7 7 (25088)
I1201 03:07:16.804208 18454 net.cpp:165] Memory required for data: 500054028
I1201 03:07:16.804214 18454 layer_factory.hpp:77] Creating layer bn5b_branch2a
I1201 03:07:16.804220 18454 net.cpp:100] Creating Layer bn5b_branch2a
I1201 03:07:16.804224 18454 net.cpp:434] bn5b_branch2a <- res5b_branch2a
I1201 03:07:16.804229 18454 net.cpp:395] bn5b_branch2a -> res5b_branch2a (in-place)
I1201 03:07:16.804419 18454 net.cpp:150] Setting up bn5b_branch2a
I1201 03:07:16.804424 18454 net.cpp:157] Top shape: 1 512 7 7 (25088)
I1201 03:07:16.804426 18454 net.cpp:165] Memory required for data: 500154380
I1201 03:07:16.804430 18454 layer_factory.hpp:77] Creating layer scale5b_branch2a
I1201 03:07:16.804435 18454 net.cpp:100] Creating Layer scale5b_branch2a
I1201 03:07:16.804436 18454 net.cpp:434] scale5b_branch2a <- res5b_branch2a
I1201 03:07:16.804447 18454 net.cpp:395] scale5b_branch2a -> res5b_branch2a (in-place)
I1201 03:07:16.804491 18454 layer_factory.hpp:77] Creating layer scale5b_branch2a
I1201 03:07:16.804586 18454 net.cpp:150] Setting up scale5b_branch2a
I1201 03:07:16.804591 18454 net.cpp:157] Top shape: 1 512 7 7 (25088)
I1201 03:07:16.804594 18454 net.cpp:165] Memory required for data: 500254732
I1201 03:07:16.804596 18454 layer_factory.hpp:77] Creating layer res5b_branch2a_relu
I1201 03:07:16.804600 18454 net.cpp:100] Creating Layer res5b_branch2a_relu
I1201 03:07:16.804601 18454 net.cpp:434] res5b_branch2a_relu <- res5b_branch2a
I1201 03:07:16.804605 18454 net.cpp:395] res5b_branch2a_relu -> res5b_branch2a (in-place)
I1201 03:07:16.804762 18454 net.cpp:150] Setting up res5b_branch2a_relu
I1201 03:07:16.804767 18454 net.cpp:157] Top shape: 1 512 7 7 (25088)
I1201 03:07:16.804769 18454 net.cpp:165] Memory required for data: 500355084
I1201 03:07:16.804771 18454 layer_factory.hpp:77] Creating layer res5b_branch2b
I1201 03:07:16.804776 18454 net.cpp:100] Creating Layer res5b_branch2b
I1201 03:07:16.804778 18454 net.cpp:434] res5b_branch2b <- res5b_branch2a
I1201 03:07:16.804782 18454 net.cpp:408] res5b_branch2b -> res5b_branch2b
I1201 03:07:16.816730 18454 net.cpp:150] Setting up res5b_branch2b
I1201 03:07:16.816747 18454 net.cpp:157] Top shape: 1 512 7 7 (25088)
I1201 03:07:16.816750 18454 net.cpp:165] Memory required for data: 500455436
I1201 03:07:16.816756 18454 layer_factory.hpp:77] Creating layer bn5b_branch2b
I1201 03:07:16.816762 18454 net.cpp:100] Creating Layer bn5b_branch2b
I1201 03:07:16.816766 18454 net.cpp:434] bn5b_branch2b <- res5b_branch2b
I1201 03:07:16.816771 18454 net.cpp:395] bn5b_branch2b -> res5b_branch2b (in-place)
I1201 03:07:16.816982 18454 net.cpp:150] Setting up bn5b_branch2b
I1201 03:07:16.816987 18454 net.cpp:157] Top shape: 1 512 7 7 (25088)
I1201 03:07:16.816988 18454 net.cpp:165] Memory required for data: 500555788
I1201 03:07:16.816992 18454 layer_factory.hpp:77] Creating layer scale5b_branch2b
I1201 03:07:16.816997 18454 net.cpp:100] Creating Layer scale5b_branch2b
I1201 03:07:16.816999 18454 net.cpp:434] scale5b_branch2b <- res5b_branch2b
I1201 03:07:16.817001 18454 net.cpp:395] scale5b_branch2b -> res5b_branch2b (in-place)
I1201 03:07:16.817044 18454 layer_factory.hpp:77] Creating layer scale5b_branch2b
I1201 03:07:16.817138 18454 net.cpp:150] Setting up scale5b_branch2b
I1201 03:07:16.817143 18454 net.cpp:157] Top shape: 1 512 7 7 (25088)
I1201 03:07:16.817145 18454 net.cpp:165] Memory required for data: 500656140
I1201 03:07:16.817148 18454 layer_factory.hpp:77] Creating layer res5b_branch2b_relu
I1201 03:07:16.817152 18454 net.cpp:100] Creating Layer res5b_branch2b_relu
I1201 03:07:16.817154 18454 net.cpp:434] res5b_branch2b_relu <- res5b_branch2b
I1201 03:07:16.817157 18454 net.cpp:395] res5b_branch2b_relu -> res5b_branch2b (in-place)
I1201 03:07:16.817734 18454 net.cpp:150] Setting up res5b_branch2b_relu
I1201 03:07:16.817741 18454 net.cpp:157] Top shape: 1 512 7 7 (25088)
I1201 03:07:16.817744 18454 net.cpp:165] Memory required for data: 500756492
I1201 03:07:16.817745 18454 layer_factory.hpp:77] Creating layer res5b_branch2c
I1201 03:07:16.817752 18454 net.cpp:100] Creating Layer res5b_branch2c
I1201 03:07:16.817754 18454 net.cpp:434] res5b_branch2c <- res5b_branch2b
I1201 03:07:16.817759 18454 net.cpp:408] res5b_branch2c -> res5b_branch2c
I1201 03:07:16.823194 18454 net.cpp:150] Setting up res5b_branch2c
I1201 03:07:16.823215 18454 net.cpp:157] Top shape: 1 2048 7 7 (100352)
I1201 03:07:16.823216 18454 net.cpp:165] Memory required for data: 501157900
I1201 03:07:16.823222 18454 layer_factory.hpp:77] Creating layer bn5b_branch2c
I1201 03:07:16.823228 18454 net.cpp:100] Creating Layer bn5b_branch2c
I1201 03:07:16.823232 18454 net.cpp:434] bn5b_branch2c <- res5b_branch2c
I1201 03:07:16.823237 18454 net.cpp:395] bn5b_branch2c -> res5b_branch2c (in-place)
I1201 03:07:16.823439 18454 net.cpp:150] Setting up bn5b_branch2c
I1201 03:07:16.823444 18454 net.cpp:157] Top shape: 1 2048 7 7 (100352)
I1201 03:07:16.823454 18454 net.cpp:165] Memory required for data: 501559308
I1201 03:07:16.823458 18454 layer_factory.hpp:77] Creating layer scale5b_branch2c
I1201 03:07:16.823464 18454 net.cpp:100] Creating Layer scale5b_branch2c
I1201 03:07:16.823467 18454 net.cpp:434] scale5b_branch2c <- res5b_branch2c
I1201 03:07:16.823469 18454 net.cpp:395] scale5b_branch2c -> res5b_branch2c (in-place)
I1201 03:07:16.823514 18454 layer_factory.hpp:77] Creating layer scale5b_branch2c
I1201 03:07:16.823613 18454 net.cpp:150] Setting up scale5b_branch2c
I1201 03:07:16.823618 18454 net.cpp:157] Top shape: 1 2048 7 7 (100352)
I1201 03:07:16.823621 18454 net.cpp:165] Memory required for data: 501960716
I1201 03:07:16.823623 18454 layer_factory.hpp:77] Creating layer res5b
I1201 03:07:16.823627 18454 net.cpp:100] Creating Layer res5b
I1201 03:07:16.823631 18454 net.cpp:434] res5b <- res5a_res5a_relu_0_split_1
I1201 03:07:16.823633 18454 net.cpp:434] res5b <- res5b_branch2c
I1201 03:07:16.823637 18454 net.cpp:408] res5b -> res5b
I1201 03:07:16.823653 18454 net.cpp:150] Setting up res5b
I1201 03:07:16.823657 18454 net.cpp:157] Top shape: 1 2048 7 7 (100352)
I1201 03:07:16.823659 18454 net.cpp:165] Memory required for data: 502362124
I1201 03:07:16.823662 18454 layer_factory.hpp:77] Creating layer res5b_relu
I1201 03:07:16.823665 18454 net.cpp:100] Creating Layer res5b_relu
I1201 03:07:16.823668 18454 net.cpp:434] res5b_relu <- res5b
I1201 03:07:16.823669 18454 net.cpp:395] res5b_relu -> res5b (in-place)
I1201 03:07:16.824364 18454 net.cpp:150] Setting up res5b_relu
I1201 03:07:16.824373 18454 net.cpp:157] Top shape: 1 2048 7 7 (100352)
I1201 03:07:16.824374 18454 net.cpp:165] Memory required for data: 502763532
I1201 03:07:16.824376 18454 layer_factory.hpp:77] Creating layer res5b_res5b_relu_0_split
I1201 03:07:16.824381 18454 net.cpp:100] Creating Layer res5b_res5b_relu_0_split
I1201 03:07:16.824384 18454 net.cpp:434] res5b_res5b_relu_0_split <- res5b
I1201 03:07:16.824388 18454 net.cpp:408] res5b_res5b_relu_0_split -> res5b_res5b_relu_0_split_0
I1201 03:07:16.824393 18454 net.cpp:408] res5b_res5b_relu_0_split -> res5b_res5b_relu_0_split_1
I1201 03:07:16.824419 18454 net.cpp:150] Setting up res5b_res5b_relu_0_split
I1201 03:07:16.824424 18454 net.cpp:157] Top shape: 1 2048 7 7 (100352)
I1201 03:07:16.824427 18454 net.cpp:157] Top shape: 1 2048 7 7 (100352)
I1201 03:07:16.824429 18454 net.cpp:165] Memory required for data: 503566348
I1201 03:07:16.824430 18454 layer_factory.hpp:77] Creating layer res5c_branch2a
I1201 03:07:16.824436 18454 net.cpp:100] Creating Layer res5c_branch2a
I1201 03:07:16.824439 18454 net.cpp:434] res5c_branch2a <- res5b_res5b_relu_0_split_0
I1201 03:07:16.824443 18454 net.cpp:408] res5c_branch2a -> res5c_branch2a
I1201 03:07:16.830302 18454 net.cpp:150] Setting up res5c_branch2a
I1201 03:07:16.830322 18454 net.cpp:157] Top shape: 1 512 7 7 (25088)
I1201 03:07:16.830324 18454 net.cpp:165] Memory required for data: 503666700
I1201 03:07:16.830332 18454 layer_factory.hpp:77] Creating layer bn5c_branch2a
I1201 03:07:16.830341 18454 net.cpp:100] Creating Layer bn5c_branch2a
I1201 03:07:16.830345 18454 net.cpp:434] bn5c_branch2a <- res5c_branch2a
I1201 03:07:16.830349 18454 net.cpp:395] bn5c_branch2a -> res5c_branch2a (in-place)
I1201 03:07:16.830543 18454 net.cpp:150] Setting up bn5c_branch2a
I1201 03:07:16.830548 18454 net.cpp:157] Top shape: 1 512 7 7 (25088)
I1201 03:07:16.830550 18454 net.cpp:165] Memory required for data: 503767052
I1201 03:07:16.830554 18454 layer_factory.hpp:77] Creating layer scale5c_branch2a
I1201 03:07:16.830559 18454 net.cpp:100] Creating Layer scale5c_branch2a
I1201 03:07:16.830561 18454 net.cpp:434] scale5c_branch2a <- res5c_branch2a
I1201 03:07:16.830564 18454 net.cpp:395] scale5c_branch2a -> res5c_branch2a (in-place)
I1201 03:07:16.830608 18454 layer_factory.hpp:77] Creating layer scale5c_branch2a
I1201 03:07:16.830704 18454 net.cpp:150] Setting up scale5c_branch2a
I1201 03:07:16.830708 18454 net.cpp:157] Top shape: 1 512 7 7 (25088)
I1201 03:07:16.830719 18454 net.cpp:165] Memory required for data: 503867404
I1201 03:07:16.830723 18454 layer_factory.hpp:77] Creating layer res5c_branch2a_relu
I1201 03:07:16.830726 18454 net.cpp:100] Creating Layer res5c_branch2a_relu
I1201 03:07:16.830729 18454 net.cpp:434] res5c_branch2a_relu <- res5c_branch2a
I1201 03:07:16.830731 18454 net.cpp:395] res5c_branch2a_relu -> res5c_branch2a (in-place)
I1201 03:07:16.830890 18454 net.cpp:150] Setting up res5c_branch2a_relu
I1201 03:07:16.830896 18454 net.cpp:157] Top shape: 1 512 7 7 (25088)
I1201 03:07:16.830899 18454 net.cpp:165] Memory required for data: 503967756
I1201 03:07:16.830900 18454 layer_factory.hpp:77] Creating layer res5c_branch2b
I1201 03:07:16.830906 18454 net.cpp:100] Creating Layer res5c_branch2b
I1201 03:07:16.830909 18454 net.cpp:434] res5c_branch2b <- res5c_branch2a
I1201 03:07:16.830911 18454 net.cpp:408] res5c_branch2b -> res5c_branch2b
I1201 03:07:16.842880 18454 net.cpp:150] Setting up res5c_branch2b
I1201 03:07:16.842898 18454 net.cpp:157] Top shape: 1 512 7 7 (25088)
I1201 03:07:16.842900 18454 net.cpp:165] Memory required for data: 504068108
I1201 03:07:16.842906 18454 layer_factory.hpp:77] Creating layer bn5c_branch2b
I1201 03:07:16.842913 18454 net.cpp:100] Creating Layer bn5c_branch2b
I1201 03:07:16.842917 18454 net.cpp:434] bn5c_branch2b <- res5c_branch2b
I1201 03:07:16.842922 18454 net.cpp:395] bn5c_branch2b -> res5c_branch2b (in-place)
I1201 03:07:16.843132 18454 net.cpp:150] Setting up bn5c_branch2b
I1201 03:07:16.843137 18454 net.cpp:157] Top shape: 1 512 7 7 (25088)
I1201 03:07:16.843138 18454 net.cpp:165] Memory required for data: 504168460
I1201 03:07:16.843142 18454 layer_factory.hpp:77] Creating layer scale5c_branch2b
I1201 03:07:16.843147 18454 net.cpp:100] Creating Layer scale5c_branch2b
I1201 03:07:16.843148 18454 net.cpp:434] scale5c_branch2b <- res5c_branch2b
I1201 03:07:16.843152 18454 net.cpp:395] scale5c_branch2b -> res5c_branch2b (in-place)
I1201 03:07:16.843194 18454 layer_factory.hpp:77] Creating layer scale5c_branch2b
I1201 03:07:16.843289 18454 net.cpp:150] Setting up scale5c_branch2b
I1201 03:07:16.843294 18454 net.cpp:157] Top shape: 1 512 7 7 (25088)
I1201 03:07:16.843297 18454 net.cpp:165] Memory required for data: 504268812
I1201 03:07:16.843299 18454 layer_factory.hpp:77] Creating layer res5c_branch2b_relu
I1201 03:07:16.843303 18454 net.cpp:100] Creating Layer res5c_branch2b_relu
I1201 03:07:16.843305 18454 net.cpp:434] res5c_branch2b_relu <- res5c_branch2b
I1201 03:07:16.843307 18454 net.cpp:395] res5c_branch2b_relu -> res5c_branch2b (in-place)
I1201 03:07:16.843471 18454 net.cpp:150] Setting up res5c_branch2b_relu
I1201 03:07:16.843475 18454 net.cpp:157] Top shape: 1 512 7 7 (25088)
I1201 03:07:16.843478 18454 net.cpp:165] Memory required for data: 504369164
I1201 03:07:16.843479 18454 layer_factory.hpp:77] Creating layer res5c_branch2c
I1201 03:07:16.843487 18454 net.cpp:100] Creating Layer res5c_branch2c
I1201 03:07:16.843488 18454 net.cpp:434] res5c_branch2c <- res5c_branch2b
I1201 03:07:16.843492 18454 net.cpp:408] res5c_branch2c -> res5c_branch2c
I1201 03:07:16.849335 18454 net.cpp:150] Setting up res5c_branch2c
I1201 03:07:16.849352 18454 net.cpp:157] Top shape: 1 2048 7 7 (100352)
I1201 03:07:16.849354 18454 net.cpp:165] Memory required for data: 504770572
I1201 03:07:16.849360 18454 layer_factory.hpp:77] Creating layer bn5c_branch2c
I1201 03:07:16.849369 18454 net.cpp:100] Creating Layer bn5c_branch2c
I1201 03:07:16.849371 18454 net.cpp:434] bn5c_branch2c <- res5c_branch2c
I1201 03:07:16.849375 18454 net.cpp:395] bn5c_branch2c -> res5c_branch2c (in-place)
I1201 03:07:16.849589 18454 net.cpp:150] Setting up bn5c_branch2c
I1201 03:07:16.849594 18454 net.cpp:157] Top shape: 1 2048 7 7 (100352)
I1201 03:07:16.849596 18454 net.cpp:165] Memory required for data: 505171980
I1201 03:07:16.849601 18454 layer_factory.hpp:77] Creating layer scale5c_branch2c
I1201 03:07:16.849604 18454 net.cpp:100] Creating Layer scale5c_branch2c
I1201 03:07:16.849606 18454 net.cpp:434] scale5c_branch2c <- res5c_branch2c
I1201 03:07:16.849608 18454 net.cpp:395] scale5c_branch2c -> res5c_branch2c (in-place)
I1201 03:07:16.849670 18454 layer_factory.hpp:77] Creating layer scale5c_branch2c
I1201 03:07:16.849771 18454 net.cpp:150] Setting up scale5c_branch2c
I1201 03:07:16.849776 18454 net.cpp:157] Top shape: 1 2048 7 7 (100352)
I1201 03:07:16.849777 18454 net.cpp:165] Memory required for data: 505573388
I1201 03:07:16.849781 18454 layer_factory.hpp:77] Creating layer res5c
I1201 03:07:16.849784 18454 net.cpp:100] Creating Layer res5c
I1201 03:07:16.849787 18454 net.cpp:434] res5c <- res5b_res5b_relu_0_split_1
I1201 03:07:16.849789 18454 net.cpp:434] res5c <- res5c_branch2c
I1201 03:07:16.849792 18454 net.cpp:408] res5c -> res5c
I1201 03:07:16.849809 18454 net.cpp:150] Setting up res5c
I1201 03:07:16.849812 18454 net.cpp:157] Top shape: 1 2048 7 7 (100352)
I1201 03:07:16.849814 18454 net.cpp:165] Memory required for data: 505974796
I1201 03:07:16.849817 18454 layer_factory.hpp:77] Creating layer res5c_relu
I1201 03:07:16.849820 18454 net.cpp:100] Creating Layer res5c_relu
I1201 03:07:16.849822 18454 net.cpp:434] res5c_relu <- res5c
I1201 03:07:16.849825 18454 net.cpp:395] res5c_relu -> res5c (in-place)
I1201 03:07:16.849984 18454 net.cpp:150] Setting up res5c_relu
I1201 03:07:16.849989 18454 net.cpp:157] Top shape: 1 2048 7 7 (100352)
I1201 03:07:16.849992 18454 net.cpp:165] Memory required for data: 506376204
I1201 03:07:16.849992 18454 layer_factory.hpp:77] Creating layer pool5
I1201 03:07:16.849997 18454 net.cpp:100] Creating Layer pool5
I1201 03:07:16.849999 18454 net.cpp:434] pool5 <- res5c
I1201 03:07:16.850003 18454 net.cpp:408] pool5 -> pool5
I1201 03:07:16.850673 18454 net.cpp:150] Setting up pool5
I1201 03:07:16.850682 18454 net.cpp:157] Top shape: 1 2048 1 1 (2048)
I1201 03:07:16.850684 18454 net.cpp:165] Memory required for data: 506384396
I1201 03:07:16.850687 18454 layer_factory.hpp:77] Creating layer fc1000-whria
I1201 03:07:16.850689 18454 net.cpp:100] Creating Layer fc1000-whria
I1201 03:07:16.850692 18454 net.cpp:434] fc1000-whria <- pool5
I1201 03:07:16.850697 18454 net.cpp:408] fc1000-whria -> fc1000-whria
I1201 03:07:16.850831 18454 net.cpp:150] Setting up fc1000-whria
I1201 03:07:16.850834 18454 net.cpp:157] Top shape: 1 4 (4)
I1201 03:07:16.850836 18454 net.cpp:165] Memory required for data: 506384412
I1201 03:07:16.850839 18454 layer_factory.hpp:77] Creating layer fc1000-whria_fc1000-whria_0_split
I1201 03:07:16.850844 18454 net.cpp:100] Creating Layer fc1000-whria_fc1000-whria_0_split
I1201 03:07:16.850847 18454 net.cpp:434] fc1000-whria_fc1000-whria_0_split <- fc1000-whria
I1201 03:07:16.850848 18454 net.cpp:408] fc1000-whria_fc1000-whria_0_split -> fc1000-whria_fc1000-whria_0_split_0
I1201 03:07:16.850852 18454 net.cpp:408] fc1000-whria_fc1000-whria_0_split -> fc1000-whria_fc1000-whria_0_split_1
I1201 03:07:16.850877 18454 net.cpp:150] Setting up fc1000-whria_fc1000-whria_0_split
I1201 03:07:16.850879 18454 net.cpp:157] Top shape: 1 4 (4)
I1201 03:07:16.850881 18454 net.cpp:157] Top shape: 1 4 (4)
I1201 03:07:16.850883 18454 net.cpp:165] Memory required for data: 506384444
I1201 03:07:16.850884 18454 layer_factory.hpp:77] Creating layer loss
I1201 03:07:16.850888 18454 net.cpp:100] Creating Layer loss
I1201 03:07:16.850890 18454 net.cpp:434] loss <- fc1000-whria_fc1000-whria_0_split_0
I1201 03:07:16.850893 18454 net.cpp:434] loss <- label_resnet_152_1_split_0
I1201 03:07:16.850895 18454 net.cpp:408] loss -> loss
…
