…
I1130 23:44:49.206367 11291 net.cpp:322] The NetState phase (0) differed from the phase (1) specified by a rule in layer accuracy
I1130 23:44:49.207931 11291 net.cpp:58] Initializing net from parameters: 
name: "ResNet-152"
state {
  phase: TRAIN
  level: 0
  stage: ""
}
layer {
  name: "resnet_152"
  type: "Data"
  top: "data"
  top: "label"
  include {
    phase: TRAIN
  }
  transform_param {
    mirror: true
    crop_size: 224
    mean_file: "/home/ai/large/input224-1/100-web/croporg/mean224x224.binaryproto"
  }
  data_param {
    source: "/home/ai/large/input224-1/100-web/croporg/train224x224_lmdb"
    batch_size: 6
    backend: LMDB
  }
}
layer {
  name: "conv1"
  type: "Convolution"
  bottom: "data"
  top: "conv1"
  convolution_param {
    num_output: 64
    bias_term: false
    pad: 3
    kernel_size: 7
    stride: 2
    weight_filler {
      type: "xavier"
    }
    bias_filler {
      type: "constant"
      value: 0.2
    }
  }
}
layer {
  name: "bn_conv1"
  type: "BatchNorm"
  bottom: "conv1"
  top: "conv1"
  batch_norm_param {
    use_global_stats: true
  }
}
layer {
  name: "scale_conv1"
  type: "Scale"
  bottom: "conv1"
  top: "conv1"
  scale_param {
    bias_term: true
  }
}
layer {
  name: "conv1_relu"
  type: "ReLU"
  bottom: "conv1"
  top: "conv1"
}
layer {
  name: "pool1"
  type: "Pooling"
  bottom: "conv1"
  top: "pool1"
  pooling_param {
    pool: MAX
    kernel_size: 3
    stride: 2
  }
}
layer {
  name: "res2a_branch1"
  type: "Convolution"
  bottom: "pool1"
  top: "res2a_branch1"
  convolution_param {
    num_output: 256
    bias_term: false
    pad: 0
    kernel_size: 1
    stride: 1
    weight_filler {
      type: "xavier"
    }
    bias_filler {
      type: "constant"
      value: 0.2
    }
  }
}
layer {
  name: "bn2a_branch1"
  type: "BatchNorm"
  bottom: "res2a_branch1"
  top: "res2a_branch1"
  batch_norm_param {
    use_global_stats: true
  }
}
layer {
  name: "scale2a_branch1"
  type: "Scale"
  bottom: "res2a_branch1"
  top: "res2a_branch1"
  scale_param {
    bias_term: true
  }
}
layer {
  name: "res2a_branch2a"
  type: "Convolution"
  bottom: "pool1"
  top: "res2a_branch2a"
  convolution_param {
    num_output: 64
    bias_term: false
    pad: 0
    kernel_size: 1
    stride: 1
    weight_filler {
      type: "xavier"
    }
    bias_filler {
      type: "constant"
      value: 0.2
    }
  }
}
layer {
  name: "bn2a_branch2a"
  type: "BatchNorm"
  bottom: "res2a_branch2a"
  top: "res2a_branch2a"
  batch_norm_param {
    use_global_stats: true
  }
}
layer {
  name: "scale2a_branch2a"
  type: "Scale"
  bottom: "res2a_branch2a"
  top: "res2a_branch2a"
  scale_param {
    bias_term: true
  }
}
layer {
  name: "res2a_branch2a_relu"
  type: "ReLU"
  bottom: "res2a_branch2a"
  top: "res2a_branch2a"
}
layer {
  name: "res2a_branch2b"
  type: "Convolution"
  bottom: "res2a_branch2a"
  top: "res2a_branch2b"
  convolution_param {
    num_output: 64
    bias_term: false
    pad: 1
    kernel_size: 3
    stride: 1
    weight_filler {
      type: "xavier"
    }
    bias_filler {
      type: "constant"
      value: 0.2
    }
  }
}
layer {
  name: "bn2a_branch2b"
  type: "BatchNorm"
  bottom: "res2a_branch2b"
  top: "res2a_branch2b"
  batch_norm_param {
    use_global_stats: true
  }
}
layer {
  name: "scale2a_branch2b"
  type: "Scale"
  bottom: "res2a_branch2b"
  top: "res2a_branch2b"
  scale_param {
    bias_term: true
  }
}
layer {
  name: "res2a_branch2b_relu"
  type: "ReLU"
  bottom: "res2a_branch2b"
  top: "res2a_branch2b"
}
layer {
  name: "res2a_branch2c"
  type: "Convolution"
  bottom: "res2a_branch2b"
  top: "res2a_branch2c"
  convolution_param {
    num_output: 256
    bias_term: false
    pad: 0
    kernel_size: 1
    stride: 1
    weight_filler {
      type: "xavier"
    }
    bias_filler {
      type: "constant"
      value: 0.2
    }
  }
}
layer {
  name: "bn2a_branch2c"
  type: "BatchNorm"
  bottom: "res2a_branch2c"
  top: "res2a_branch2c"
  batch_norm_param {
    use_global_stats: true
  }
}
layer {
  name: "scale2a_branch2c"
  type: "Scale"
  bottom: "res2a_branch2c"
  top: "res2a_branch2c"
  scale_param {
    bias_term: true
  }
}
layer {
  name: "res2a"
  type: "Eltwise"
  bottom: "res2a_branch1"
  bottom: "res2a_branch2c"
  top: "res2a"
}
layer {
  name: "res2a_relu"
  type: "ReLU"
  bottom: "res2a"
  top: "res2a"
}
layer {
  name: "res2b_branch2a"
  type: "Convolution"
  bottom: "res2a"
  top: "res2b_branch2a"
  convolution_param {
    num_output: 64
    bias_term: false
    pad: 0
    kernel_size: 1
    stride: 1
    weight_filler {
      type: "xavier"
    }
    bias_filler {
      type: "constant"
      value: 0.2
    }
  }
}
layer {
  name: "bn2b_branch2a"
  type: "BatchNorm"
  bottom: "res2b_branch2a"
  top: "res2b_branch2a"
  batch_norm_param {
    use_global_stats: true
  }
}
layer {
  name: "scale2b_branch2a"
  type: "Scale"
  bottom: "res2b_branch2a"
  top: "res2b_branch2a"
  scale_param {
    bias_term: true
  }
}
layer {
  name: "res2b_branch2a_relu"
  type: "ReLU"
  bottom: "res2b_branch2a"
  top: "res2b_branch2a"
}
layer {
  name: "res2b_branch2b"
  type: "Convolution"
  bottom: "res2b_branch2a"
  top: "res2b_branch2b"
  convolution_param {
    num_output: 64
    bias_term: false
    pad: 1
    kernel_size: 3
    stride: 1
    weight_filler {
      type: "xavier"
    }
    bias_filler {
      type: "constant"
      value: 0.2
    }
  }
}
layer {
  name: "bn2b_branch2b"
  type: "BatchNorm"
  bottom: "res2b_branch2b"
  top: "res2b_branch2b"
  batch_norm_param {
    use_global_stats: true
  }
}
layer {
  name: "scale2b_branch2b"
  type: "Scale"
  bottom: "res2b_branch2b"
  top: "res2b_branch2b"
  scale_param {
    bias_term: true
  }
}
layer {
  name: "res2b_branch2b_relu"
  type: "ReLU"
  bottom: "res2b_branch2b"
  top: "res2b_branch2b"
}
layer {
  name: "res2b_branch2c"
  type: "Convolution"
  bottom: "res2b_branch2b"
  top: "res2b_branch2c"
  convolution_param {
    num_output: 256
    bias_term: false
    pad: 0
    kernel_size: 1
    stride: 1
    weight_filler {
      type: "xavier"
    }
    bias_filler {
      type: "constant"
      value: 0.2
    }
  }
}
layer {
  name: "bn2b_branch2c"
  type: "BatchNorm"
  bottom: "res2b_branch2c"
  top: "res2b_branch2c"
  batch_norm_param {
    use_global_stats: true
  }
}
layer {
  name: "scale2b_branch2c"
  type: "Scale"
  bottom: "res2b_branch2c"
  top: "res2b_branch2c"
  scale_param {
    bias_term: true
  }
}
layer {
  name: "res2b"
  type: "Eltwise"
  bottom: "res2a"
  bottom: "res2b_branch2c"
  top: "res2b"
}
layer {
  name: "res2b_relu"
  type: "ReLU"
  bottom: "res2b"
  top: "res2b"
}
layer {
  name: "res2c_branch2a"
  type: "Convolution"
  bottom: "res2b"
  top: "res2c_branch2a"
  convolution_param {
    num_output: 64
    bias_term: false
    pad: 0
    kernel_size: 1
    stride: 1
    weight_filler {
      type: "xavier"
    }
    bias_filler {
      type: "constant"
      value: 0.2
    }
  }
}
layer {
  name: "bn2c_branch2a"
  type: "BatchNorm"
  bottom: "res2c_branch2a"
  top: "res2c_branch2a"
  batch_norm_param {
    use_global_stats: true
  }
}
layer {
  name: "scale2c_branch2a"
  type: "Scale"
  bottom: "res2c_branch2a"
  top: "res2c_branch2a"
  scale_param {
    bias_term: true
  }
}
layer {
  name: "res2c_branch2a_relu"
  type: "ReLU"
  bottom: "res2c_branch2a"
  top: "res2c_branch2a"
}
layer {
  name: "res2c_branch2b"
  type: "Convolution"
  bottom: "res2c_branch2a"
  top: "res2c_branch2b"
  convolution_param {
    num_output: 64
    bias_term: false
    pad: 1
    kernel_size: 3
    stride: 1
    weight_filler {
      type: "xavier"
    }
    bias_filler {
      type: "constant"
      value: 0.2
    }
  }
}
layer {
  name: "bn2c_branch2b"
  type: "BatchNorm"
  bottom: "res2c_branch2b"
  top: "res2c_branch2b"
  batch_norm_param {
    use_global_stats: true
  }
}
layer {
  name: "scale2c_branch2b"
  type: "Scale"
  bottom: "res2c_branch2b"
  top: "res2c_branch2b"
  scale_param {
    bias_term: true
  }
}
layer {
  name: "res2c_branch2b_relu"
  type: "ReLU"
  bottom: "res2c_branch2b"
  top: "res2c_branch2b"
}
layer {
  name: "res2c_branch2c"
  type: "Convolution"
  bottom: "res2c_branch2b"
  top: "res2c_branch2c"
  convolution_param {
    num_output: 256
    bias_term: false
    pad: 0
    kernel_size: 1
    stride: 1
    weight_filler {
      type: "xavier"
    }
    bias_filler {
      type: "constant"
      value: 0.2
    }
  }
}
layer {
  name: "bn2c_branch2c"
  type: "BatchNorm"
  bottom: "res2c_branch2c"
  top: "res2c_branch2c"
  batch_norm_param {
    use_global_stats: true
  }
}
layer {
  name: "scale2c_branch2c"
  type: "Scale"
  bottom: "res2c_branch2c"
  top: "res2c_branch2c"
  scale_param {
    bias_term: true
  }
}
layer {
  name: "res2c"
  type: "Eltwise"
  bottom: "res2b"
  bottom: "res2c_branch2c"
  top: "res2c"
}
layer {
  name: "res2c_relu"
  type: "ReLU"
  bottom: "res2c"
  top: "res2c"
}
layer {
  name: "res3a_branch1"
  type: "Convolution"
  bottom: "res2c"
  top: "res3a_branch1"
  convolution_param {
    num_output: 512
    bias_term: false
    pad: 0
    kernel_size: 1
    stride: 2
    weight_filler {
      type: "xavier"
    }
    bias_filler {
      type: "constant"
      value: 0.2
    }
  }
}
layer {
  name: "bn3a_branch1"
  type: "BatchNorm"
  bottom: "res3a_branch1"
  top: "res3a_branch1"
  batch_norm_param {
    use_global_stats: true
  }
}
layer {
  name: "scale3a_branch1"
  type: "Scale"
  bottom: "res3a_branch1"
  top: "res3a_branch1"
  scale_param {
    bias_term: true
  }
}
layer {
  name: "res3a_branch2a"
  type: "Convolution"
  bottom: "res2c"
  top: "res3a_branch2a"
  convolution_param {
    num_output: 128
    bias_term: false
    pad: 0
    kernel_size: 1
    stride: 2
    weight_filler {
      type: "xavier"
    }
    bias_filler {
      type: "constant"
      value: 0.2
    }
  }
}
layer {
  name: "bn3a_branch2a"
  type: "BatchNorm"
  bottom: "res3a_branch2a"
  top: "res3a_branch2a"
  batch_norm_param {
    use_global_stats: true
  }
}
layer {
  name: "scale3a_branch2a"
  type: "Scale"
  bottom: "res3a_branch2a"
  top: "res3a_branch2a"
  scale_param {
    bias_term: true
  }
}
layer {
  name: "res3a_branch2a_relu"
  type: "ReLU"
  bottom: "res3a_branch2a"
  top: "res3a_branch2a"
}
layer {
  name: "res3a_branch2b"
  type: "Convolution"
  bottom: "res3a_branch2a"
  top: "res3a_branch2b"
  convolution_param {
    num_output: 128
    bias_term: false
    pad: 1
    kernel_size: 3
    stride: 1
    weight_filler {
      type: "xavier"
    }
    bias_filler {
      type: "constant"
      value: 0.2
    }
  }
}
layer {
  name: "bn3a_branch2b"
  type: "BatchNorm"
  bottom: "res3a_branch2b"
  top: "res3a_branch2b"
  batch_norm_param {
    use_global_stats: true
  }
}
layer {
  name: "scale3a_branch2b"
  type: "Scale"
  bottom: "res3a_branch2b"
  top: "res3a_branch2b"
  scale_param {
    bias_term: true
  }
}
layer {
  name: "res3a_branch2b_relu"
  type: "ReLU"
  bottom: "res3a_branch2b"
  top: "res3a_branch2b"
}
layer {
  name: "res3a_branch2c"
  type: "Convolution"
  bottom: "res3a_branch2b"
  top: "res3a_branch2c"
  convolution_param {
    num_output: 512
    bias_term: false
    pad: 0
    kernel_size: 1
    stride: 1
    weight_filler {
      type: "xavier"
    }
    bias_filler {
      type: "constant"
      value: 0.2
    }
  }
}
layer {
  name: "bn3a_branch2c"
  type: "BatchNorm"
  bottom: "res3a_branch2c"
  top: "res3a_branch2c"
  batch_norm_param {
    use_global_stats: true
  }
}
layer {
  name: "scale3a_branch2c"
  type: "Scale"
  bottom: "res3a_branch2c"
  top: "res3a_branch2c"
  scale_param {
    bias_term: true
  }
}
layer {
  name: "res3a"
  type: "Eltwise"
  bottom: "res3a_branch1"
  bottom: "res3a_branch2c"
  top: "res3a"
}
layer {
  name: "res3a_relu"
  type: "ReLU"
  bottom: "res3a"
  top: "res3a"
}
layer {
  name: "res3b1_branch2a"
  type: "Convolution"
  bottom: "res3a"
  top: "res3b1_branch2a"
  convolution_param {
    num_output: 128
    bias_term: false
    pad: 0
    kernel_size: 1
    stride: 1
    weight_filler {
      type: "xavier"
    }
    bias_filler {
      type: "constant"
      value: 0.2
    }
  }
}
layer {
  name: "bn3b1_branch2a"
  type: "BatchNorm"
  bottom: "res3b1_branch2a"
  top: "res3b1_branch2a"
  batch_norm_param {
    use_global_stats: true
  }
}
layer {
  name: "scale3b1_branch2a"
  type: "Scale"
  bottom: "res3b1_branch2a"
  top: "res3b1_branch2a"
  scale_param {
    bias_term: true
  }
}
layer {
  name: "res3b1_branch2a_relu"
  type: "ReLU"
  bottom: "res3b1_branch2a"
  top: "res3b1_branch2a"
}
layer {
  name: "res3b1_branch2b"
  type: "Convolution"
  bottom: "res3b1_branch2a"
  top: "res3b1_branch2b"
  convolution_param {
    num_output: 128
    bias_term: false
    pad: 1
    kernel_size: 3
    stride: 1
    weight_filler {
      type: "xavier"
    }
    bias_filler {
      type: "constant"
      value: 0.2
    }
  }
}
layer {
  name: "bn3b1_branch2b"
  type: "BatchNorm"
  bottom: "res3b1_branch2b"
  top: "res3b1_branch2b"
  batch_norm_param {
    use_global_stats: true
  }
}
layer {
  name: "scale3b1_branch2b"
  type: "Scale"
  bottom: "res3b1_branch2b"
  top: "res3b1_branch2b"
  scale_param {
    bias_term: true
  }
}
layer {
  name: "res3b1_branch2b_relu"
  type: "ReLU"
  bottom: "res3b1_branch2b"
  top: "res3b1_branch2b"
}
layer {
  name: "res3b1_branch2c"
  type: "Convolution"
  bottom: "res3b1_branch2b"
  top: "res3b1_branch2c"
  convolution_param {
    num_output: 512
    bias_term: false
    pad: 0
    kernel_size: 1
    stride: 1
    weight_filler {
      type: "xavier"
    }
    bias_filler {
      type: "constant"
      value: 0.2
    }
  }
}
layer {
  name: "bn3b1_branch2c"
  type: "BatchNorm"
  bottom: "res3b1_branch2c"
  top: "res3b1_branch2c"
  batch_norm_param {
    use_global_stats: true
  }
}
layer {
  name: "scale3b1_branch2c"
  type: "Scale"
  bottom: "res3b1_branch2c"
  top: "res3b1_branch2c"
  scale_param {
    bias_term: true
  }
}
layer {
  name: "res3b1"
  type: "Eltwise"
  bottom: "res3a"
  bottom: "res3b1_branch2c"
  top: "res3b1"
}
layer {
  name: "res3b1_relu"
  type: "ReLU"
  bottom: "res3b1"
  top: "res3b1"
}
layer {
  name: "res3b2_branch2a"
  type: "Convolution"
  bottom: "res3b1"
  top: "res3b2_branch2a"
  convolution_param {
    num_output: 128
    bias_term: false
    pad: 0
    kernel_size: 1
    stride: 1
    weight_filler {
      type: "xavier"
    }
    bias_filler {
      type: "constant"
      value: 0.2
    }
  }
}
layer {
  name: "bn3b2_branch2a"
  type: "BatchNorm"
  bottom: "res3b2_branch2a"
  top: "res3b2_branch2a"
  batch_norm_param {
    use_global_stats: true
  }
}
layer {
  name: "scale3b2_branch2a"
  type: "Scale"
  bottom: "res3b2_branch2a"
  top: "res3b2_branch2a"
  scale_param {
    bias_term: true
  }
}
layer {
  name: "res3b2_branch2a_relu"
  type: "ReLU"
  bottom: "res3b2_branch2a"
  top: "res3b2_branch2a"
}
layer {
  name: "res3b2_branch2b"
  type: "Convolution"
  bottom: "res3b2_branch2a"
  top: "res3b2_branch2b"
  convolution_param {
    num_output: 128
    bias_term: false
    pad: 1
    kernel_size: 3
    stride: 1
    weight_filler {
      type: "xavier"
    }
    bias_filler {
      type: "constant"
      value: 0.2
    }
  }
}
layer {
  name: "bn3b2_branch2b"
  type: "BatchNorm"
  bottom: "res3b2_branch2b"
  top: "res3b2_branch2b"
  batch_norm_param {
    use_global_stats: true
  }
}
layer {
  name: "scale3b2_branch2b"
  type: "Scale"
  bottom: "res3b2_branch2b"
  top: "res3b2_branch2b"
  scale_param {
    bias_term: true
  }
}
layer {
  name: "res3b2_branch2b_relu"
  type: "ReLU"
  bottom: "res3b2_branch2b"
  top: "res3b2_branch2b"
}
layer {
  name: "res3b2_branch2c"
  type: "Convolution"
  bottom: "res3b2_branch2b"
  top: "res3b2_branch2c"
  convolution_param {
    num_output: 512
    bias_term: false
    pad: 0
    kernel_size: 1
    stride: 1
    weight_filler {
      type: "xavier"
    }
    bias_filler {
      type: "constant"
      value: 0.2
    }
  }
}
layer {
  name: "bn3b2_branch2c"
  type: "BatchNorm"
  bottom: "res3b2_branch2c"
  top: "res3b2_branch2c"
  batch_norm_param {
    use_global_stats: true
  }
}
layer {
  name: "scale3b2_branch2c"
  type: "Scale"
  bottom: "res3b2_branch2c"
  top: "res3b2_branch2c"
  scale_param {
    bias_term: true
  }
}
layer {
  name: "res3b2"
  type: "Eltwise"
  bottom: "res3b1"
  bottom: "res3b2_branch2c"
  top: "res3b2"
}
layer {
  name: "res3b2_relu"
  type: "ReLU"
  bottom: "res3b2"
  top: "res3b2"
}
layer {
  name: "res3b3_branch2a"
  type: "Convolution"
  bottom: "res3b2"
  top: "res3b3_branch2a"
  convolution_param {
    num_output: 128
    bias_term: false
    pad: 0
    kernel_size: 1
    stride: 1
    weight_filler {
      type: "xavier"
    }
    bias_filler {
      type: "constant"
      value: 0.2
    }
  }
}
layer {
  name: "bn3b3_branch2a"
  type: "BatchNorm"
  bottom: "res3b3_branch2a"
  top: "res3b3_branch2a"
  batch_norm_param {
    use_global_stats: true
  }
}
layer {
  name: "scale3b3_branch2a"
  type: "Scale"
  bottom: "res3b3_branch2a"
  top: "res3b3_branch2a"
  scale_param {
    bias_term: true
  }
}
layer {
  name: "res3b3_branch2a_relu"
  type: "ReLU"
  bottom: "res3b3_branch2a"
  top: "res3b3_branch2a"
}
layer {
  name: "res3b3_branch2b"
  type: "Convolution"
  bottom: "res3b3_branch2a"
  top: "res3b3_branch2b"
  convolution_param {
    num_output: 128
    bias_term: false
    pad: 1
    kernel_size: 3
    stride: 1
    weight_filler {
      type: "xavier"
    }
    bias_filler {
      type: "constant"
      value: 0.2
    }
  }
}
layer {
  name: "bn3b3_branch2b"
  type: "BatchNorm"
  bottom: "res3b3_branch2b"
  top: "res3b3_branch2b"
  batch_norm_param {
    use_global_stats: true
  }
}
layer {
  name: "scale3b3_branch2b"
  type: "Scale"
  bottom: "res3b3_branch2b"
  top: "res3b3_branch2b"
  scale_param {
    bias_term: true
  }
}
layer {
  name: "res3b3_branch2b_relu"
  type: "ReLU"
  bottom: "res3b3_branch2b"
  top: "res3b3_branch2b"
}
layer {
  name: "res3b3_branch2c"
  type: "Convolution"
  bottom: "res3b3_branch2b"
  top: "res3b3_branch2c"
  convolution_param {
    num_output: 512
    bias_term: false
    pad: 0
    kernel_size: 1
    stride: 1
    weight_filler {
      type: "xavier"
    }
    bias_filler {
      type: "constant"
      value: 0.2
    }
  }
}
layer {
  name: "bn3b3_branch2c"
  type: "BatchNorm"
  bottom: "res3b3_branch2c"
  top: "res3b3_branch2c"
  batch_norm_param {
    use_global_stats: true
  }
}
layer {
  name: "scale3b3_branch2c"
  type: "Scale"
  bottom: "res3b3_branch2c"
  top: "res3b3_branch2c"
  scale_param {
    bias_term: true
  }
}
layer {
  name: "res3b3"
  type: "Eltwise"
  bottom: "res3b2"
  bottom: "res3b3_branch2c"
  top: "res3b3"
}
layer {
  name: "res3b3_relu"
  type: "ReLU"
  bottom: "res3b3"
  top: "res3b3"
}
layer {
  name: "res3b4_branch2a"
  type: "Convolution"
  bottom: "res3b3"
  top: "res3b4_branch2a"
  convolution_param {
    num_output: 128
    bias_term: false
    pad: 0
    kernel_size: 1
    stride: 1
    weight_filler {
      type: "xavier"
    }
    bias_filler {
      type: "constant"
      value: 0.2
    }
  }
}
layer {
  name: "bn3b4_branch2a"
  type: "BatchNorm"
  bottom: "res3b4_branch2a"
  top: "res3b4_branch2a"
  batch_norm_param {
    use_global_stats: true
  }
}
layer {
  name: "scale3b4_branch2a"
  type: "Scale"
  bottom: "res3b4_branch2a"
  top: "res3b4_branch2a"
  scale_param {
    bias_term: true
  }
}
layer {
  name: "res3b4_branch2a_relu"
  type: "ReLU"
  bottom: "res3b4_branch2a"
  top: "res3b4_branch2a"
}
layer {
  name: "res3b4_branch2b"
  type: "Convolution"
  bottom: "res3b4_branch2a"
  top: "res3b4_branch2b"
  convolution_param {
    num_output: 128
    bias_term: false
    pad: 1
    kernel_size: 3
    stride: 1
    weight_filler {
      type: "xavier"
    }
    bias_filler {
      type: "constant"
      value: 0.2
    }
  }
}
layer {
  name: "bn3b4_branch2b"
  type: "BatchNorm"
  bottom: "res3b4_branch2b"
  top: "res3b4_branch2b"
  batch_norm_param {
    use_global_stats: true
  }
}
layer {
  name: "scale3b4_branch2b"
  type: "Scale"
  bottom: "res3b4_branch2b"
  top: "res3b4_branch2b"
  scale_param {
    bias_term: true
  }
}
layer {
  name: "res3b4_branch2b_relu"
  type: "ReLU"
  bottom: "res3b4_branch2b"
  top: "res3b4_branch2b"
}
layer {
  name: "res3b4_branch2c"
  type: "Convolution"
  bottom: "res3b4_branch2b"
  top: "res3b4_branch2c"
  convolution_param {
    num_output: 512
    bias_term: false
    pad: 0
    kernel_size: 1
    stride: 1
    weight_filler {
      type: "xavier"
    }
    bias_filler {
      type: "constant"
      value: 0.2
    }
  }
}
layer {
  name: "bn3b4_branch2c"
  type: "BatchNorm"
  bottom: "res3b4_branch2c"
  top: "res3b4_branch2c"
  batch_norm_param {
    use_global_stats: true
  }
}
layer {
  name: "scale3b4_branch2c"
  type: "Scale"
  bottom: "res3b4_branch2c"
  top: "res3b4_branch2c"
  scale_param {
    bias_term: true
  }
}
layer {
  name: "res3b4"
  type: "Eltwise"
  bottom: "res3b3"
  bottom: "res3b4_branch2c"
  top: "res3b4"
}
layer {
  name: "res3b4_relu"
  type: "ReLU"
  bottom: "res3b4"
  top: "res3b4"
}
layer {
  name: "res3b5_branch2a"
  type: "Convolution"
  bottom: "res3b4"
  top: "res3b5_branch2a"
  convolution_param {
    num_output: 128
    bias_term: false
    pad: 0
    kernel_size: 1
    stride: 1
    weight_filler {
      type: "xavier"
    }
    bias_filler {
      type: "constant"
      value: 0.2
    }
  }
}
layer {
  name: "bn3b5_branch2a"
  type: "BatchNorm"
  bottom: "res3b5_branch2a"
  top: "res3b5_branch2a"
  batch_norm_param {
    use_global_stats: true
  }
}
layer {
  name: "scale3b5_branch2a"
  type: "Scale"
  bottom: "res3b5_branch2a"
  top: "res3b5_branch2a"
  scale_param {
    bias_term: true
  }
}
layer {
  name: "res3b5_branch2a_relu"
  type: "ReLU"
  bottom: "res3b5_branch2a"
  top: "res3b5_branch2a"
}
layer {
  name: "res3b5_branch2b"
  type: "Convolution"
  bottom: "res3b5_branch2a"
  top: "res3b5_branch2b"
  convolution_param {
    num_output: 128
    bias_term: false
    pad: 1
    kernel_size: 3
    stride: 1
    weight_filler {
      type: "xavier"
    }
    bias_filler {
      type: "constant"
      value: 0.2
    }
  }
}
layer {
  name: "bn3b5_branch2b"
  type: "BatchNorm"
  bottom: "res3b5_branch2b"
  top: "res3b5_branch2b"
  batch_norm_param {
    use_global_stats: true
  }
}
layer {
  name: "scale3b5_branch2b"
  type: "Scale"
  bottom: "res3b5_branch2b"
  top: "res3b5_branch2b"
  scale_param {
    bias_term: true
  }
}
layer {
  name: "res3b5_branch2b_relu"
  type: "ReLU"
  bottom: "res3b5_branch2b"
  top: "res3b5_branch2b"
}
layer {
  name: "res3b5_branch2c"
  type: "Convolution"
  bottom: "res3b5_branch2b"
  top: "res3b5_branch2c"
  convolution_param {
    num_output: 512
    bias_term: false
    pad: 0
    kernel_size: 1
    stride: 1
    weight_filler {
      type: "xavier"
    }
    bias_filler {
      type: "constant"
      value: 0.2
    }
  }
}
layer {
  name: "bn3b5_branch2c"
  type: "BatchNorm"
  bottom: "res3b5_branch2c"
  top: "res3b5_branch2c"
  batch_norm_param {
    use_global_stats: true
  }
}
layer {
  name: "scale3b5_branch2c"
  type: "Scale"
  bottom: "res3b5_branch2c"
  top: "res3b5_branch2c"
  scale_param {
    bias_term: true
  }
}
layer {
  name: "res3b5"
  type: "Eltwise"
  bottom: "res3b4"
  bottom: "res3b5_branch2c"
  top: "res3b5"
}
layer {
  name: "res3b5_relu"
  type: "ReLU"
  bottom: "res3b5"
  top: "res3b5"
}
layer {
  name: "res3b6_branch2a"
  type: "Convolution"
  bottom: "res3b5"
  top: "res3b6_branch2a"
  convolution_param {
    num_output: 128
    bias_term: false
    pad: 0
    kernel_size: 1
    stride: 1
    weight_filler {
      type: "xavier"
    }
    bias_filler {
      type: "constant"
      value: 0.2
    }
  }
}
layer {
  name: "bn3b6_branch2a"
  type: "BatchNorm"
  bottom: "res3b6_branch2a"
  top: "res3b6_branch2a"
  batch_norm_param {
    use_global_stats: true
  }
}
layer {
  name: "scale3b6_branch2a"
  type: "Scale"
  bottom: "res3b6_branch2a"
  top: "res3b6_branch2a"
  scale_param {
    bias_term: true
  }
}
layer {
  name: "res3b6_branch2a_relu"
  type: "ReLU"
  bottom: "res3b6_branch2a"
  top: "res3b6_branch2a"
}
layer {
  name: "res3b6_branch2b"
  type: "Convolution"
  bottom: "res3b6_branch2a"
  top: "res3b6_branch2b"
  convolution_param {
    num_output: 128
    bias_term: false
    pad: 1
    kernel_size: 3
    stride: 1
    weight_filler {
      type: "xavier"
    }
    bias_filler {
      type: "constant"
      value: 0.2
    }
  }
}
layer {
  name: "bn3b6_branch2b"
  type: "BatchNorm"
  bottom: "res3b6_branch2b"
  top: "res3b6_branch2b"
  batch_norm_param {
    use_global_stats: true
  }
}
layer {
  name: "scale3b6_branch2b"
  type: "Scale"
  bottom: "res3b6_branch2b"
  top: "res3b6_branch2b"
  scale_param {
    bias_term: true
  }
}
layer {
  name: "res3b6_branch2b_relu"
  type: "ReLU"
  bottom: "res3b6_branch2b"
  top: "res3b6_branch2b"
}
layer {
  name: "res3b6_branch2c"
  type: "Convolution"
  bottom: "res3b6_branch2b"
  top: "res3b6_branch2c"
  convolution_param {
    num_output: 512
    bias_term: false
    pad: 0
    kernel_size: 1
    stride: 1
    weight_filler {
      type: "xavier"
    }
    bias_filler {
      type: "constant"
      value: 0.2
    }
  }
}
layer {
  name: "bn3b6_branch2c"
  type: "BatchNorm"
  bottom: "res3b6_branch2c"
  top: "res3b6_branch2c"
  batch_norm_param {
    use_global_stats: true
  }
}
layer {
  name: "scale3b6_branch2c"
  type: "Scale"
  bottom: "res3b6_branch2c"
  top: "res3b6_branch2c"
  scale_param {
    bias_term: true
  }
}
layer {
  name: "res3b6"
  type: "Eltwise"
  bottom: "res3b5"
  bottom: "res3b6_branch2c"
  top: "res3b6"
}
layer {
  name: "res3b6_relu"
  type: "ReLU"
  bottom: "res3b6"
  top: "res3b6"
}
layer {
  name: "res3b7_branch2a"
  type: "Convolution"
  bottom: "res3b6"
  top: "res3b7_branch2a"
  convolution_param {
    num_output: 128
    bias_term: false
    pad: 0
    kernel_size: 1
    stride: 1
    weight_filler {
      type: "xavier"
    }
    bias_filler {
      type: "constant"
      value: 0.2
    }
  }
}
layer {
  name: "bn3b7_branch2a"
  type: "BatchNorm"
  bottom: "res3b7_branch2a"
  top: "res3b7_branch2a"
  batch_norm_param {
    use_global_stats: true
  }
}
layer {
  name: "scale3b7_branch2a"
  type: "Scale"
  bottom: "res3b7_branch2a"
  top: "res3b7_branch2a"
  scale_param {
    bias_term: true
  }
}
layer {
  name: "res3b7_branch2a_relu"
  type: "ReLU"
  bottom: "res3b7_branch2a"
  top: "res3b7_branch2a"
}
layer {
  name: "res3b7_branch2b"
  type: "Convolution"
  bottom: "res3b7_branch2a"
  top: "res3b7_branch2b"
  convolution_param {
    num_output: 128
    bias_term: false
    pad: 1
    kernel_size: 3
    stride: 1
    weight_filler {
      type: "xavier"
    }
    bias_filler {
      type: "constant"
      value: 0.2
    }
  }
}
layer {
  name: "bn3b7_branch2b"
  type: "BatchNorm"
  bottom: "res3b7_branch2b"
  top: "res3b7_branch2b"
  batch_norm_param {
    use_global_stats: true
  }
}
layer {
  name: "scale3b7_branch2b"
  type: "Scale"
  bottom: "res3b7_branch2b"
  top: "res3b7_branch2b"
  scale_param {
    bias_term: true
  }
}
layer {
  name: "res3b7_branch2b_relu"
  type: "ReLU"
  bottom: "res3b7_branch2b"
  top: "res3b7_branch2b"
}
layer {
  name: "res3b7_branch2c"
  type: "Convolution"
  bottom: "res3b7_branch2b"
  top: "res3b7_branch2c"
  convolution_param {
    num_output: 512
    bias_term: false
    pad: 0
    kernel_size: 1
    stride: 1
    weight_filler {
      type: "xavier"
    }
    bias_filler {
      type: "constant"
      value: 0.2
    }
  }
}
layer {
  name: "bn3b7_branch2c"
  type: "BatchNorm"
  bottom: "res3b7_branch2c"
  top: "res3b7_branch2c"
  batch_norm_param {
    use_global_stats: true
  }
}
layer {
  name: "scale3b7_branch2c"
  type: "Scale"
  bottom: "res3b7_branch2c"
  top: "res3b7_branch2c"
  scale_param {
    bias_term: true
  }
}
layer {
  name: "res3b7"
  type: "Eltwise"
  bottom: "res3b6"
  bottom: "res3b7_branch2c"
  top: "res3b7"
}
layer {
  name: "res3b7_relu"
  type: "ReLU"
  bottom: "res3b7"
  top: "res3b7"
}
layer {
  name: "res4a_branch1"
  type: "Convolution"
  bottom: "res3b7"
  top: "res4a_branch1"
  convolution_param {
    num_output: 1024
    bias_term: false
    pad: 0
    kernel_size: 1
    stride: 2
    weight_filler {
      type: "xavier"
    }
    bias_filler {
      type: "constant"
      value: 0.2
    }
  }
}
layer {
  name: "bn4a_branch1"
  type: "BatchNorm"
  bottom: "res4a_branch1"
  top: "res4a_branch1"
  batch_norm_param {
    use_global_stats: true
  }
}
layer {
  name: "scale4a_branch1"
  type: "Scale"
  bottom: "res4a_branch1"
  top: "res4a_branch1"
  scale_param {
    bias_term: true
  }
}
layer {
  name: "res4a_branch2a"
  type: "Convolution"
  bottom: "res3b7"
  top: "res4a_branch2a"
  convolution_param {
    num_output: 256
    bias_term: false
    pad: 0
    kernel_size: 1
    stride: 2
    weight_filler {
      type: "xavier"
    }
    bias_filler {
      type: "constant"
      value: 0.2
    }
  }
}
layer {
  name: "bn4a_branch2a"
  type: "BatchNorm"
  bottom: "res4a_branch2a"
  top: "res4a_branch2a"
  batch_norm_param {
    use_global_stats: true
  }
}
layer {
  name: "scale4a_branch2a"
  type: "Scale"
  bottom: "res4a_branch2a"
  top: "res4a_branch2a"
  scale_param {
    bias_term: true
  }
}
layer {
  name: "res4a_branch2a_relu"
  type: "ReLU"
  bottom: "res4a_branch2a"
  top: "res4a_branch2a"
}
layer {
  name: "res4a_branch2b"
  type: "Convolution"
  bottom: "res4a_branch2a"
  top: "res4a_branch2b"
  convolution_param {
    num_output: 256
    bias_term: false
    pad: 1
    kernel_size: 3
    stride: 1
    weight_filler {
      type: "xavier"
    }
    bias_filler {
      type: "constant"
      value: 0.2
    }
  }
}
layer {
  name: "bn4a_branch2b"
  type: "BatchNorm"
  bottom: "res4a_branch2b"
  top: "res4a_branch2b"
  batch_norm_param {
    use_global_stats: true
  }
}
layer {
  name: "scale4a_branch2b"
  type: "Scale"
  bottom: "res4a_branch2b"
  top: "res4a_branch2b"
  scale_param {
    bias_term: true
  }
}
layer {
  name: "res4a_branch2b_relu"
  type: "ReLU"
  bottom: "res4a_branch2b"
  top: "res4a_branch2b"
}
layer {
  name: "res4a_branc
I1130 23:44:49.209305 11291 layer_factory.hpp:77] Creating layer resnet_152
I1130 23:44:49.209673 11291 net.cpp:100] Creating Layer resnet_152
I1130 23:44:49.209681 11291 net.cpp:408] resnet_152 -> data
I1130 23:44:49.209697 11291 net.cpp:408] resnet_152 -> label
I1130 23:44:49.209707 11291 data_transformer.cpp:25] Loading mean file from: /home/ai/large/input224-1/100-web/croporg/mean224x224.binaryproto
I1130 23:44:49.249284 11301 db_lmdb.cpp:35] Opened lmdb /home/ai/large/input224-1/100-web/croporg/train224x224_lmdb
I1130 23:44:49.377693 11291 data_layer.cpp:41] output data size: 6,3,224,224
I1130 23:44:49.384357 11291 net.cpp:150] Setting up resnet_152
I1130 23:44:49.384382 11291 net.cpp:157] Top shape: 6 3 224 224 (903168)
I1130 23:44:49.384387 11291 net.cpp:157] Top shape: 6 (6)
I1130 23:44:49.384389 11291 net.cpp:165] Memory required for data: 3612696
I1130 23:44:49.384399 11291 layer_factory.hpp:77] Creating layer conv1
I1130 23:44:49.384423 11291 net.cpp:100] Creating Layer conv1
I1130 23:44:49.384428 11291 net.cpp:434] conv1 <- data
I1130 23:44:49.384440 11291 net.cpp:408] conv1 -> conv1
I1130 23:44:49.407580 11303 blocking_queue.cpp:50] Waiting for data
I1130 23:44:49.524533 11291 net.cpp:150] Setting up conv1
I1130 23:44:49.524554 11291 net.cpp:157] Top shape: 6 64 112 112 (4816896)
I1130 23:44:49.524555 11291 net.cpp:165] Memory required for data: 22880280
I1130 23:44:49.524570 11291 layer_factory.hpp:77] Creating layer bn_conv1
I1130 23:44:49.524605 11291 net.cpp:100] Creating Layer bn_conv1
I1130 23:44:49.524607 11291 net.cpp:434] bn_conv1 <- conv1
I1130 23:44:49.524612 11291 net.cpp:395] bn_conv1 -> conv1 (in-place)
I1130 23:44:49.524736 11291 net.cpp:150] Setting up bn_conv1
I1130 23:44:49.524740 11291 net.cpp:157] Top shape: 6 64 112 112 (4816896)
I1130 23:44:49.524742 11291 net.cpp:165] Memory required for data: 42147864
I1130 23:44:49.524749 11291 layer_factory.hpp:77] Creating layer scale_conv1
I1130 23:44:49.524754 11291 net.cpp:100] Creating Layer scale_conv1
I1130 23:44:49.524755 11291 net.cpp:434] scale_conv1 <- conv1
I1130 23:44:49.524757 11291 net.cpp:395] scale_conv1 -> conv1 (in-place)
I1130 23:44:49.524781 11291 layer_factory.hpp:77] Creating layer scale_conv1
I1130 23:44:49.524852 11291 net.cpp:150] Setting up scale_conv1
I1130 23:44:49.524855 11291 net.cpp:157] Top shape: 6 64 112 112 (4816896)
I1130 23:44:49.524857 11291 net.cpp:165] Memory required for data: 61415448
I1130 23:44:49.524862 11291 layer_factory.hpp:77] Creating layer conv1_relu
I1130 23:44:49.524865 11291 net.cpp:100] Creating Layer conv1_relu
I1130 23:44:49.524866 11291 net.cpp:434] conv1_relu <- conv1
I1130 23:44:49.524869 11291 net.cpp:395] conv1_relu -> conv1 (in-place)
I1130 23:44:49.524972 11291 net.cpp:150] Setting up conv1_relu
I1130 23:44:49.524977 11291 net.cpp:157] Top shape: 6 64 112 112 (4816896)
I1130 23:44:49.524978 11291 net.cpp:165] Memory required for data: 80683032
I1130 23:44:49.524981 11291 layer_factory.hpp:77] Creating layer pool1
I1130 23:44:49.524983 11291 net.cpp:100] Creating Layer pool1
I1130 23:44:49.524986 11291 net.cpp:434] pool1 <- conv1
I1130 23:44:49.524988 11291 net.cpp:408] pool1 -> pool1
I1130 23:44:49.525015 11291 net.cpp:150] Setting up pool1
I1130 23:44:49.525019 11291 net.cpp:157] Top shape: 6 64 56 56 (1204224)
I1130 23:44:49.525022 11291 net.cpp:165] Memory required for data: 85499928
I1130 23:44:49.525022 11291 layer_factory.hpp:77] Creating layer pool1_pool1_0_split
I1130 23:44:49.525025 11291 net.cpp:100] Creating Layer pool1_pool1_0_split
I1130 23:44:49.525027 11291 net.cpp:434] pool1_pool1_0_split <- pool1
I1130 23:44:49.525030 11291 net.cpp:408] pool1_pool1_0_split -> pool1_pool1_0_split_0
I1130 23:44:49.525034 11291 net.cpp:408] pool1_pool1_0_split -> pool1_pool1_0_split_1
I1130 23:44:49.525051 11291 net.cpp:150] Setting up pool1_pool1_0_split
I1130 23:44:49.525053 11291 net.cpp:157] Top shape: 6 64 56 56 (1204224)
I1130 23:44:49.525056 11291 net.cpp:157] Top shape: 6 64 56 56 (1204224)
I1130 23:44:49.525058 11291 net.cpp:165] Memory required for data: 95133720
I1130 23:44:49.525059 11291 layer_factory.hpp:77] Creating layer res2a_branch1
I1130 23:44:49.525064 11291 net.cpp:100] Creating Layer res2a_branch1
I1130 23:44:49.525066 11291 net.cpp:434] res2a_branch1 <- pool1_pool1_0_split_0
I1130 23:44:49.525069 11291 net.cpp:408] res2a_branch1 -> res2a_branch1
I1130 23:44:49.525655 11291 net.cpp:150] Setting up res2a_branch1
I1130 23:44:49.525662 11291 net.cpp:157] Top shape: 6 256 56 56 (4816896)
I1130 23:44:49.525665 11291 net.cpp:165] Memory required for data: 114401304
I1130 23:44:49.525668 11291 layer_factory.hpp:77] Creating layer bn2a_branch1
I1130 23:44:49.525672 11291 net.cpp:100] Creating Layer bn2a_branch1
I1130 23:44:49.525674 11291 net.cpp:434] bn2a_branch1 <- res2a_branch1
I1130 23:44:49.525677 11291 net.cpp:395] bn2a_branch1 -> res2a_branch1 (in-place)
I1130 23:44:49.526242 11291 net.cpp:150] Setting up bn2a_branch1
I1130 23:44:49.526248 11291 net.cpp:157] Top shape: 6 256 56 56 (4816896)
I1130 23:44:49.526249 11291 net.cpp:165] Memory required for data: 133668888
I1130 23:44:49.526257 11291 layer_factory.hpp:77] Creating layer scale2a_branch1
I1130 23:44:49.526260 11291 net.cpp:100] Creating Layer scale2a_branch1
I1130 23:44:49.526262 11291 net.cpp:434] scale2a_branch1 <- res2a_branch1
I1130 23:44:49.526264 11291 net.cpp:395] scale2a_branch1 -> res2a_branch1 (in-place)
I1130 23:44:49.526288 11291 layer_factory.hpp:77] Creating layer scale2a_branch1
I1130 23:44:49.526345 11291 net.cpp:150] Setting up scale2a_branch1
I1130 23:44:49.526355 11291 net.cpp:157] Top shape: 6 256 56 56 (4816896)
I1130 23:44:49.526357 11291 net.cpp:165] Memory required for data: 152936472
I1130 23:44:49.526361 11291 layer_factory.hpp:77] Creating layer res2a_branch2a
I1130 23:44:49.526366 11291 net.cpp:100] Creating Layer res2a_branch2a
I1130 23:44:49.526368 11291 net.cpp:434] res2a_branch2a <- pool1_pool1_0_split_1
I1130 23:44:49.526371 11291 net.cpp:408] res2a_branch2a -> res2a_branch2a
I1130 23:44:49.526945 11291 net.cpp:150] Setting up res2a_branch2a
I1130 23:44:49.526952 11291 net.cpp:157] Top shape: 6 64 56 56 (1204224)
I1130 23:44:49.526953 11291 net.cpp:165] Memory required for data: 157753368
I1130 23:44:49.526957 11291 layer_factory.hpp:77] Creating layer bn2a_branch2a
I1130 23:44:49.526960 11291 net.cpp:100] Creating Layer bn2a_branch2a
I1130 23:44:49.526962 11291 net.cpp:434] bn2a_branch2a <- res2a_branch2a
I1130 23:44:49.526965 11291 net.cpp:395] bn2a_branch2a -> res2a_branch2a (in-place)
I1130 23:44:49.527072 11291 net.cpp:150] Setting up bn2a_branch2a
I1130 23:44:49.527077 11291 net.cpp:157] Top shape: 6 64 56 56 (1204224)
I1130 23:44:49.527078 11291 net.cpp:165] Memory required for data: 162570264
I1130 23:44:49.527082 11291 layer_factory.hpp:77] Creating layer scale2a_branch2a
I1130 23:44:49.527086 11291 net.cpp:100] Creating Layer scale2a_branch2a
I1130 23:44:49.527087 11291 net.cpp:434] scale2a_branch2a <- res2a_branch2a
I1130 23:44:49.527089 11291 net.cpp:395] scale2a_branch2a -> res2a_branch2a (in-place)
I1130 23:44:49.527110 11291 layer_factory.hpp:77] Creating layer scale2a_branch2a
I1130 23:44:49.527174 11291 net.cpp:150] Setting up scale2a_branch2a
I1130 23:44:49.527179 11291 net.cpp:157] Top shape: 6 64 56 56 (1204224)
I1130 23:44:49.527180 11291 net.cpp:165] Memory required for data: 167387160
I1130 23:44:49.527186 11291 layer_factory.hpp:77] Creating layer res2a_branch2a_relu
I1130 23:44:49.527189 11291 net.cpp:100] Creating Layer res2a_branch2a_relu
I1130 23:44:49.527190 11291 net.cpp:434] res2a_branch2a_relu <- res2a_branch2a
I1130 23:44:49.527194 11291 net.cpp:395] res2a_branch2a_relu -> res2a_branch2a (in-place)
I1130 23:44:49.527293 11291 net.cpp:150] Setting up res2a_branch2a_relu
I1130 23:44:49.527297 11291 net.cpp:157] Top shape: 6 64 56 56 (1204224)
I1130 23:44:49.527299 11291 net.cpp:165] Memory required for data: 172204056
I1130 23:44:49.527302 11291 layer_factory.hpp:77] Creating layer res2a_branch2b
I1130 23:44:49.527307 11291 net.cpp:100] Creating Layer res2a_branch2b
I1130 23:44:49.527308 11291 net.cpp:434] res2a_branch2b <- res2a_branch2a
I1130 23:44:49.527312 11291 net.cpp:408] res2a_branch2b -> res2a_branch2b
I1130 23:44:49.528599 11291 net.cpp:150] Setting up res2a_branch2b
I1130 23:44:49.528607 11291 net.cpp:157] Top shape: 6 64 56 56 (1204224)
I1130 23:44:49.528609 11291 net.cpp:165] Memory required for data: 177020952
I1130 23:44:49.528612 11291 layer_factory.hpp:77] Creating layer bn2a_branch2b
I1130 23:44:49.528616 11291 net.cpp:100] Creating Layer bn2a_branch2b
I1130 23:44:49.528619 11291 net.cpp:434] bn2a_branch2b <- res2a_branch2b
I1130 23:44:49.528621 11291 net.cpp:395] bn2a_branch2b -> res2a_branch2b (in-place)
I1130 23:44:49.528736 11291 net.cpp:150] Setting up bn2a_branch2b
I1130 23:44:49.528740 11291 net.cpp:157] Top shape: 6 64 56 56 (1204224)
I1130 23:44:49.528741 11291 net.cpp:165] Memory required for data: 181837848
I1130 23:44:49.528745 11291 layer_factory.hpp:77] Creating layer scale2a_branch2b
I1130 23:44:49.528751 11291 net.cpp:100] Creating Layer scale2a_branch2b
I1130 23:44:49.528753 11291 net.cpp:434] scale2a_branch2b <- res2a_branch2b
I1130 23:44:49.528755 11291 net.cpp:395] scale2a_branch2b -> res2a_branch2b (in-place)
I1130 23:44:49.528776 11291 layer_factory.hpp:77] Creating layer scale2a_branch2b
I1130 23:44:49.528844 11291 net.cpp:150] Setting up scale2a_branch2b
I1130 23:44:49.528848 11291 net.cpp:157] Top shape: 6 64 56 56 (1204224)
I1130 23:44:49.528849 11291 net.cpp:165] Memory required for data: 186654744
I1130 23:44:49.528852 11291 layer_factory.hpp:77] Creating layer res2a_branch2b_relu
I1130 23:44:49.528862 11291 net.cpp:100] Creating Layer res2a_branch2b_relu
I1130 23:44:49.528864 11291 net.cpp:434] res2a_branch2b_relu <- res2a_branch2b
I1130 23:44:49.528869 11291 net.cpp:395] res2a_branch2b_relu -> res2a_branch2b (in-place)
I1130 23:44:49.529109 11291 net.cpp:150] Setting up res2a_branch2b_relu
I1130 23:44:49.529116 11291 net.cpp:157] Top shape: 6 64 56 56 (1204224)
I1130 23:44:49.529117 11291 net.cpp:165] Memory required for data: 191471640
I1130 23:44:49.529119 11291 layer_factory.hpp:77] Creating layer res2a_branch2c
I1130 23:44:49.529124 11291 net.cpp:100] Creating Layer res2a_branch2c
I1130 23:44:49.529127 11291 net.cpp:434] res2a_branch2c <- res2a_branch2b
I1130 23:44:49.529131 11291 net.cpp:408] res2a_branch2c -> res2a_branch2c
I1130 23:44:49.529598 11291 net.cpp:150] Setting up res2a_branch2c
I1130 23:44:49.529604 11291 net.cpp:157] Top shape: 6 256 56 56 (4816896)
I1130 23:44:49.529606 11291 net.cpp:165] Memory required for data: 210739224
I1130 23:44:49.529609 11291 layer_factory.hpp:77] Creating layer bn2a_branch2c
I1130 23:44:49.529613 11291 net.cpp:100] Creating Layer bn2a_branch2c
I1130 23:44:49.529614 11291 net.cpp:434] bn2a_branch2c <- res2a_branch2c
I1130 23:44:49.529618 11291 net.cpp:395] bn2a_branch2c -> res2a_branch2c (in-place)
I1130 23:44:49.529721 11291 net.cpp:150] Setting up bn2a_branch2c
I1130 23:44:49.529726 11291 net.cpp:157] Top shape: 6 256 56 56 (4816896)
I1130 23:44:49.529727 11291 net.cpp:165] Memory required for data: 230006808
I1130 23:44:49.529731 11291 layer_factory.hpp:77] Creating layer scale2a_branch2c
I1130 23:44:49.529734 11291 net.cpp:100] Creating Layer scale2a_branch2c
I1130 23:44:49.529736 11291 net.cpp:434] scale2a_branch2c <- res2a_branch2c
I1130 23:44:49.529737 11291 net.cpp:395] scale2a_branch2c -> res2a_branch2c (in-place)
I1130 23:44:49.529759 11291 layer_factory.hpp:77] Creating layer scale2a_branch2c
I1130 23:44:49.529822 11291 net.cpp:150] Setting up scale2a_branch2c
I1130 23:44:49.529826 11291 net.cpp:157] Top shape: 6 256 56 56 (4816896)
I1130 23:44:49.529827 11291 net.cpp:165] Memory required for data: 249274392
I1130 23:44:49.529831 11291 layer_factory.hpp:77] Creating layer res2a
I1130 23:44:49.529834 11291 net.cpp:100] Creating Layer res2a
I1130 23:44:49.529836 11291 net.cpp:434] res2a <- res2a_branch1
I1130 23:44:49.529839 11291 net.cpp:434] res2a <- res2a_branch2c
I1130 23:44:49.529841 11291 net.cpp:408] res2a -> res2a
I1130 23:44:49.529856 11291 net.cpp:150] Setting up res2a
I1130 23:44:49.529860 11291 net.cpp:157] Top shape: 6 256 56 56 (4816896)
I1130 23:44:49.529860 11291 net.cpp:165] Memory required for data: 268541976
I1130 23:44:49.529862 11291 layer_factory.hpp:77] Creating layer res2a_relu
I1130 23:44:49.529865 11291 net.cpp:100] Creating Layer res2a_relu
I1130 23:44:49.529867 11291 net.cpp:434] res2a_relu <- res2a
I1130 23:44:49.529870 11291 net.cpp:395] res2a_relu -> res2a (in-place)
I1130 23:44:49.530108 11291 net.cpp:150] Setting up res2a_relu
I1130 23:44:49.530115 11291 net.cpp:157] Top shape: 6 256 56 56 (4816896)
I1130 23:44:49.530117 11291 net.cpp:165] Memory required for data: 287809560
I1130 23:44:49.530119 11291 layer_factory.hpp:77] Creating layer res2a_res2a_relu_0_split
I1130 23:44:49.530122 11291 net.cpp:100] Creating Layer res2a_res2a_relu_0_split
I1130 23:44:49.530124 11291 net.cpp:434] res2a_res2a_relu_0_split <- res2a
I1130 23:44:49.530128 11291 net.cpp:408] res2a_res2a_relu_0_split -> res2a_res2a_relu_0_split_0
I1130 23:44:49.530131 11291 net.cpp:408] res2a_res2a_relu_0_split -> res2a_res2a_relu_0_split_1
I1130 23:44:49.530154 11291 net.cpp:150] Setting up res2a_res2a_relu_0_split
I1130 23:44:49.530158 11291 net.cpp:157] Top shape: 6 256 56 56 (4816896)
I1130 23:44:49.530159 11291 net.cpp:157] Top shape: 6 256 56 56 (4816896)
I1130 23:44:49.530161 11291 net.cpp:165] Memory required for data: 326344728
I1130 23:44:49.530164 11291 layer_factory.hpp:77] Creating layer res2b_branch2a
I1130 23:44:49.530170 11291 net.cpp:100] Creating Layer res2b_branch2a
I1130 23:44:49.530171 11291 net.cpp:434] res2b_branch2a <- res2a_res2a_relu_0_split_0
I1130 23:44:49.530180 11291 net.cpp:408] res2b_branch2a -> res2b_branch2a
I1130 23:44:49.530784 11291 net.cpp:150] Setting up res2b_branch2a
I1130 23:44:49.530791 11291 net.cpp:157] Top shape: 6 64 56 56 (1204224)
I1130 23:44:49.530793 11291 net.cpp:165] Memory required for data: 331161624
I1130 23:44:49.530797 11291 layer_factory.hpp:77] Creating layer bn2b_branch2a
I1130 23:44:49.530799 11291 net.cpp:100] Creating Layer bn2b_branch2a
I1130 23:44:49.530802 11291 net.cpp:434] bn2b_branch2a <- res2b_branch2a
I1130 23:44:49.530804 11291 net.cpp:395] bn2b_branch2a -> res2b_branch2a (in-place)
I1130 23:44:49.530915 11291 net.cpp:150] Setting up bn2b_branch2a
I1130 23:44:49.530918 11291 net.cpp:157] Top shape: 6 64 56 56 (1204224)
I1130 23:44:49.530920 11291 net.cpp:165] Memory required for data: 335978520
I1130 23:44:49.530926 11291 layer_factory.hpp:77] Creating layer scale2b_branch2a
I1130 23:44:49.530930 11291 net.cpp:100] Creating Layer scale2b_branch2a
I1130 23:44:49.530932 11291 net.cpp:434] scale2b_branch2a <- res2b_branch2a
I1130 23:44:49.530936 11291 net.cpp:395] scale2b_branch2a -> res2b_branch2a (in-place)
I1130 23:44:49.530956 11291 layer_factory.hpp:77] Creating layer scale2b_branch2a
I1130 23:44:49.531023 11291 net.cpp:150] Setting up scale2b_branch2a
I1130 23:44:49.531028 11291 net.cpp:157] Top shape: 6 64 56 56 (1204224)
I1130 23:44:49.531029 11291 net.cpp:165] Memory required for data: 340795416
I1130 23:44:49.531033 11291 layer_factory.hpp:77] Creating layer res2b_branch2a_relu
I1130 23:44:49.531035 11291 net.cpp:100] Creating Layer res2b_branch2a_relu
I1130 23:44:49.531038 11291 net.cpp:434] res2b_branch2a_relu <- res2b_branch2a
I1130 23:44:49.531039 11291 net.cpp:395] res2b_branch2a_relu -> res2b_branch2a (in-place)
I1130 23:44:49.531137 11291 net.cpp:150] Setting up res2b_branch2a_relu
I1130 23:44:49.531142 11291 net.cpp:157] Top shape: 6 64 56 56 (1204224)
I1130 23:44:49.531144 11291 net.cpp:165] Memory required for data: 345612312
I1130 23:44:49.531146 11291 layer_factory.hpp:77] Creating layer res2b_branch2b
I1130 23:44:49.531152 11291 net.cpp:100] Creating Layer res2b_branch2b
I1130 23:44:49.531152 11291 net.cpp:434] res2b_branch2b <- res2b_branch2a
I1130 23:44:49.531157 11291 net.cpp:408] res2b_branch2b -> res2b_branch2b
I1130 23:44:49.531826 11291 net.cpp:150] Setting up res2b_branch2b
I1130 23:44:49.531833 11291 net.cpp:157] Top shape: 6 64 56 56 (1204224)
I1130 23:44:49.531836 11291 net.cpp:165] Memory required for data: 350429208
I1130 23:44:49.531838 11291 layer_factory.hpp:77] Creating layer bn2b_branch2b
I1130 23:44:49.531842 11291 net.cpp:100] Creating Layer bn2b_branch2b
I1130 23:44:49.531843 11291 net.cpp:434] bn2b_branch2b <- res2b_branch2b
I1130 23:44:49.531852 11291 net.cpp:395] bn2b_branch2b -> res2b_branch2b (in-place)
I1130 23:44:49.531973 11291 net.cpp:150] Setting up bn2b_branch2b
I1130 23:44:49.531977 11291 net.cpp:157] Top shape: 6 64 56 56 (1204224)
I1130 23:44:49.531980 11291 net.cpp:165] Memory required for data: 355246104
I1130 23:44:49.531983 11291 layer_factory.hpp:77] Creating layer scale2b_branch2b
I1130 23:44:49.531987 11291 net.cpp:100] Creating Layer scale2b_branch2b
I1130 23:44:49.531990 11291 net.cpp:434] scale2b_branch2b <- res2b_branch2b
I1130 23:44:49.531993 11291 net.cpp:395] scale2b_branch2b -> res2b_branch2b (in-place)
I1130 23:44:49.532014 11291 layer_factory.hpp:77] Creating layer scale2b_branch2b
I1130 23:44:49.532083 11291 net.cpp:150] Setting up scale2b_branch2b
I1130 23:44:49.532086 11291 net.cpp:157] Top shape: 6 64 56 56 (1204224)
I1130 23:44:49.532088 11291 net.cpp:165] Memory required for data: 360063000
I1130 23:44:49.532091 11291 layer_factory.hpp:77] Creating layer res2b_branch2b_relu
I1130 23:44:49.532095 11291 net.cpp:100] Creating Layer res2b_branch2b_relu
I1130 23:44:49.532096 11291 net.cpp:434] res2b_branch2b_relu <- res2b_branch2b
I1130 23:44:49.532099 11291 net.cpp:395] res2b_branch2b_relu -> res2b_branch2b (in-place)
I1130 23:44:49.532198 11291 net.cpp:150] Setting up res2b_branch2b_relu
I1130 23:44:49.532210 11291 net.cpp:157] Top shape: 6 64 56 56 (1204224)
I1130 23:44:49.532212 11291 net.cpp:165] Memory required for data: 364879896
I1130 23:44:49.532214 11291 layer_factory.hpp:77] Creating layer res2b_branch2c
I1130 23:44:49.532222 11291 net.cpp:100] Creating Layer res2b_branch2c
I1130 23:44:49.532227 11291 net.cpp:434] res2b_branch2c <- res2b_branch2b
I1130 23:44:49.532229 11291 net.cpp:408] res2b_branch2c -> res2b_branch2c
I1130 23:44:49.532848 11291 net.cpp:150] Setting up res2b_branch2c
I1130 23:44:49.532855 11291 net.cpp:157] Top shape: 6 256 56 56 (4816896)
I1130 23:44:49.532858 11291 net.cpp:165] Memory required for data: 384147480
I1130 23:44:49.532861 11291 layer_factory.hpp:77] Creating layer bn2b_branch2c
I1130 23:44:49.532866 11291 net.cpp:100] Creating Layer bn2b_branch2c
I1130 23:44:49.532867 11291 net.cpp:434] bn2b_branch2c <- res2b_branch2c
I1130 23:44:49.532871 11291 net.cpp:395] bn2b_branch2c -> res2b_branch2c (in-place)
I1130 23:44:49.532981 11291 net.cpp:150] Setting up bn2b_branch2c
I1130 23:44:49.532985 11291 net.cpp:157] Top shape: 6 256 56 56 (4816896)
I1130 23:44:49.532987 11291 net.cpp:165] Memory required for data: 403415064
I1130 23:44:49.532992 11291 layer_factory.hpp:77] Creating layer scale2b_branch2c
I1130 23:44:49.532995 11291 net.cpp:100] Creating Layer scale2b_branch2c
I1130 23:44:49.532997 11291 net.cpp:434] scale2b_branch2c <- res2b_branch2c
I1130 23:44:49.532999 11291 net.cpp:395] scale2b_branch2c -> res2b_branch2c (in-place)
I1130 23:44:49.533021 11291 layer_factory.hpp:77] Creating layer scale2b_branch2c
I1130 23:44:49.533082 11291 net.cpp:150] Setting up scale2b_branch2c
I1130 23:44:49.533087 11291 net.cpp:157] Top shape: 6 256 56 56 (4816896)
I1130 23:44:49.533089 11291 net.cpp:165] Memory required for data: 422682648
I1130 23:44:49.533092 11291 layer_factory.hpp:77] Creating layer res2b
I1130 23:44:49.533097 11291 net.cpp:100] Creating Layer res2b
I1130 23:44:49.533099 11291 net.cpp:434] res2b <- res2a_res2a_relu_0_split_1
I1130 23:44:49.533102 11291 net.cpp:434] res2b <- res2b_branch2c
I1130 23:44:49.533104 11291 net.cpp:408] res2b -> res2b
I1130 23:44:49.533119 11291 net.cpp:150] Setting up res2b
I1130 23:44:49.533123 11291 net.cpp:157] Top shape: 6 256 56 56 (4816896)
I1130 23:44:49.533125 11291 net.cpp:165] Memory required for data: 441950232
I1130 23:44:49.533128 11291 layer_factory.hpp:77] Creating layer res2b_relu
I1130 23:44:49.533129 11291 net.cpp:100] Creating Layer res2b_relu
I1130 23:44:49.533133 11291 net.cpp:434] res2b_relu <- res2b
I1130 23:44:49.533134 11291 net.cpp:395] res2b_relu -> res2b (in-place)
I1130 23:44:49.533237 11291 net.cpp:150] Setting up res2b_relu
I1130 23:44:49.533242 11291 net.cpp:157] Top shape: 6 256 56 56 (4816896)
I1130 23:44:49.533244 11291 net.cpp:165] Memory required for data: 461217816
I1130 23:44:49.533246 11291 layer_factory.hpp:77] Creating layer res2b_res2b_relu_0_split
I1130 23:44:49.533249 11291 net.cpp:100] Creating Layer res2b_res2b_relu_0_split
I1130 23:44:49.533252 11291 net.cpp:434] res2b_res2b_relu_0_split <- res2b
I1130 23:44:49.533254 11291 net.cpp:408] res2b_res2b_relu_0_split -> res2b_res2b_relu_0_split_0
I1130 23:44:49.533258 11291 net.cpp:408] res2b_res2b_relu_0_split -> res2b_res2b_relu_0_split_1
I1130 23:44:49.533282 11291 net.cpp:150] Setting up res2b_res2b_relu_0_split
I1130 23:44:49.533284 11291 net.cpp:157] Top shape: 6 256 56 56 (4816896)
I1130 23:44:49.533288 11291 net.cpp:157] Top shape: 6 256 56 56 (4816896)
I1130 23:44:49.533288 11291 net.cpp:165] Memory required for data: 499752984
I1130 23:44:49.533291 11291 layer_factory.hpp:77] Creating layer res2c_branch2a
I1130 23:44:49.533296 11291 net.cpp:100] Creating Layer res2c_branch2a
I1130 23:44:49.533298 11291 net.cpp:434] res2c_branch2a <- res2b_res2b_relu_0_split_0
I1130 23:44:49.533303 11291 net.cpp:408] res2c_branch2a -> res2c_branch2a
I1130 23:44:49.533908 11291 net.cpp:150] Setting up res2c_branch2a
I1130 23:44:49.533915 11291 net.cpp:157] Top shape: 6 64 56 56 (1204224)
I1130 23:44:49.533917 11291 net.cpp:165] Memory required for data: 504569880
I1130 23:44:49.533926 11291 layer_factory.hpp:77] Creating layer bn2c_branch2a
I1130 23:44:49.533931 11291 net.cpp:100] Creating Layer bn2c_branch2a
I1130 23:44:49.533934 11291 net.cpp:434] bn2c_branch2a <- res2c_branch2a
I1130 23:44:49.533937 11291 net.cpp:395] bn2c_branch2a -> res2c_branch2a (in-place)
I1130 23:44:49.534050 11291 net.cpp:150] Setting up bn2c_branch2a
I1130 23:44:49.534054 11291 net.cpp:157] Top shape: 6 64 56 56 (1204224)
I1130 23:44:49.534056 11291 net.cpp:165] Memory required for data: 509386776
I1130 23:44:49.534060 11291 layer_factory.hpp:77] Creating layer scale2c_branch2a
I1130 23:44:49.534063 11291 net.cpp:100] Creating Layer scale2c_branch2a
I1130 23:44:49.534066 11291 net.cpp:434] scale2c_branch2a <- res2c_branch2a
I1130 23:44:49.534068 11291 net.cpp:395] scale2c_branch2a -> res2c_branch2a (in-place)
I1130 23:44:49.534090 11291 layer_factory.hpp:77] Creating layer scale2c_branch2a
I1130 23:44:49.534157 11291 net.cpp:150] Setting up scale2c_branch2a
I1130 23:44:49.534162 11291 net.cpp:157] Top shape: 6 64 56 56 (1204224)
I1130 23:44:49.534163 11291 net.cpp:165] Memory required for data: 514203672
I1130 23:44:49.534167 11291 layer_factory.hpp:77] Creating layer res2c_branch2a_relu
I1130 23:44:49.534170 11291 net.cpp:100] Creating Layer res2c_branch2a_relu
I1130 23:44:49.534173 11291 net.cpp:434] res2c_branch2a_relu <- res2c_branch2a
I1130 23:44:49.534174 11291 net.cpp:395] res2c_branch2a_relu -> res2c_branch2a (in-place)
I1130 23:44:49.534276 11291 net.cpp:150] Setting up res2c_branch2a_relu
I1130 23:44:49.534279 11291 net.cpp:157] Top shape: 6 64 56 56 (1204224)
I1130 23:44:49.534281 11291 net.cpp:165] Memory required for data: 519020568
I1130 23:44:49.534282 11291 layer_factory.hpp:77] Creating layer res2c_branch2b
I1130 23:44:49.534287 11291 net.cpp:100] Creating Layer res2c_branch2b
I1130 23:44:49.534289 11291 net.cpp:434] res2c_branch2b <- res2c_branch2a
I1130 23:44:49.534292 11291 net.cpp:408] res2c_branch2b -> res2c_branch2b
I1130 23:44:49.535111 11291 net.cpp:150] Setting up res2c_branch2b
I1130 23:44:49.535118 11291 net.cpp:157] Top shape: 6 64 56 56 (1204224)
I1130 23:44:49.535120 11291 net.cpp:165] Memory required for data: 523837464
I1130 23:44:49.535123 11291 layer_factory.hpp:77] Creating layer bn2c_branch2b
I1130 23:44:49.535126 11291 net.cpp:100] Creating Layer bn2c_branch2b
I1130 23:44:49.535128 11291 net.cpp:434] bn2c_branch2b <- res2c_branch2b
I1130 23:44:49.535131 11291 net.cpp:395] bn2c_branch2b -> res2c_branch2b (in-place)
I1130 23:44:49.535245 11291 net.cpp:150] Setting up bn2c_branch2b
I1130 23:44:49.535249 11291 net.cpp:157] Top shape: 6 64 56 56 (1204224)
I1130 23:44:49.535250 11291 net.cpp:165] Memory required for data: 528654360
I1130 23:44:49.535254 11291 layer_factory.hpp:77] Creating layer scale2c_branch2b
I1130 23:44:49.535257 11291 net.cpp:100] Creating Layer scale2c_branch2b
I1130 23:44:49.535259 11291 net.cpp:434] scale2c_branch2b <- res2c_branch2b
I1130 23:44:49.535264 11291 net.cpp:395] scale2c_branch2b -> res2c_branch2b (in-place)
I1130 23:44:49.535284 11291 layer_factory.hpp:77] Creating layer scale2c_branch2b
I1130 23:44:49.535351 11291 net.cpp:150] Setting up scale2c_branch2b
I1130 23:44:49.535356 11291 net.cpp:157] Top shape: 6 64 56 56 (1204224)
I1130 23:44:49.535356 11291 net.cpp:165] Memory required for data: 533471256
I1130 23:44:49.535359 11291 layer_factory.hpp:77] Creating layer res2c_branch2b_relu
I1130 23:44:49.535362 11291 net.cpp:100] Creating Layer res2c_branch2b_relu
I1130 23:44:49.535364 11291 net.cpp:434] res2c_branch2b_relu <- res2c_branch2b
I1130 23:44:49.535367 11291 net.cpp:395] res2c_branch2b_relu -> res2c_branch2b (in-place)
I1130 23:44:49.535615 11291 net.cpp:150] Setting up res2c_branch2b_relu
I1130 23:44:49.535620 11291 net.cpp:157] Top shape: 6 64 56 56 (1204224)
I1130 23:44:49.535622 11291 net.cpp:165] Memory required for data: 538288152
I1130 23:44:49.535624 11291 layer_factory.hpp:77] Creating layer res2c_branch2c
I1130 23:44:49.535629 11291 net.cpp:100] Creating Layer res2c_branch2c
I1130 23:44:49.535631 11291 net.cpp:434] res2c_branch2c <- res2c_branch2b
I1130 23:44:49.535641 11291 net.cpp:408] res2c_branch2c -> res2c_branch2c
I1130 23:44:49.536123 11291 net.cpp:150] Setting up res2c_branch2c
I1130 23:44:49.536128 11291 net.cpp:157] Top shape: 6 256 56 56 (4816896)
I1130 23:44:49.536130 11291 net.cpp:165] Memory required for data: 557555736
I1130 23:44:49.536134 11291 layer_factory.hpp:77] Creating layer bn2c_branch2c
I1130 23:44:49.536137 11291 net.cpp:100] Creating Layer bn2c_branch2c
I1130 23:44:49.536139 11291 net.cpp:434] bn2c_branch2c <- res2c_branch2c
I1130 23:44:49.536142 11291 net.cpp:395] bn2c_branch2c -> res2c_branch2c (in-place)
I1130 23:44:49.536250 11291 net.cpp:150] Setting up bn2c_branch2c
I1130 23:44:49.536254 11291 net.cpp:157] Top shape: 6 256 56 56 (4816896)
I1130 23:44:49.536257 11291 net.cpp:165] Memory required for data: 576823320
I1130 23:44:49.536259 11291 layer_factory.hpp:77] Creating layer scale2c_branch2c
I1130 23:44:49.536262 11291 net.cpp:100] Creating Layer scale2c_branch2c
I1130 23:44:49.536264 11291 net.cpp:434] scale2c_branch2c <- res2c_branch2c
I1130 23:44:49.536267 11291 net.cpp:395] scale2c_branch2c -> res2c_branch2c (in-place)
I1130 23:44:49.536288 11291 layer_factory.hpp:77] Creating layer scale2c_branch2c
I1130 23:44:49.536353 11291 net.cpp:150] Setting up scale2c_branch2c
I1130 23:44:49.536357 11291 net.cpp:157] Top shape: 6 256 56 56 (4816896)
I1130 23:44:49.536358 11291 net.cpp:165] Memory required for data: 596090904
I1130 23:44:49.536367 11291 layer_factory.hpp:77] Creating layer res2c
I1130 23:44:49.536371 11291 net.cpp:100] Creating Layer res2c
I1130 23:44:49.536372 11291 net.cpp:434] res2c <- res2b_res2b_relu_0_split_1
I1130 23:44:49.536375 11291 net.cpp:434] res2c <- res2c_branch2c
I1130 23:44:49.536377 11291 net.cpp:408] res2c -> res2c
I1130 23:44:49.536391 11291 net.cpp:150] Setting up res2c
I1130 23:44:49.536394 11291 net.cpp:157] Top shape: 6 256 56 56 (4816896)
I1130 23:44:49.536396 11291 net.cpp:165] Memory required for data: 615358488
I1130 23:44:49.536398 11291 layer_factory.hpp:77] Creating layer res2c_relu
I1130 23:44:49.536402 11291 net.cpp:100] Creating Layer res2c_relu
I1130 23:44:49.536404 11291 net.cpp:434] res2c_relu <- res2c
I1130 23:44:49.536406 11291 net.cpp:395] res2c_relu -> res2c (in-place)
I1130 23:44:49.536654 11291 net.cpp:150] Setting up res2c_relu
I1130 23:44:49.536660 11291 net.cpp:157] Top shape: 6 256 56 56 (4816896)
I1130 23:44:49.536662 11291 net.cpp:165] Memory required for data: 634626072
I1130 23:44:49.536664 11291 layer_factory.hpp:77] Creating layer res2c_res2c_relu_0_split
I1130 23:44:49.536667 11291 net.cpp:100] Creating Layer res2c_res2c_relu_0_split
I1130 23:44:49.536669 11291 net.cpp:434] res2c_res2c_relu_0_split <- res2c
I1130 23:44:49.536674 11291 net.cpp:408] res2c_res2c_relu_0_split -> res2c_res2c_relu_0_split_0
I1130 23:44:49.536676 11291 net.cpp:408] res2c_res2c_relu_0_split -> res2c_res2c_relu_0_split_1
I1130 23:44:49.536700 11291 net.cpp:150] Setting up res2c_res2c_relu_0_split
I1130 23:44:49.536705 11291 net.cpp:157] Top shape: 6 256 56 56 (4816896)
I1130 23:44:49.536706 11291 net.cpp:157] Top shape: 6 256 56 56 (4816896)
I1130 23:44:49.536707 11291 net.cpp:165] Memory required for data: 673161240
I1130 23:44:49.536710 11291 layer_factory.hpp:77] Creating layer res3a_branch1
I1130 23:44:49.536715 11291 net.cpp:100] Creating Layer res3a_branch1
I1130 23:44:49.536716 11291 net.cpp:434] res3a_branch1 <- res2c_res2c_relu_0_split_0
I1130 23:44:49.536720 11291 net.cpp:408] res3a_branch1 -> res3a_branch1
I1130 23:44:49.537856 11291 net.cpp:150] Setting up res3a_branch1
I1130 23:44:49.537863 11291 net.cpp:157] Top shape: 6 512 28 28 (2408448)
I1130 23:44:49.537865 11291 net.cpp:165] Memory required for data: 682795032
I1130 23:44:49.537868 11291 layer_factory.hpp:77] Creating layer bn3a_branch1
I1130 23:44:49.537873 11291 net.cpp:100] Creating Layer bn3a_branch1
I1130 23:44:49.537874 11291 net.cpp:434] bn3a_branch1 <- res3a_branch1
I1130 23:44:49.537878 11291 net.cpp:395] bn3a_branch1 -> res3a_branch1 (in-place)
I1130 23:44:49.538453 11291 net.cpp:150] Setting up bn3a_branch1
I1130 23:44:49.538468 11291 net.cpp:157] Top shape: 6 512 28 28 (2408448)
I1130 23:44:49.538470 11291 net.cpp:165] Memory required for data: 692428824
I1130 23:44:49.538475 11291 layer_factory.hpp:77] Creating layer scale3a_branch1
I1130 23:44:49.538478 11291 net.cpp:100] Creating Layer scale3a_branch1
I1130 23:44:49.538480 11291 net.cpp:434] scale3a_branch1 <- res3a_branch1
I1130 23:44:49.538485 11291 net.cpp:395] scale3a_branch1 -> res3a_branch1 (in-place)
I1130 23:44:49.538511 11291 layer_factory.hpp:77] Creating layer scale3a_branch1
I1130 23:44:49.538571 11291 net.cpp:150] Setting up scale3a_branch1
I1130 23:44:49.538575 11291 net.cpp:157] Top shape: 6 512 28 28 (2408448)
I1130 23:44:49.538578 11291 net.cpp:165] Memory required for data: 702062616
I1130 23:44:49.538580 11291 layer_factory.hpp:77] Creating layer res3a_branch2a
I1130 23:44:49.538586 11291 net.cpp:100] Creating Layer res3a_branch2a
I1130 23:44:49.538589 11291 net.cpp:434] res3a_branch2a <- res2c_res2c_relu_0_split_1
I1130 23:44:49.538591 11291 net.cpp:408] res3a_branch2a -> res3a_branch2a
I1130 23:44:49.539435 11291 net.cpp:150] Setting up res3a_branch2a
I1130 23:44:49.539443 11291 net.cpp:157] Top shape: 6 128 28 28 (602112)
I1130 23:44:49.539445 11291 net.cpp:165] Memory required for data: 704471064
I1130 23:44:49.539449 11291 layer_factory.hpp:77] Creating layer bn3a_branch2a
I1130 23:44:49.539453 11291 net.cpp:100] Creating Layer bn3a_branch2a
I1130 23:44:49.539455 11291 net.cpp:434] bn3a_branch2a <- res3a_branch2a
I1130 23:44:49.539459 11291 net.cpp:395] bn3a_branch2a -> res3a_branch2a (in-place)
I1130 23:44:49.539572 11291 net.cpp:150] Setting up bn3a_branch2a
I1130 23:44:49.539575 11291 net.cpp:157] Top shape: 6 128 28 28 (602112)
I1130 23:44:49.539577 11291 net.cpp:165] Memory required for data: 706879512
I1130 23:44:49.539580 11291 layer_factory.hpp:77] Creating layer scale3a_branch2a
I1130 23:44:49.539584 11291 net.cpp:100] Creating Layer scale3a_branch2a
I1130 23:44:49.539585 11291 net.cpp:434] scale3a_branch2a <- res3a_branch2a
I1130 23:44:49.539588 11291 net.cpp:395] scale3a_branch2a -> res3a_branch2a (in-place)
I1130 23:44:49.539609 11291 layer_factory.hpp:77] Creating layer scale3a_branch2a
I1130 23:44:49.539676 11291 net.cpp:150] Setting up scale3a_branch2a
I1130 23:44:49.539680 11291 net.cpp:157] Top shape: 6 128 28 28 (602112)
I1130 23:44:49.539681 11291 net.cpp:165] Memory required for data: 709287960
I1130 23:44:49.539685 11291 layer_factory.hpp:77] Creating layer res3a_branch2a_relu
I1130 23:44:49.539687 11291 net.cpp:100] Creating Layer res3a_branch2a_relu
I1130 23:44:49.539690 11291 net.cpp:434] res3a_branch2a_relu <- res3a_branch2a
I1130 23:44:49.539692 11291 net.cpp:395] res3a_branch2a_relu -> res3a_branch2a (in-place)
I1130 23:44:49.539798 11291 net.cpp:150] Setting up res3a_branch2a_relu
I1130 23:44:49.539803 11291 net.cpp:157] Top shape: 6 128 28 28 (602112)
I1130 23:44:49.539804 11291 net.cpp:165] Memory required for data: 711696408
I1130 23:44:49.539805 11291 layer_factory.hpp:77] Creating layer res3a_branch2b
I1130 23:44:49.539810 11291 net.cpp:100] Creating Layer res3a_branch2b
I1130 23:44:49.539813 11291 net.cpp:434] res3a_branch2b <- res3a_branch2a
I1130 23:44:49.539818 11291 net.cpp:408] res3a_branch2b -> res3a_branch2b
I1130 23:44:49.541040 11291 net.cpp:150] Setting up res3a_branch2b
I1130 23:44:49.541048 11291 net.cpp:157] Top shape: 6 128 28 28 (602112)
I1130 23:44:49.541050 11291 net.cpp:165] Memory required for data: 714104856
I1130 23:44:49.541054 11291 layer_factory.hpp:77] Creating layer bn3a_branch2b
I1130 23:44:49.541057 11291 net.cpp:100] Creating Layer bn3a_branch2b
I1130 23:44:49.541059 11291 net.cpp:434] bn3a_branch2b <- res3a_branch2b
I1130 23:44:49.541064 11291 net.cpp:395] bn3a_branch2b -> res3a_branch2b (in-place)
I1130 23:44:49.541178 11291 net.cpp:150] Setting up bn3a_branch2b
I1130 23:44:49.541182 11291 net.cpp:157] Top shape: 6 128 28 28 (602112)
I1130 23:44:49.541183 11291 net.cpp:165] Memory required for data: 716513304
I1130 23:44:49.541188 11291 layer_factory.hpp:77] Creating layer scale3a_branch2b
I1130 23:44:49.541198 11291 net.cpp:100] Creating Layer scale3a_branch2b
I1130 23:44:49.541199 11291 net.cpp:434] scale3a_branch2b <- res3a_branch2b
I1130 23:44:49.541203 11291 net.cpp:395] scale3a_branch2b -> res3a_branch2b (in-place)
I1130 23:44:49.541225 11291 layer_factory.hpp:77] Creating layer scale3a_branch2b
I1130 23:44:49.541287 11291 net.cpp:150] Setting up scale3a_branch2b
I1130 23:44:49.541291 11291 net.cpp:157] Top shape: 6 128 28 28 (602112)
I1130 23:44:49.541293 11291 net.cpp:165] Memory required for data: 718921752
I1130 23:44:49.541296 11291 layer_factory.hpp:77] Creating layer res3a_branch2b_relu
I1130 23:44:49.541302 11291 net.cpp:100] Creating Layer res3a_branch2b_relu
I1130 23:44:49.541304 11291 net.cpp:434] res3a_branch2b_relu <- res3a_branch2b
I1130 23:44:49.541307 11291 net.cpp:395] res3a_branch2b_relu -> res3a_branch2b (in-place)
I1130 23:44:49.541415 11291 net.cpp:150] Setting up res3a_branch2b_relu
I1130 23:44:49.541420 11291 net.cpp:157] Top shape: 6 128 28 28 (602112)
I1130 23:44:49.541422 11291 net.cpp:165] Memory required for data: 721330200
I1130 23:44:49.541424 11291 layer_factory.hpp:77] Creating layer res3a_branch2c
I1130 23:44:49.541429 11291 net.cpp:100] Creating Layer res3a_branch2c
I1130 23:44:49.541430 11291 net.cpp:434] res3a_branch2c <- res3a_branch2b
I1130 23:44:49.541435 11291 net.cpp:408] res3a_branch2c -> res3a_branch2c
I1130 23:44:49.542243 11291 net.cpp:150] Setting up res3a_branch2c
I1130 23:44:49.542248 11291 net.cpp:157] Top shape: 6 512 28 28 (2408448)
I1130 23:44:49.542250 11291 net.cpp:165] Memory required for data: 730963992
I1130 23:44:49.542253 11291 layer_factory.hpp:77] Creating layer bn3a_branch2c
I1130 23:44:49.542263 11291 net.cpp:100] Creating Layer bn3a_branch2c
I1130 23:44:49.542265 11291 net.cpp:434] bn3a_branch2c <- res3a_branch2c
I1130 23:44:49.542268 11291 net.cpp:395] bn3a_branch2c -> res3a_branch2c (in-place)
I1130 23:44:49.542379 11291 net.cpp:150] Setting up bn3a_branch2c
I1130 23:44:49.542382 11291 net.cpp:157] Top shape: 6 512 28 28 (2408448)
I1130 23:44:49.542384 11291 net.cpp:165] Memory required for data: 740597784
I1130 23:44:49.542388 11291 layer_factory.hpp:77] Creating layer scale3a_branch2c
I1130 23:44:49.542392 11291 net.cpp:100] Creating Layer scale3a_branch2c
I1130 23:44:49.542393 11291 net.cpp:434] scale3a_branch2c <- res3a_branch2c
I1130 23:44:49.542397 11291 net.cpp:395] scale3a_branch2c -> res3a_branch2c (in-place)
I1130 23:44:49.542418 11291 layer_factory.hpp:77] Creating layer scale3a_branch2c
I1130 23:44:49.542480 11291 net.cpp:150] Setting up scale3a_branch2c
I1130 23:44:49.542484 11291 net.cpp:157] Top shape: 6 512 28 28 (2408448)
I1130 23:44:49.542486 11291 net.cpp:165] Memory required for data: 750231576
I1130 23:44:49.542489 11291 layer_factory.hpp:77] Creating layer res3a
I1130 23:44:49.542492 11291 net.cpp:100] Creating Layer res3a
I1130 23:44:49.542495 11291 net.cpp:434] res3a <- res3a_branch1
I1130 23:44:49.542496 11291 net.cpp:434] res3a <- res3a_branch2c
I1130 23:44:49.542500 11291 net.cpp:408] res3a -> res3a
I1130 23:44:49.542512 11291 net.cpp:150] Setting up res3a
I1130 23:44:49.542515 11291 net.cpp:157] Top shape: 6 512 28 28 (2408448)
I1130 23:44:49.542517 11291 net.cpp:165] Memory required for data: 759865368
I1130 23:44:49.542520 11291 layer_factory.hpp:77] Creating layer res3a_relu
I1130 23:44:49.542521 11291 net.cpp:100] Creating Layer res3a_relu
I1130 23:44:49.542523 11291 net.cpp:434] res3a_relu <- res3a
I1130 23:44:49.542526 11291 net.cpp:395] res3a_relu -> res3a (in-place)
I1130 23:44:49.542639 11291 net.cpp:150] Setting up res3a_relu
I1130 23:44:49.542642 11291 net.cpp:157] Top shape: 6 512 28 28 (2408448)
I1130 23:44:49.542644 11291 net.cpp:165] Memory required for data: 769499160
I1130 23:44:49.542646 11291 layer_factory.hpp:77] Creating layer res3a_res3a_relu_0_split
I1130 23:44:49.542649 11291 net.cpp:100] Creating Layer res3a_res3a_relu_0_split
I1130 23:44:49.542650 11291 net.cpp:434] res3a_res3a_relu_0_split <- res3a
I1130 23:44:49.542654 11291 net.cpp:408] res3a_res3a_relu_0_split -> res3a_res3a_relu_0_split_0
I1130 23:44:49.542665 11291 net.cpp:408] res3a_res3a_relu_0_split -> res3a_res3a_relu_0_split_1
I1130 23:44:49.542687 11291 net.cpp:150] Setting up res3a_res3a_relu_0_split
I1130 23:44:49.542690 11291 net.cpp:157] Top shape: 6 512 28 28 (2408448)
I1130 23:44:49.542692 11291 net.cpp:157] Top shape: 6 512 28 28 (2408448)
I1130 23:44:49.542695 11291 net.cpp:165] Memory required for data: 788766744
I1130 23:44:49.542696 11291 layer_factory.hpp:77] Creating layer res3b1_branch2a
I1130 23:44:49.542701 11291 net.cpp:100] Creating Layer res3b1_branch2a
I1130 23:44:49.542702 11291 net.cpp:434] res3b1_branch2a <- res3a_res3a_relu_0_split_0
I1130 23:44:49.542707 11291 net.cpp:408] res3b1_branch2a -> res3b1_branch2a
I1130 23:44:49.543501 11291 net.cpp:150] Setting up res3b1_branch2a
I1130 23:44:49.543509 11291 net.cpp:157] Top shape: 6 128 28 28 (602112)
I1130 23:44:49.543510 11291 net.cpp:165] Memory required for data: 791175192
I1130 23:44:49.543514 11291 layer_factory.hpp:77] Creating layer bn3b1_branch2a
I1130 23:44:49.543516 11291 net.cpp:100] Creating Layer bn3b1_branch2a
I1130 23:44:49.543519 11291 net.cpp:434] bn3b1_branch2a <- res3b1_branch2a
I1130 23:44:49.543521 11291 net.cpp:395] bn3b1_branch2a -> res3b1_branch2a (in-place)
I1130 23:44:49.543635 11291 net.cpp:150] Setting up bn3b1_branch2a
I1130 23:44:49.543638 11291 net.cpp:157] Top shape: 6 128 28 28 (602112)
I1130 23:44:49.543640 11291 net.cpp:165] Memory required for data: 793583640
I1130 23:44:49.543643 11291 layer_factory.hpp:77] Creating layer scale3b1_branch2a
I1130 23:44:49.543647 11291 net.cpp:100] Creating Layer scale3b1_branch2a
I1130 23:44:49.543648 11291 net.cpp:434] scale3b1_branch2a <- res3b1_branch2a
I1130 23:44:49.543650 11291 net.cpp:395] scale3b1_branch2a -> res3b1_branch2a (in-place)
I1130 23:44:49.543673 11291 layer_factory.hpp:77] Creating layer scale3b1_branch2a
I1130 23:44:49.543736 11291 net.cpp:150] Setting up scale3b1_branch2a
I1130 23:44:49.543740 11291 net.cpp:157] Top shape: 6 128 28 28 (602112)
I1130 23:44:49.543741 11291 net.cpp:165] Memory required for data: 795992088
I1130 23:44:49.543745 11291 layer_factory.hpp:77] Creating layer res3b1_branch2a_relu
I1130 23:44:49.543747 11291 net.cpp:100] Creating Layer res3b1_branch2a_relu
I1130 23:44:49.543750 11291 net.cpp:434] res3b1_branch2a_relu <- res3b1_branch2a
I1130 23:44:49.543751 11291 net.cpp:395] res3b1_branch2a_relu -> res3b1_branch2a (in-place)
I1130 23:44:49.543864 11291 net.cpp:150] Setting up res3b1_branch2a_relu
I1130 23:44:49.543870 11291 net.cpp:157] Top shape: 6 128 28 28 (602112)
I1130 23:44:49.543871 11291 net.cpp:165] Memory required for data: 798400536
I1130 23:44:49.543874 11291 layer_factory.hpp:77] Creating layer res3b1_branch2b
I1130 23:44:49.543879 11291 net.cpp:100] Creating Layer res3b1_branch2b
I1130 23:44:49.543880 11291 net.cpp:434] res3b1_branch2b <- res3b1_branch2a
I1130 23:44:49.543884 11291 net.cpp:408] res3b1_branch2b -> res3b1_branch2b
I1130 23:44:49.545575 11291 net.cpp:150] Setting up res3b1_branch2b
I1130 23:44:49.545581 11291 net.cpp:157] Top shape: 6 128 28 28 (602112)
I1130 23:44:49.545583 11291 net.cpp:165] Memory required for data: 800808984
I1130 23:44:49.545588 11291 layer_factory.hpp:77] Creating layer bn3b1_branch2b
I1130 23:44:49.545591 11291 net.cpp:100] Creating Layer bn3b1_branch2b
I1130 23:44:49.545593 11291 net.cpp:434] bn3b1_branch2b <- res3b1_branch2b
I1130 23:44:49.545596 11291 net.cpp:395] bn3b1_branch2b -> res3b1_branch2b (in-place)
I1130 23:44:49.545716 11291 net.cpp:150] Setting up bn3b1_branch2b
I1130 23:44:49.545718 11291 net.cpp:157] Top shape: 6 128 28 28 (602112)
I1130 23:44:49.545719 11291 net.cpp:165] Memory required for data: 803217432
I1130 23:44:49.545724 11291 layer_factory.hpp:77] Creating layer scale3b1_branch2b
I1130 23:44:49.545727 11291 net.cpp:100] Creating Layer scale3b1_branch2b
I1130 23:44:49.545728 11291 net.cpp:434] scale3b1_branch2b <- res3b1_branch2b
I1130 23:44:49.545732 11291 net.cpp:395] scale3b1_branch2b -> res3b1_branch2b (in-place)
I1130 23:44:49.545753 11291 layer_factory.hpp:77] Creating layer scale3b1_branch2b
I1130 23:44:49.545826 11291 net.cpp:150] Setting up scale3b1_branch2b
I1130 23:44:49.545830 11291 net.cpp:157] Top shape: 6 128 28 28 (602112)
I1130 23:44:49.545831 11291 net.cpp:165] Memory required for data: 805625880
I1130 23:44:49.545835 11291 layer_factory.hpp:77] Creating layer res3b1_branch2b_relu
I1130 23:44:49.545838 11291 net.cpp:100] Creating Layer res3b1_branch2b_relu
I1130 23:44:49.545840 11291 net.cpp:434] res3b1_branch2b_relu <- res3b1_branch2b
I1130 23:44:49.545842 11291 net.cpp:395] res3b1_branch2b_relu -> res3b1_branch2b (in-place)
I1130 23:44:49.545951 11291 net.cpp:150] Setting up res3b1_branch2b_relu
I1130 23:44:49.545956 11291 net.cpp:157] Top shape: 6 128 28 28 (602112)
I1130 23:44:49.545958 11291 net.cpp:165] Memory required for data: 808034328
I1130 23:44:49.545959 11291 layer_factory.hpp:77] Creating layer res3b1_branch2c
I1130 23:44:49.545964 11291 net.cpp:100] Creating Layer res3b1_branch2c
I1130 23:44:49.545966 11291 net.cpp:434] res3b1_branch2c <- res3b1_branch2b
I1130 23:44:49.545969 11291 net.cpp:408] res3b1_branch2c -> res3b1_branch2c
I1130 23:44:49.546782 11291 net.cpp:150] Setting up res3b1_branch2c
I1130 23:44:49.546787 11291 net.cpp:157] Top shape: 6 512 28 28 (2408448)
I1130 23:44:49.546789 11291 net.cpp:165] Memory required for data: 817668120
I1130 23:44:49.546792 11291 layer_factory.hpp:77] Creating layer bn3b1_branch2c
I1130 23:44:49.546797 11291 net.cpp:100] Creating Layer bn3b1_branch2c
I1130 23:44:49.546798 11291 net.cpp:434] bn3b1_branch2c <- res3b1_branch2c
I1130 23:44:49.546802 11291 net.cpp:395] bn3b1_branch2c -> res3b1_branch2c (in-place)
I1130 23:44:49.546916 11291 net.cpp:150] Setting up bn3b1_branch2c
I1130 23:44:49.546918 11291 net.cpp:157] Top shape: 6 512 28 28 (2408448)
I1130 23:44:49.546921 11291 net.cpp:165] Memory required for data: 827301912
I1130 23:44:49.546924 11291 layer_factory.hpp:77] Creating layer scale3b1_branch2c
I1130 23:44:49.546926 11291 net.cpp:100] Creating Layer scale3b1_branch2c
I1130 23:44:49.546928 11291 net.cpp:434] scale3b1_branch2c <- res3b1_branch2c
I1130 23:44:49.546931 11291 net.cpp:395] scale3b1_branch2c -> res3b1_branch2c (in-place)
I1130 23:44:49.546955 11291 layer_factory.hpp:77] Creating layer scale3b1_branch2c
I1130 23:44:49.547019 11291 net.cpp:150] Setting up scale3b1_branch2c
I1130 23:44:49.547022 11291 net.cpp:157] Top shape: 6 512 28 28 (2408448)
I1130 23:44:49.547024 11291 net.cpp:165] Memory required for data: 836935704
I1130 23:44:49.547027 11291 layer_factory.hpp:77] Creating layer res3b1
I1130 23:44:49.547030 11291 net.cpp:100] Creating Layer res3b1
I1130 23:44:49.547031 11291 net.cpp:434] res3b1 <- res3a_res3a_relu_0_split_1
I1130 23:44:49.547034 11291 net.cpp:434] res3b1 <- res3b1_branch2c
I1130 23:44:49.547039 11291 net.cpp:408] res3b1 -> res3b1
I1130 23:44:49.547051 11291 net.cpp:150] Setting up res3b1
I1130 23:44:49.547055 11291 net.cpp:157] Top shape: 6 512 28 28 (2408448)
I1130 23:44:49.547057 11291 net.cpp:165] Memory required for data: 846569496
I1130 23:44:49.547060 11291 layer_factory.hpp:77] Creating layer res3b1_relu
I1130 23:44:49.547061 11291 net.cpp:100] Creating Layer res3b1_relu
I1130 23:44:49.547063 11291 net.cpp:434] res3b1_relu <- res3b1
I1130 23:44:49.547065 11291 net.cpp:395] res3b1_relu -> res3b1 (in-place)
I1130 23:44:49.547312 11291 net.cpp:150] Setting up res3b1_relu
I1130 23:44:49.547318 11291 net.cpp:157] Top shape: 6 512 28 28 (2408448)
I1130 23:44:49.547319 11291 net.cpp:165] Memory required for data: 856203288
I1130 23:44:49.547322 11291 layer_factory.hpp:77] Creating layer res3b1_res3b1_relu_0_split
I1130 23:44:49.547325 11291 net.cpp:100] Creating Layer res3b1_res3b1_relu_0_split
I1130 23:44:49.547327 11291 net.cpp:434] res3b1_res3b1_relu_0_split <- res3b1
I1130 23:44:49.547330 11291 net.cpp:408] res3b1_res3b1_relu_0_split -> res3b1_res3b1_relu_0_split_0
I1130 23:44:49.547334 11291 net.cpp:408] res3b1_res3b1_relu_0_split -> res3b1_res3b1_relu_0_split_1
I1130 23:44:49.547358 11291 net.cpp:150] Setting up res3b1_res3b1_relu_0_split
I1130 23:44:49.547368 11291 net.cpp:157] Top shape: 6 512 28 28 (2408448)
I1130 23:44:49.547370 11291 net.cpp:157] Top shape: 6 512 28 28 (2408448)
I1130 23:44:49.547371 11291 net.cpp:165] Memory required for data: 875470872
I1130 23:44:49.547374 11291 layer_factory.hpp:77] Creating layer res3b2_branch2a
I1130 23:44:49.547379 11291 net.cpp:100] Creating Layer res3b2_branch2a
I1130 23:44:49.547381 11291 net.cpp:434] res3b2_branch2a <- res3b1_res3b1_relu_0_split_0
I1130 23:44:49.547384 11291 net.cpp:408] res3b2_branch2a -> res3b2_branch2a
I1130 23:44:49.548197 11291 net.cpp:150] Setting up res3b2_branch2a
I1130 23:44:49.548203 11291 net.cpp:157] Top shape: 6 128 28 28 (602112)
I1130 23:44:49.548205 11291 net.cpp:165] Memory required for data: 877879320
I1130 23:44:49.548208 11291 layer_factory.hpp:77] Creating layer bn3b2_branch2a
I1130 23:44:49.548213 11291 net.cpp:100] Creating Layer bn3b2_branch2a
I1130 23:44:49.548214 11291 net.cpp:434] bn3b2_branch2a <- res3b2_branch2a
I1130 23:44:49.548218 11291 net.cpp:395] bn3b2_branch2a -> res3b2_branch2a (in-place)
I1130 23:44:49.548331 11291 net.cpp:150] Setting up bn3b2_branch2a
I1130 23:44:49.548334 11291 net.cpp:157] Top shape: 6 128 28 28 (602112)
I1130 23:44:49.548336 11291 net.cpp:165] Memory required for data: 880287768
I1130 23:44:49.548339 11291 layer_factory.hpp:77] Creating layer scale3b2_branch2a
I1130 23:44:49.548342 11291 net.cpp:100] Creating Layer scale3b2_branch2a
I1130 23:44:49.548344 11291 net.cpp:434] scale3b2_branch2a <- res3b2_branch2a
I1130 23:44:49.548347 11291 net.cpp:395] scale3b2_branch2a -> res3b2_branch2a (in-place)
I1130 23:44:49.548369 11291 layer_factory.hpp:77] Creating layer scale3b2_branch2a
I1130 23:44:49.548434 11291 net.cpp:150] Setting up scale3b2_branch2a
I1130 23:44:49.548439 11291 net.cpp:157] Top shape: 6 128 28 28 (602112)
I1130 23:44:49.548440 11291 net.cpp:165] Memory required for data: 882696216
I1130 23:44:49.548444 11291 layer_factory.hpp:77] Creating layer res3b2_branch2a_relu
I1130 23:44:49.548445 11291 net.cpp:100] Creating Layer res3b2_branch2a_relu
I1130 23:44:49.548447 11291 net.cpp:434] res3b2_branch2a_relu <- res3b2_branch2a
I1130 23:44:49.548449 11291 net.cpp:395] res3b2_branch2a_relu -> res3b2_branch2a (in-place)
I1130 23:44:49.548558 11291 net.cpp:150] Setting up res3b2_branch2a_relu
I1130 23:44:49.548563 11291 net.cpp:157] Top shape: 6 128 28 28 (602112)
I1130 23:44:49.548564 11291 net.cpp:165] Memory required for data: 885104664
I1130 23:44:49.548565 11291 layer_factory.hpp:77] Creating layer res3b2_branch2b
I1130 23:44:49.548570 11291 net.cpp:100] Creating Layer res3b2_branch2b
I1130 23:44:49.548573 11291 net.cpp:434] res3b2_branch2b <- res3b2_branch2a
I1130 23:44:49.548576 11291 net.cpp:408] res3b2_branch2b -> res3b2_branch2b
I1130 23:44:49.549794 11291 net.cpp:150] Setting up res3b2_branch2b
I1130 23:44:49.549801 11291 net.cpp:157] Top shape: 6 128 28 28 (602112)
I1130 23:44:49.549803 11291 net.cpp:165] Memory required for data: 887513112
I1130 23:44:49.549806 11291 layer_factory.hpp:77] Creating layer bn3b2_branch2b
I1130 23:44:49.549809 11291 net.cpp:100] Creating Layer bn3b2_branch2b
I1130 23:44:49.549810 11291 net.cpp:434] bn3b2_branch2b <- res3b2_branch2b
I1130 23:44:49.549814 11291 net.cpp:395] bn3b2_branch2b -> res3b2_branch2b (in-place)
I1130 23:44:49.549932 11291 net.cpp:150] Setting up bn3b2_branch2b
I1130 23:44:49.549935 11291 net.cpp:157] Top shape: 6 128 28 28 (602112)
I1130 23:44:49.549937 11291 net.cpp:165] Memory required for data: 889921560
I1130 23:44:49.549942 11291 layer_factory.hpp:77] Creating layer scale3b2_branch2b
I1130 23:44:49.549944 11291 net.cpp:100] Creating Layer scale3b2_branch2b
I1130 23:44:49.549947 11291 net.cpp:434] scale3b2_branch2b <- res3b2_branch2b
I1130 23:44:49.549948 11291 net.cpp:395] scale3b2_branch2b -> res3b2_branch2b (in-place)
I1130 23:44:49.549970 11291 layer_factory.hpp:77] Creating layer scale3b2_branch2b
I1130 23:44:49.550035 11291 net.cpp:150] Setting up scale3b2_branch2b
I1130 23:44:49.550040 11291 net.cpp:157] Top shape: 6 128 28 28 (602112)
I1130 23:44:49.550046 11291 net.cpp:165] Memory required for data: 892330008
I1130 23:44:49.550050 11291 layer_factory.hpp:77] Creating layer res3b2_branch2b_relu
I1130 23:44:49.550053 11291 net.cpp:100] Creating Layer res3b2_branch2b_relu
I1130 23:44:49.550055 11291 net.cpp:434] res3b2_branch2b_relu <- res3b2_branch2b
I1130 23:44:49.550060 11291 net.cpp:395] res3b2_branch2b_relu -> res3b2_branch2b (in-place)
I1130 23:44:49.550166 11291 net.cpp:150] Setting up res3b2_branch2b_relu
I1130 23:44:49.550170 11291 net.cpp:157] Top shape: 6 128 28 28 (602112)
I1130 23:44:49.550173 11291 net.cpp:165] Memory required for data: 894738456
I1130 23:44:49.550173 11291 layer_factory.hpp:77] Creating layer res3b2_branch2c
I1130 23:44:49.550179 11291 net.cpp:100] Creating Layer res3b2_branch2c
I1130 23:44:49.550180 11291 net.cpp:434] res3b2_branch2c <- res3b2_branch2b
I1130 23:44:49.550184 11291 net.cpp:408] res3b2_branch2c -> res3b2_branch2c
I1130 23:44:49.551010 11291 net.cpp:150] Setting up res3b2_branch2c
I1130 23:44:49.551017 11291 net.cpp:157] Top shape: 6 512 28 28 (2408448)
I1130 23:44:49.551018 11291 net.cpp:165] Memory required for data: 904372248
I1130 23:44:49.551021 11291 layer_factory.hpp:77] Creating layer bn3b2_branch2c
I1130 23:44:49.551025 11291 net.cpp:100] Creating Layer bn3b2_branch2c
I1130 23:44:49.551026 11291 net.cpp:434] bn3b2_branch2c <- res3b2_branch2c
I1130 23:44:49.551030 11291 net.cpp:395] bn3b2_branch2c -> res3b2_branch2c (in-place)
I1130 23:44:49.551147 11291 net.cpp:150] Setting up bn3b2_branch2c
I1130 23:44:49.551151 11291 net.cpp:157] Top shape: 6 512 28 28 (2408448)
I1130 23:44:49.551151 11291 net.cpp:165] Memory required for data: 914006040
I1130 23:44:49.551156 11291 layer_factory.hpp:77] Creating layer scale3b2_branch2c
I1130 23:44:49.551158 11291 net.cpp:100] Creating Layer scale3b2_branch2c
I1130 23:44:49.551161 11291 net.cpp:434] scale3b2_branch2c <- res3b2_branch2c
I1130 23:44:49.551163 11291 net.cpp:395] scale3b2_branch2c -> res3b2_branch2c (in-place)
I1130 23:44:49.551187 11291 layer_factory.hpp:77] Creating layer scale3b2_branch2c
I1130 23:44:49.551251 11291 net.cpp:150] Setting up scale3b2_branch2c
I1130 23:44:49.551255 11291 net.cpp:157] Top shape: 6 512 28 28 (2408448)
I1130 23:44:49.551256 11291 net.cpp:165] Memory required for data: 923639832
I1130 23:44:49.551260 11291 layer_factory.hpp:77] Creating layer res3b2
I1130 23:44:49.551262 11291 net.cpp:100] Creating Layer res3b2
I1130 23:44:49.551265 11291 net.cpp:434] res3b2 <- res3b1_res3b1_relu_0_split_1
I1130 23:44:49.551266 11291 net.cpp:434] res3b2 <- res3b2_branch2c
I1130 23:44:49.551270 11291 net.cpp:408] res3b2 -> res3b2
I1130 23:44:49.551283 11291 net.cpp:150] Setting up res3b2
I1130 23:44:49.551286 11291 net.cpp:157] Top shape: 6 512 28 28 (2408448)
I1130 23:44:49.551288 11291 net.cpp:165] Memory required for data: 933273624
I1130 23:44:49.551290 11291 layer_factory.hpp:77] Creating layer res3b2_relu
I1130 23:44:49.551293 11291 net.cpp:100] Creating Layer res3b2_relu
I1130 23:44:49.551295 11291 net.cpp:434] res3b2_relu <- res3b2
I1130 23:44:49.551297 11291 net.cpp:395] res3b2_relu -> res3b2 (in-place)
I1130 23:44:49.551404 11291 net.cpp:150] Setting up res3b2_relu
I1130 23:44:49.551409 11291 net.cpp:157] Top shape: 6 512 28 28 (2408448)
I1130 23:44:49.551409 11291 net.cpp:165] Memory required for data: 942907416
I1130 23:44:49.551411 11291 layer_factory.hpp:77] Creating layer res3b2_res3b2_relu_0_split
I1130 23:44:49.551415 11291 net.cpp:100] Creating Layer res3b2_res3b2_relu_0_split
I1130 23:44:49.551416 11291 net.cpp:434] res3b2_res3b2_relu_0_split <- res3b2
I1130 23:44:49.551419 11291 net.cpp:408] res3b2_res3b2_relu_0_split -> res3b2_res3b2_relu_0_split_0
I1130 23:44:49.551424 11291 net.cpp:408] res3b2_res3b2_relu_0_split -> res3b2_res3b2_relu_0_split_1
I1130 23:44:49.551448 11291 net.cpp:150] Setting up res3b2_res3b2_relu_0_split
I1130 23:44:49.551451 11291 net.cpp:157] Top shape: 6 512 28 28 (2408448)
I1130 23:44:49.551453 11291 net.cpp:157] Top shape: 6 512 28 28 (2408448)
I1130 23:44:49.551455 11291 net.cpp:165] Memory required for data: 962175000
I1130 23:44:49.551461 11291 layer_factory.hpp:77] Creating layer res3b3_branch2a
I1130 23:44:49.551467 11291 net.cpp:100] Creating Layer res3b3_branch2a
I1130 23:44:49.551470 11291 net.cpp:434] res3b3_branch2a <- res3b2_res3b2_relu_0_split_0
I1130 23:44:49.551472 11291 net.cpp:408] res3b3_branch2a -> res3b3_branch2a
I1130 23:44:49.552814 11291 net.cpp:150] Setting up res3b3_branch2a
I1130 23:44:49.552824 11291 net.cpp:157] Top shape: 6 128 28 28 (602112)
I1130 23:44:49.552825 11291 net.cpp:165] Memory required for data: 964583448
I1130 23:44:49.552829 11291 layer_factory.hpp:77] Creating layer bn3b3_branch2a
I1130 23:44:49.552834 11291 net.cpp:100] Creating Layer bn3b3_branch2a
I1130 23:44:49.552835 11291 net.cpp:434] bn3b3_branch2a <- res3b3_branch2a
I1130 23:44:49.552839 11291 net.cpp:395] bn3b3_branch2a -> res3b3_branch2a (in-place)
I1130 23:44:49.552963 11291 net.cpp:150] Setting up bn3b3_branch2a
I1130 23:44:49.552965 11291 net.cpp:157] Top shape: 6 128 28 28 (602112)
I1130 23:44:49.552968 11291 net.cpp:165] Memory required for data: 966991896
I1130 23:44:49.552980 11291 layer_factory.hpp:77] Creating layer scale3b3_branch2a
I1130 23:44:49.552984 11291 net.cpp:100] Creating Layer scale3b3_branch2a
I1130 23:44:49.552986 11291 net.cpp:434] scale3b3_branch2a <- res3b3_branch2a
I1130 23:44:49.552989 11291 net.cpp:395] scale3b3_branch2a -> res3b3_branch2a (in-place)
I1130 23:44:49.553015 11291 layer_factory.hpp:77] Creating layer scale3b3_branch2a
I1130 23:44:49.553081 11291 net.cpp:150] Setting up scale3b3_branch2a
I1130 23:44:49.553084 11291 net.cpp:157] Top shape: 6 128 28 28 (602112)
I1130 23:44:49.553086 11291 net.cpp:165] Memory required for data: 969400344
I1130 23:44:49.553089 11291 layer_factory.hpp:77] Creating layer res3b3_branch2a_relu
I1130 23:44:49.553092 11291 net.cpp:100] Creating Layer res3b3_branch2a_relu
I1130 23:44:49.553094 11291 net.cpp:434] res3b3_branch2a_relu <- res3b3_branch2a
I1130 23:44:49.553097 11291 net.cpp:395] res3b3_branch2a_relu -> res3b3_branch2a (in-place)
I1130 23:44:49.553206 11291 net.cpp:150] Setting up res3b3_branch2a_relu
I1130 23:44:49.553210 11291 net.cpp:157] Top shape: 6 128 28 28 (602112)
I1130 23:44:49.553212 11291 net.cpp:165] Memory required for data: 971808792
I1130 23:44:49.553213 11291 layer_factory.hpp:77] Creating layer res3b3_branch2b
I1130 23:44:49.553220 11291 net.cpp:100] Creating Layer res3b3_branch2b
I1130 23:44:49.553221 11291 net.cpp:434] res3b3_branch2b <- res3b3_branch2a
I1130 23:44:49.553225 11291 net.cpp:408] res3b3_branch2b -> res3b3_branch2b
I1130 23:44:49.554471 11291 net.cpp:150] Setting up res3b3_branch2b
I1130 23:44:49.554476 11291 net.cpp:157] Top shape: 6 128 28 28 (602112)
I1130 23:44:49.554477 11291 net.cpp:165] Memory required for data: 974217240
I1130 23:44:49.554481 11291 layer_factory.hpp:77] Creating layer bn3b3_branch2b
I1130 23:44:49.554484 11291 net.cpp:100] Creating Layer bn3b3_branch2b
I1130 23:44:49.554486 11291 net.cpp:434] bn3b3_branch2b <- res3b3_branch2b
I1130 23:44:49.554491 11291 net.cpp:395] bn3b3_branch2b -> res3b3_branch2b (in-place)
I1130 23:44:49.554615 11291 net.cpp:150] Setting up bn3b3_branch2b
I1130 23:44:49.554617 11291 net.cpp:157] Top shape: 6 128 28 28 (602112)
I1130 23:44:49.554620 11291 net.cpp:165] Memory required for data: 976625688
I1130 23:44:49.554623 11291 layer_factory.hpp:77] Creating layer scale3b3_branch2b
I1130 23:44:49.554626 11291 net.cpp:100] Creating Layer scale3b3_branch2b
I1130 23:44:49.554627 11291 net.cpp:434] scale3b3_branch2b <- res3b3_branch2b
I1130 23:44:49.554630 11291 net.cpp:395] scale3b3_branch2b -> res3b3_branch2b (in-place)
I1130 23:44:49.554654 11291 layer_factory.hpp:77] Creating layer scale3b3_branch2b
I1130 23:44:49.554720 11291 net.cpp:150] Setting up scale3b3_branch2b
I1130 23:44:49.554723 11291 net.cpp:157] Top shape: 6 128 28 28 (602112)
I1130 23:44:49.554725 11291 net.cpp:165] Memory required for data: 979034136
I1130 23:44:49.554728 11291 layer_factory.hpp:77] Creating layer res3b3_branch2b_relu
I1130 23:44:49.554731 11291 net.cpp:100] Creating Layer res3b3_branch2b_relu
I1130 23:44:49.554744 11291 net.cpp:434] res3b3_branch2b_relu <- res3b3_branch2b
I1130 23:44:49.554747 11291 net.cpp:395] res3b3_branch2b_relu -> res3b3_branch2b (in-place)
I1130 23:44:49.554857 11291 net.cpp:150] Setting up res3b3_branch2b_relu
I1130 23:44:49.554862 11291 net.cpp:157] Top shape: 6 128 28 28 (602112)
I1130 23:44:49.554863 11291 net.cpp:165] Memory required for data: 981442584
I1130 23:44:49.554864 11291 layer_factory.hpp:77] Creating layer res3b3_branch2c
I1130 23:44:49.554869 11291 net.cpp:100] Creating Layer res3b3_branch2c
I1130 23:44:49.554872 11291 net.cpp:434] res3b3_branch2c <- res3b3_branch2b
I1130 23:44:49.554875 11291 net.cpp:408] res3b3_branch2c -> res3b3_branch2c
I1130 23:44:49.555699 11291 net.cpp:150] Setting up res3b3_branch2c
I1130 23:44:49.555704 11291 net.cpp:157] Top shape: 6 512 28 28 (2408448)
I1130 23:44:49.555706 11291 net.cpp:165] Memory required for data: 991076376
I1130 23:44:49.555711 11291 layer_factory.hpp:77] Creating layer bn3b3_branch2c
I1130 23:44:49.555714 11291 net.cpp:100] Creating Layer bn3b3_branch2c
I1130 23:44:49.555716 11291 net.cpp:434] bn3b3_branch2c <- res3b3_branch2c
I1130 23:44:49.555718 11291 net.cpp:395] bn3b3_branch2c -> res3b3_branch2c (in-place)
I1130 23:44:49.555840 11291 net.cpp:150] Setting up bn3b3_branch2c
I1130 23:44:49.555843 11291 net.cpp:157] Top shape: 6 512 28 28 (2408448)
I1130 23:44:49.555845 11291 net.cpp:165] Memory required for data: 1000710168
I1130 23:44:49.555848 11291 layer_factory.hpp:77] Creating layer scale3b3_branch2c
I1130 23:44:49.555860 11291 net.cpp:100] Creating Layer scale3b3_branch2c
I1130 23:44:49.555861 11291 net.cpp:434] scale3b3_branch2c <- res3b3_branch2c
I1130 23:44:49.555863 11291 net.cpp:395] scale3b3_branch2c -> res3b3_branch2c (in-place)
I1130 23:44:49.555891 11291 layer_factory.hpp:77] Creating layer scale3b3_branch2c
I1130 23:44:49.555958 11291 net.cpp:150] Setting up scale3b3_branch2c
I1130 23:44:49.555961 11291 net.cpp:157] Top shape: 6 512 28 28 (2408448)
I1130 23:44:49.555963 11291 net.cpp:165] Memory required for data: 1010343960
I1130 23:44:49.555966 11291 layer_factory.hpp:77] Creating layer res3b3
I1130 23:44:49.555970 11291 net.cpp:100] Creating Layer res3b3
I1130 23:44:49.555972 11291 net.cpp:434] res3b3 <- res3b2_res3b2_relu_0_split_1
I1130 23:44:49.555974 11291 net.cpp:434] res3b3 <- res3b3_branch2c
I1130 23:44:49.555976 11291 net.cpp:408] res3b3 -> res3b3
I1130 23:44:49.555992 11291 net.cpp:150] Setting up res3b3
I1130 23:44:49.555994 11291 net.cpp:157] Top shape: 6 512 28 28 (2408448)
I1130 23:44:49.555996 11291 net.cpp:165] Memory required for data: 1019977752
I1130 23:44:49.555997 11291 layer_factory.hpp:77] Creating layer res3b3_relu
I1130 23:44:49.556000 11291 net.cpp:100] Creating Layer res3b3_relu
I1130 23:44:49.556002 11291 net.cpp:434] res3b3_relu <- res3b3
I1130 23:44:49.556005 11291 net.cpp:395] res3b3_relu -> res3b3 (in-place)
I1130 23:44:49.556253 11291 net.cpp:150] Setting up res3b3_relu
I1130 23:44:49.556259 11291 net.cpp:157] Top shape: 6 512 28 28 (2408448)
I1130 23:44:49.556262 11291 net.cpp:165] Memory required for data: 1029611544
I1130 23:44:49.556262 11291 layer_factory.hpp:77] Creating layer res3b3_res3b3_relu_0_split
I1130 23:44:49.556267 11291 net.cpp:100] Creating Layer res3b3_res3b3_relu_0_split
I1130 23:44:49.556268 11291 net.cpp:434] res3b3_res3b3_relu_0_split <- res3b3
I1130 23:44:49.556272 11291 net.cpp:408] res3b3_res3b3_relu_0_split -> res3b3_res3b3_relu_0_split_0
I1130 23:44:49.556275 11291 net.cpp:408] res3b3_res3b3_relu_0_split -> res3b3_res3b3_relu_0_split_1
I1130 23:44:49.556300 11291 net.cpp:150] Setting up res3b3_res3b3_relu_0_split
I1130 23:44:49.556304 11291 net.cpp:157] Top shape: 6 512 28 28 (2408448)
I1130 23:44:49.556306 11291 net.cpp:157] Top shape: 6 512 28 28 (2408448)
I1130 23:44:49.556308 11291 net.cpp:165] Memory required for data: 1048879128
I1130 23:44:49.556309 11291 layer_factory.hpp:77] Creating layer res3b4_branch2a
I1130 23:44:49.556314 11291 net.cpp:100] Creating Layer res3b4_branch2a
I1130 23:44:49.556316 11291 net.cpp:434] res3b4_branch2a <- res3b3_res3b3_relu_0_split_0
I1130 23:44:49.556327 11291 net.cpp:408] res3b4_branch2a -> res3b4_branch2a
I1130 23:44:49.557137 11291 net.cpp:150] Setting up res3b4_branch2a
I1130 23:44:49.557143 11291 net.cpp:157] Top shape: 6 128 28 28 (602112)
I1130 23:44:49.557144 11291 net.cpp:165] Memory required for data: 1051287576
I1130 23:44:49.557148 11291 layer_factory.hpp:77] Creating layer bn3b4_branch2a
I1130 23:44:49.557152 11291 net.cpp:100] Creating Layer bn3b4_branch2a
I1130 23:44:49.557154 11291 net.cpp:434] bn3b4_branch2a <- res3b4_branch2a
I1130 23:44:49.557157 11291 net.cpp:395] bn3b4_branch2a -> res3b4_branch2a (in-place)
I1130 23:44:49.557274 11291 net.cpp:150] Setting up bn3b4_branch2a
I1130 23:44:49.557277 11291 net.cpp:157] Top shape: 6 128 28 28 (602112)
I1130 23:44:49.557279 11291 net.cpp:165] Memory required for data: 1053696024
I1130 23:44:49.557283 11291 layer_factory.hpp:77] Creating layer scale3b4_branch2a
I1130 23:44:49.557286 11291 net.cpp:100] Creating Layer scale3b4_branch2a
I1130 23:44:49.557288 11291 net.cpp:434] scale3b4_branch2a <- res3b4_branch2a
I1130 23:44:49.557291 11291 net.cpp:395] scale3b4_branch2a -> res3b4_branch2a (in-place)
I1130 23:44:49.557314 11291 layer_factory.hpp:77] Creating layer scale3b4_branch2a
I1130 23:44:49.557382 11291 net.cpp:150] Setting up scale3b4_branch2a
I1130 23:44:49.557386 11291 net.cpp:157] Top shape: 6 128 28 28 (602112)
I1130 23:44:49.557387 11291 net.cpp:165] Memory required for data: 1056104472
I1130 23:44:49.557390 11291 layer_factory.hpp:77] Creating layer res3b4_branch2a_relu
I1130 23:44:49.557394 11291 net.cpp:100] Creating Layer res3b4_branch2a_relu
I1130 23:44:49.557395 11291 net.cpp:434] res3b4_branch2a_relu <- res3b4_branch2a
I1130 23:44:49.557397 11291 net.cpp:395] res3b4_branch2a_relu -> res3b4_branch2a (in-place)
I1130 23:44:49.557504 11291 net.cpp:150] Setting up res3b4_branch2a_relu
I1130 23:44:49.557508 11291 net.cpp:157] Top shape: 6 128 28 28 (602112)
I1130 23:44:49.557510 11291 net.cpp:165] Memory required for data: 1058512920
I1130 23:44:49.557512 11291 layer_factory.hpp:77] Creating layer res3b4_branch2b
I1130 23:44:49.557517 11291 net.cpp:100] Creating Layer res3b4_branch2b
I1130 23:44:49.557518 11291 net.cpp:434] res3b4_branch2b <- res3b4_branch2a
I1130 23:44:49.557523 11291 net.cpp:408] res3b4_branch2b -> res3b4_branch2b
I1130 23:44:49.559242 11291 net.cpp:150] Setting up res3b4_branch2b
I1130 23:44:49.559247 11291 net.cpp:157] Top shape: 6 128 28 28 (602112)
I1130 23:44:49.559249 11291 net.cpp:165] Memory required for data: 1060921368
I1130 23:44:49.559253 11291 layer_factory.hpp:77] Creating layer bn3b4_branch2b
I1130 23:44:49.559257 11291 net.cpp:100] Creating Layer bn3b4_branch2b
I1130 23:44:49.559259 11291 net.cpp:434] bn3b4_branch2b <- res3b4_branch2b
I1130 23:44:49.559262 11291 net.cpp:395] bn3b4_branch2b -> res3b4_branch2b (in-place)
I1130 23:44:49.559389 11291 net.cpp:150] Setting up bn3b4_branch2b
I1130 23:44:49.559392 11291 net.cpp:157] Top shape: 6 128 28 28 (602112)
I1130 23:44:49.559394 11291 net.cpp:165] Memory required for data: 1063329816
I1130 23:44:49.559398 11291 layer_factory.hpp:77] Creating layer scale3b4_branch2b
I1130 23:44:49.559401 11291 net.cpp:100] Creating Layer scale3b4_branch2b
I1130 23:44:49.559402 11291 net.cpp:434] scale3b4_branch2b <- res3b4_branch2b
I1130 23:44:49.559406 11291 net.cpp:395] scale3b4_branch2b -> res3b4_branch2b (in-place)
I1130 23:44:49.559430 11291 layer_factory.hpp:77] Creating layer scale3b4_branch2b
I1130 23:44:49.559495 11291 net.cpp:150] Setting up scale3b4_branch2b
I1130 23:44:49.559499 11291 net.cpp:157] Top shape: 6 128 28 28 (602112)
I1130 23:44:49.559500 11291 net.cpp:165] Memory required for data: 1065738264
I1130 23:44:49.559504 11291 layer_factory.hpp:77] Creating layer res3b4_branch2b_relu
I1130 23:44:49.559507 11291 net.cpp:100] Creating Layer res3b4_branch2b_relu
I1130 23:44:49.559509 11291 net.cpp:434] res3b4_branch2b_relu <- res3b4_branch2b
I1130 23:44:49.559510 11291 net.cpp:395] res3b4_branch2b_relu -> res3b4_branch2b (in-place)
I1130 23:44:49.559622 11291 net.cpp:150] Setting up res3b4_branch2b_relu
I1130 23:44:49.559633 11291 net.cpp:157] Top shape: 6 128 28 28 (602112)
I1130 23:44:49.559635 11291 net.cpp:165] Memory required for data: 1068146712
I1130 23:44:49.559638 11291 layer_factory.hpp:77] Creating layer res3b4_branch2c
I1130 23:44:49.559643 11291 net.cpp:100] Creating Layer res3b4_branch2c
I1130 23:44:49.559644 11291 net.cpp:434] res3b4_branch2c <- res3b4_branch2b
I1130 23:44:49.559648 11291 net.cpp:408] res3b4_branch2c -> res3b4_branch2c
I1130 23:44:49.560492 11291 net.cpp:150] Setting up res3b4_branch2c
I1130 23:44:49.560498 11291 net.cpp:157] Top shape: 6 512 28 28 (2408448)
I1130 23:44:49.560500 11291 net.cpp:165] Memory required for data: 1077780504
I1130 23:44:49.560503 11291 layer_factory.hpp:77] Creating layer bn3b4_branch2c
I1130 23:44:49.560506 11291 net.cpp:100] Creating Layer bn3b4_branch2c
I1130 23:44:49.560508 11291 net.cpp:434] bn3b4_branch2c <- res3b4_branch2c
I1130 23:44:49.560513 11291 net.cpp:395] bn3b4_branch2c -> res3b4_branch2c (in-place)
I1130 23:44:49.560636 11291 net.cpp:150] Setting up bn3b4_branch2c
I1130 23:44:49.560638 11291 net.cpp:157] Top shape: 6 512 28 28 (2408448)
I1130 23:44:49.560641 11291 net.cpp:165] Memory required for data: 1087414296
I1130 23:44:49.560644 11291 layer_factory.hpp:77] Creating layer scale3b4_branch2c
I1130 23:44:49.560647 11291 net.cpp:100] Creating Layer scale3b4_branch2c
I1130 23:44:49.560648 11291 net.cpp:434] scale3b4_branch2c <- res3b4_branch2c
I1130 23:44:49.560652 11291 net.cpp:395] scale3b4_branch2c -> res3b4_branch2c (in-place)
I1130 23:44:49.560675 11291 layer_factory.hpp:77] Creating layer scale3b4_branch2c
I1130 23:44:49.560741 11291 net.cpp:150] Setting up scale3b4_branch2c
I1130 23:44:49.560745 11291 net.cpp:157] Top shape: 6 512 28 28 (2408448)
I1130 23:44:49.560746 11291 net.cpp:165] Memory required for data: 1097048088
I1130 23:44:49.560750 11291 layer_factory.hpp:77] Creating layer res3b4
I1130 23:44:49.560753 11291 net.cpp:100] Creating Layer res3b4
I1130 23:44:49.560755 11291 net.cpp:434] res3b4 <- res3b3_res3b3_relu_0_split_1
I1130 23:44:49.560758 11291 net.cpp:434] res3b4 <- res3b4_branch2c
I1130 23:44:49.560760 11291 net.cpp:408] res3b4 -> res3b4
I1130 23:44:49.560775 11291 net.cpp:150] Setting up res3b4
I1130 23:44:49.560778 11291 net.cpp:157] Top shape: 6 512 28 28 (2408448)
I1130 23:44:49.560781 11291 net.cpp:165] Memory required for data: 1106681880
I1130 23:44:49.560781 11291 layer_factory.hpp:77] Creating layer res3b4_relu
I1130 23:44:49.560784 11291 net.cpp:100] Creating Layer res3b4_relu
I1130 23:44:49.560786 11291 net.cpp:434] res3b4_relu <- res3b4
I1130 23:44:49.560789 11291 net.cpp:395] res3b4_relu -> res3b4 (in-place)
I1130 23:44:49.560892 11291 net.cpp:150] Setting up res3b4_relu
I1130 23:44:49.560896 11291 net.cpp:157] Top shape: 6 512 28 28 (2408448)
I1130 23:44:49.560897 11291 net.cpp:165] Memory required for data: 1116315672
I1130 23:44:49.560899 11291 layer_factory.hpp:77] Creating layer res3b4_res3b4_relu_0_split
I1130 23:44:49.560902 11291 net.cpp:100] Creating Layer res3b4_res3b4_relu_0_split
I1130 23:44:49.560904 11291 net.cpp:434] res3b4_res3b4_relu_0_split <- res3b4
I1130 23:44:49.560907 11291 net.cpp:408] res3b4_res3b4_relu_0_split -> res3b4_res3b4_relu_0_split_0
I1130 23:44:49.560911 11291 net.cpp:408] res3b4_res3b4_relu_0_split -> res3b4_res3b4_relu_0_split_1
I1130 23:44:49.560935 11291 net.cpp:150] Setting up res3b4_res3b4_relu_0_split
I1130 23:44:49.560938 11291 net.cpp:157] Top shape: 6 512 28 28 (2408448)
I1130 23:44:49.560940 11291 net.cpp:157] Top shape: 6 512 28 28 (2408448)
I1130 23:44:49.560942 11291 net.cpp:165] Memory required for data: 1135583256
I1130 23:44:49.560945 11291 layer_factory.hpp:77] Creating layer res3b5_branch2a
I1130 23:44:49.560950 11291 net.cpp:100] Creating Layer res3b5_branch2a
I1130 23:44:49.560951 11291 net.cpp:434] res3b5_branch2a <- res3b4_res3b4_relu_0_split_0
I1130 23:44:49.560956 11291 net.cpp:408] res3b5_branch2a -> res3b5_branch2a
I1130 23:44:49.561908 11291 net.cpp:150] Setting up res3b5_branch2a
I1130 23:44:49.561923 11291 net.cpp:157] Top shape: 6 128 28 28 (602112)
I1130 23:44:49.561924 11291 net.cpp:165] Memory required for data: 1137991704
I1130 23:44:49.561928 11291 layer_factory.hpp:77] Creating layer bn3b5_branch2a
I1130 23:44:49.561930 11291 net.cpp:100] Creating Layer bn3b5_branch2a
I1130 23:44:49.561933 11291 net.cpp:434] bn3b5_branch2a <- res3b5_branch2a
I1130 23:44:49.561935 11291 net.cpp:395] bn3b5_branch2a -> res3b5_branch2a (in-place)
I1130 23:44:49.562063 11291 net.cpp:150] Setting up bn3b5_branch2a
I1130 23:44:49.562067 11291 net.cpp:157] Top shape: 6 128 28 28 (602112)
I1130 23:44:49.562067 11291 net.cpp:165] Memory required for data: 1140400152
I1130 23:44:49.562072 11291 layer_factory.hpp:77] Creating layer scale3b5_branch2a
I1130 23:44:49.562075 11291 net.cpp:100] Creating Layer scale3b5_branch2a
I1130 23:44:49.562077 11291 net.cpp:434] scale3b5_branch2a <- res3b5_branch2a
I1130 23:44:49.562078 11291 net.cpp:395] scale3b5_branch2a -> res3b5_branch2a (in-place)
I1130 23:44:49.562103 11291 layer_factory.hpp:77] Creating layer scale3b5_branch2a
I1130 23:44:49.562171 11291 net.cpp:150] Setting up scale3b5_branch2a
I1130 23:44:49.562175 11291 net.cpp:157] Top shape: 6 128 28 28 (602112)
I1130 23:44:49.562176 11291 net.cpp:165] Memory required for data: 1142808600
I1130 23:44:49.562180 11291 layer_factory.hpp:77] Creating layer res3b5_branch2a_relu
I1130 23:44:49.562192 11291 net.cpp:100] Creating Layer res3b5_branch2a_relu
I1130 23:44:49.562194 11291 net.cpp:434] res3b5_branch2a_relu <- res3b5_branch2a
I1130 23:44:49.562197 11291 net.cpp:395] res3b5_branch2a_relu -> res3b5_branch2a (in-place)
I1130 23:44:49.562311 11291 net.cpp:150] Setting up res3b5_branch2a_relu
I1130 23:44:49.562315 11291 net.cpp:157] Top shape: 6 128 28 28 (602112)
I1130 23:44:49.562317 11291 net.cpp:165] Memory required for data: 1145217048
I1130 23:44:49.562319 11291 layer_factory.hpp:77] Creating layer res3b5_branch2b
I1130 23:44:49.562325 11291 net.cpp:100] Creating Layer res3b5_branch2b
I1130 23:44:49.562326 11291 net.cpp:434] res3b5_branch2b <- res3b5_branch2a
I1130 23:44:49.562330 11291 net.cpp:408] res3b5_branch2b -> res3b5_branch2b
I1130 23:44:49.563567 11291 net.cpp:150] Setting up res3b5_branch2b
I1130 23:44:49.563573 11291 net.cpp:157] Top shape: 6 128 28 28 (602112)
I1130 23:44:49.563575 11291 net.cpp:165] Memory required for data: 1147625496
I1130 23:44:49.563578 11291 layer_factory.hpp:77] Creating layer bn3b5_branch2b
I1130 23:44:49.563582 11291 net.cpp:100] Creating Layer bn3b5_branch2b
I1130 23:44:49.563583 11291 net.cpp:434] bn3b5_branch2b <- res3b5_branch2b
I1130 23:44:49.563587 11291 net.cpp:395] bn3b5_branch2b -> res3b5_branch2b (in-place)
I1130 23:44:49.563714 11291 net.cpp:150] Setting up bn3b5_branch2b
I1130 23:44:49.563716 11291 net.cpp:157] Top shape: 6 128 28 28 (602112)
I1130 23:44:49.563719 11291 net.cpp:165] Memory required for data: 1150033944
I1130 23:44:49.563722 11291 layer_factory.hpp:77] Creating layer scale3b5_branch2b
I1130 23:44:49.563725 11291 net.cpp:100] Creating Layer scale3b5_branch2b
I1130 23:44:49.563726 11291 net.cpp:434] scale3b5_branch2b <- res3b5_branch2b
I1130 23:44:49.563731 11291 net.cpp:395] scale3b5_branch2b -> res3b5_branch2b (in-place)
I1130 23:44:49.563755 11291 layer_factory.hpp:77] Creating layer scale3b5_branch2b
I1130 23:44:49.563824 11291 net.cpp:150] Setting up scale3b5_branch2b
I1130 23:44:49.563828 11291 net.cpp:157] Top shape: 6 128 28 28 (602112)
I1130 23:44:49.563829 11291 net.cpp:165] Memory required for data: 1152442392
I1130 23:44:49.563833 11291 layer_factory.hpp:77] Creating layer res3b5_branch2b_relu
I1130 23:44:49.563835 11291 net.cpp:100] Creating Layer res3b5_branch2b_relu
I1130 23:44:49.563838 11291 net.cpp:434] res3b5_branch2b_relu <- res3b5_branch2b
I1130 23:44:49.563839 11291 net.cpp:395] res3b5_branch2b_relu -> res3b5_branch2b (in-place)
I1130 23:44:49.563956 11291 net.cpp:150] Setting up res3b5_branch2b_relu
I1130 23:44:49.563959 11291 net.cpp:157] Top shape: 6 128 28 28 (602112)
I1130 23:44:49.563961 11291 net.cpp:165] Memory required for data: 1154850840
I1130 23:44:49.563968 11291 layer_factory.hpp:77] Creating layer res3b5_branch2c
I1130 23:44:49.563974 11291 net.cpp:100] Creating Layer res3b5_branch2c
I1130 23:44:49.563977 11291 net.cpp:434] res3b5_branch2c <- res3b5_branch2b
I1130 23:44:49.563979 11291 net.cpp:408] res3b5_branch2c -> res3b5_branch2c
I1130 23:44:49.564821 11291 net.cpp:150] Setting up res3b5_branch2c
I1130 23:44:49.564827 11291 net.cpp:157] Top shape: 6 512 28 28 (2408448)
I1130 23:44:49.564829 11291 net.cpp:165] Memory required for data: 1164484632
I1130 23:44:49.564831 11291 layer_factory.hpp:77] Creating layer bn3b5_branch2c
I1130 23:44:49.564836 11291 net.cpp:100] Creating Layer bn3b5_branch2c
I1130 23:44:49.564839 11291 net.cpp:434] bn3b5_branch2c <- res3b5_branch2c
I1130 23:44:49.564842 11291 net.cpp:395] bn3b5_branch2c -> res3b5_branch2c (in-place)
I1130 23:44:49.564968 11291 net.cpp:150] Setting up bn3b5_branch2c
I1130 23:44:49.564972 11291 net.cpp:157] Top shape: 6 512 28 28 (2408448)
I1130 23:44:49.564975 11291 net.cpp:165] Memory required for data: 1174118424
I1130 23:44:49.564977 11291 layer_factory.hpp:77] Creating layer scale3b5_branch2c
I1130 23:44:49.564980 11291 net.cpp:100] Creating Layer scale3b5_branch2c
I1130 23:44:49.564982 11291 net.cpp:434] scale3b5_branch2c <- res3b5_branch2c
I1130 23:44:49.564985 11291 net.cpp:395] scale3b5_branch2c -> res3b5_branch2c (in-place)
I1130 23:44:49.565009 11291 layer_factory.hpp:77] Creating layer scale3b5_branch2c
I1130 23:44:49.565078 11291 net.cpp:150] Setting up scale3b5_branch2c
I1130 23:44:49.565081 11291 net.cpp:157] Top shape: 6 512 28 28 (2408448)
I1130 23:44:49.565083 11291 net.cpp:165] Memory required for data: 1183752216
I1130 23:44:49.565086 11291 layer_factory.hpp:77] Creating layer res3b5
I1130 23:44:49.565089 11291 net.cpp:100] Creating Layer res3b5
I1130 23:44:49.565091 11291 net.cpp:434] res3b5 <- res3b4_res3b4_relu_0_split_1
I1130 23:44:49.565093 11291 net.cpp:434] res3b5 <- res3b5_branch2c
I1130 23:44:49.565096 11291 net.cpp:408] res3b5 -> res3b5
I1130 23:44:49.565110 11291 net.cpp:150] Setting up res3b5
I1130 23:44:49.565114 11291 net.cpp:157] Top shape: 6 512 28 28 (2408448)
I1130 23:44:49.565115 11291 net.cpp:165] Memory required for data: 1193386008
I1130 23:44:49.565116 11291 layer_factory.hpp:77] Creating layer res3b5_relu
I1130 23:44:49.565120 11291 net.cpp:100] Creating Layer res3b5_relu
I1130 23:44:49.565121 11291 net.cpp:434] res3b5_relu <- res3b5
I1130 23:44:49.565124 11291 net.cpp:395] res3b5_relu -> res3b5 (in-place)
I1130 23:44:49.565374 11291 net.cpp:150] Setting up res3b5_relu
I1130 23:44:49.565381 11291 net.cpp:157] Top shape: 6 512 28 28 (2408448)
I1130 23:44:49.565382 11291 net.cpp:165] Memory required for data: 1203019800
I1130 23:44:49.565384 11291 layer_factory.hpp:77] Creating layer res3b5_res3b5_relu_0_split
I1130 23:44:49.565387 11291 net.cpp:100] Creating Layer res3b5_res3b5_relu_0_split
I1130 23:44:49.565389 11291 net.cpp:434] res3b5_res3b5_relu_0_split <- res3b5
I1130 23:44:49.565392 11291 net.cpp:408] res3b5_res3b5_relu_0_split -> res3b5_res3b5_relu_0_split_0
I1130 23:44:49.565398 11291 net.cpp:408] res3b5_res3b5_relu_0_split -> res3b5_res3b5_relu_0_split_1
I1130 23:44:49.565423 11291 net.cpp:150] Setting up res3b5_res3b5_relu_0_split
I1130 23:44:49.565426 11291 net.cpp:157] Top shape: 6 512 28 28 (2408448)
I1130 23:44:49.565428 11291 net.cpp:157] Top shape: 6 512 28 28 (2408448)
I1130 23:44:49.565430 11291 net.cpp:165] Memory required for data: 1222287384
I1130 23:44:49.565431 11291 layer_factory.hpp:77] Creating layer res3b6_branch2a
I1130 23:44:49.565436 11291 net.cpp:100] Creating Layer res3b6_branch2a
I1130 23:44:49.565438 11291 net.cpp:434] res3b6_branch2a <- res3b5_res3b5_relu_0_split_0
I1130 23:44:49.565443 11291 net.cpp:408] res3b6_branch2a -> res3b6_branch2a
I1130 23:44:49.566256 11291 net.cpp:150] Setting up res3b6_branch2a
I1130 23:44:49.566262 11291 net.cpp:157] Top shape: 6 128 28 28 (602112)
I1130 23:44:49.566263 11291 net.cpp:165] Memory required for data: 1224695832
I1130 23:44:49.566267 11291 layer_factory.hpp:77] Creating layer bn3b6_branch2a
I1130 23:44:49.566277 11291 net.cpp:100] Creating Layer bn3b6_branch2a
I1130 23:44:49.566278 11291 net.cpp:434] bn3b6_branch2a <- res3b6_branch2a
I1130 23:44:49.566282 11291 net.cpp:395] bn3b6_branch2a -> res3b6_branch2a (in-place)
I1130 23:44:49.566408 11291 net.cpp:150] Setting up bn3b6_branch2a
I1130 23:44:49.566411 11291 net.cpp:157] Top shape: 6 128 28 28 (602112)
I1130 23:44:49.566413 11291 net.cpp:165] Memory required for data: 1227104280
I1130 23:44:49.566416 11291 layer_factory.hpp:77] Creating layer scale3b6_branch2a
I1130 23:44:49.566421 11291 net.cpp:100] Creating Layer scale3b6_branch2a
I1130 23:44:49.566421 11291 net.cpp:434] scale3b6_branch2a <- res3b6_branch2a
I1130 23:44:49.566426 11291 net.cpp:395] scale3b6_branch2a -> res3b6_branch2a (in-place)
I1130 23:44:49.566449 11291 layer_factory.hpp:77] Creating layer scale3b6_branch2a
I1130 23:44:49.566519 11291 net.cpp:150] Setting up scale3b6_branch2a
I1130 23:44:49.566522 11291 net.cpp:157] Top shape: 6 128 28 28 (602112)
I1130 23:44:49.566524 11291 net.cpp:165] Memory required for data: 1229512728
I1130 23:44:49.566527 11291 layer_factory.hpp:77] Creating layer res3b6_branch2a_relu
I1130 23:44:49.566530 11291 net.cpp:100] Creating Layer res3b6_branch2a_relu
I1130 23:44:49.566531 11291 net.cpp:434] res3b6_branch2a_relu <- res3b6_branch2a
I1130 23:44:49.566534 11291 net.cpp:395] res3b6_branch2a_relu -> res3b6_branch2a (in-place)
I1130 23:44:49.566642 11291 net.cpp:150] Setting up res3b6_branch2a_relu
I1130 23:44:49.566645 11291 net.cpp:157] Top shape: 6 128 28 28 (602112)
I1130 23:44:49.566648 11291 net.cpp:165] Memory required for data: 1231921176
I1130 23:44:49.566648 11291 layer_factory.hpp:77] Creating layer res3b6_branch2b
I1130 23:44:49.566653 11291 net.cpp:100] Creating Layer res3b6_branch2b
I1130 23:44:49.566655 11291 net.cpp:434] res3b6_branch2b <- res3b6_branch2a
I1130 23:44:49.566658 11291 net.cpp:408] res3b6_branch2b -> res3b6_branch2b
I1130 23:44:49.567906 11291 net.cpp:150] Setting up res3b6_branch2b
I1130 23:44:49.567914 11291 net.cpp:157] Top shape: 6 128 28 28 (602112)
I1130 23:44:49.567915 11291 net.cpp:165] Memory required for data: 1234329624
I1130 23:44:49.567919 11291 layer_factory.hpp:77] Creating layer bn3b6_branch2b
I1130 23:44:49.567921 11291 net.cpp:100] Creating Layer bn3b6_branch2b
I1130 23:44:49.567924 11291 net.cpp:434] bn3b6_branch2b <- res3b6_branch2b
I1130 23:44:49.567927 11291 net.cpp:395] bn3b6_branch2b -> res3b6_branch2b (in-place)
I1130 23:44:49.568058 11291 net.cpp:150] Setting up bn3b6_branch2b
I1130 23:44:49.568060 11291 net.cpp:157] Top shape: 6 128 28 28 (602112)
I1130 23:44:49.568061 11291 net.cpp:165] Memory required for data: 1236738072
I1130 23:44:49.568066 11291 layer_factory.hpp:77] Creating layer scale3b6_branch2b
I1130 23:44:49.568068 11291 net.cpp:100] Creating Layer scale3b6_branch2b
I1130 23:44:49.568070 11291 net.cpp:434] scale3b6_branch2b <- res3b6_branch2b
I1130 23:44:49.568073 11291 net.cpp:395] scale3b6_branch2b -> res3b6_branch2b (in-place)
I1130 23:44:49.568097 11291 layer_factory.hpp:77] Creating layer scale3b6_branch2b
I1130 23:44:49.568168 11291 net.cpp:150] Setting up scale3b6_branch2b
I1130 23:44:49.568171 11291 net.cpp:157] Top shape: 6 128 28 28 (602112)
I1130 23:44:49.568172 11291 net.cpp:165] Memory required for data: 1239146520
I1130 23:44:49.568176 11291 layer_factory.hpp:77] Creating layer res3b6_branch2b_relu
I1130 23:44:49.568178 11291 net.cpp:100] Creating Layer res3b6_branch2b_relu
I1130 23:44:49.568181 11291 net.cpp:434] res3b6_branch2b_relu <- res3b6_branch2b
I1130 23:44:49.568183 11291 net.cpp:395] res3b6_branch2b_relu -> res3b6_branch2b (in-place)
I1130 23:44:49.568295 11291 net.cpp:150] Setting up res3b6_branch2b_relu
I1130 23:44:49.568298 11291 net.cpp:157] Top shape: 6 128 28 28 (602112)
I1130 23:44:49.568300 11291 net.cpp:165] Memory required for data: 1241554968
I1130 23:44:49.568301 11291 layer_factory.hpp:77] Creating layer res3b6_branch2c
I1130 23:44:49.568307 11291 net.cpp:100] Creating Layer res3b6_branch2c
I1130 23:44:49.568310 11291 net.cpp:434] res3b6_branch2c <- res3b6_branch2b
I1130 23:44:49.568320 11291 net.cpp:408] res3b6_branch2c -> res3b6_branch2c
I1130 23:44:49.569169 11291 net.cpp:150] Setting up res3b6_branch2c
I1130 23:44:49.569175 11291 net.cpp:157] Top shape: 6 512 28 28 (2408448)
I1130 23:44:49.569177 11291 net.cpp:165] Memory required for data: 1251188760
I1130 23:44:49.569180 11291 layer_factory.hpp:77] Creating layer bn3b6_branch2c
I1130 23:44:49.569185 11291 net.cpp:100] Creating Layer bn3b6_branch2c
I1130 23:44:49.569186 11291 net.cpp:434] bn3b6_branch2c <- res3b6_branch2c
I1130 23:44:49.569190 11291 net.cpp:395] bn3b6_branch2c -> res3b6_branch2c (in-place)
I1130 23:44:49.569316 11291 net.cpp:150] Setting up bn3b6_branch2c
I1130 23:44:49.569320 11291 net.cpp:157] Top shape: 6 512 28 28 (2408448)
I1130 23:44:49.569322 11291 net.cpp:165] Memory required for data: 1260822552
I1130 23:44:49.569326 11291 layer_factory.hpp:77] Creating layer scale3b6_branch2c
I1130 23:44:49.569329 11291 net.cpp:100] Creating Layer scale3b6_branch2c
I1130 23:44:49.569330 11291 net.cpp:434] scale3b6_branch2c <- res3b6_branch2c
I1130 23:44:49.569334 11291 net.cpp:395] scale3b6_branch2c -> res3b6_branch2c (in-place)
I1130 23:44:49.569357 11291 layer_factory.hpp:77] Creating layer scale3b6_branch2c
I1130 23:44:49.569427 11291 net.cpp:150] Setting up scale3b6_branch2c
I1130 23:44:49.569430 11291 net.cpp:157] Top shape: 6 512 28 28 (2408448)
I1130 23:44:49.569432 11291 net.cpp:165] Memory required for data: 1270456344
I1130 23:44:49.569435 11291 layer_factory.hpp:77] Creating layer res3b6
I1130 23:44:49.569440 11291 net.cpp:100] Creating Layer res3b6
I1130 23:44:49.569442 11291 net.cpp:434] res3b6 <- res3b5_res3b5_relu_0_split_1
I1130 23:44:49.569444 11291 net.cpp:434] res3b6 <- res3b6_branch2c
I1130 23:44:49.569447 11291 net.cpp:408] res3b6 -> res3b6
I1130 23:44:49.569461 11291 net.cpp:150] Setting up res3b6
I1130 23:44:49.569464 11291 net.cpp:157] Top shape: 6 512 28 28 (2408448)
I1130 23:44:49.569466 11291 net.cpp:165] Memory required for data: 1280090136
I1130 23:44:49.569468 11291 layer_factory.hpp:77] Creating layer res3b6_relu
I1130 23:44:49.569470 11291 net.cpp:100] Creating Layer res3b6_relu
I1130 23:44:49.569473 11291 net.cpp:434] res3b6_relu <- res3b6
I1130 23:44:49.569475 11291 net.cpp:395] res3b6_relu -> res3b6 (in-place)
I1130 23:44:49.569577 11291 net.cpp:150] Setting up res3b6_relu
I1130 23:44:49.569581 11291 net.cpp:157] Top shape: 6 512 28 28 (2408448)
I1130 23:44:49.569583 11291 net.cpp:165] Memory required for data: 1289723928
I1130 23:44:49.569586 11291 layer_factory.hpp:77] Creating layer res3b6_res3b6_relu_0_split
I1130 23:44:49.569588 11291 net.cpp:100] Creating Layer res3b6_res3b6_relu_0_split
I1130 23:44:49.569591 11291 net.cpp:434] res3b6_res3b6_relu_0_split <- res3b6
I1130 23:44:49.569592 11291 net.cpp:408] res3b6_res3b6_relu_0_split -> res3b6_res3b6_relu_0_split_0
I1130 23:44:49.569597 11291 net.cpp:408] res3b6_res3b6_relu_0_split -> res3b6_res3b6_relu_0_split_1
I1130 23:44:49.569622 11291 net.cpp:150] Setting up res3b6_res3b6_relu_0_split
I1130 23:44:49.569624 11291 net.cpp:157] Top shape: 6 512 28 28 (2408448)
I1130 23:44:49.569628 11291 net.cpp:157] Top shape: 6 512 28 28 (2408448)
I1130 23:44:49.569628 11291 net.cpp:165] Memory required for data: 1308991512
I1130 23:44:49.569630 11291 layer_factory.hpp:77] Creating layer res3b7_branch2a
I1130 23:44:49.569635 11291 net.cpp:100] Creating Layer res3b7_branch2a
I1130 23:44:49.569636 11291 net.cpp:434] res3b7_branch2a <- res3b6_res3b6_relu_0_split_0
I1130 23:44:49.569640 11291 net.cpp:408] res3b7_branch2a -> res3b7_branch2a
I1130 23:44:49.570948 11291 net.cpp:150] Setting up res3b7_branch2a
I1130 23:44:49.570955 11291 net.cpp:157] Top shape: 6 128 28 28 (602112)
I1130 23:44:49.570956 11291 net.cpp:165] Memory required for data: 1311399960
I1130 23:44:49.570960 11291 layer_factory.hpp:77] Creating layer bn3b7_branch2a
I1130 23:44:49.570963 11291 net.cpp:100] Creating Layer bn3b7_branch2a
I1130 23:44:49.570966 11291 net.cpp:434] bn3b7_branch2a <- res3b7_branch2a
I1130 23:44:49.570968 11291 net.cpp:395] bn3b7_branch2a -> res3b7_branch2a (in-place)
I1130 23:44:49.571108 11291 net.cpp:150] Setting up bn3b7_branch2a
I1130 23:44:49.571112 11291 net.cpp:157] Top shape: 6 128 28 28 (602112)
I1130 23:44:49.571113 11291 net.cpp:165] Memory required for data: 1313808408
I1130 23:44:49.571117 11291 layer_factory.hpp:77] Creating layer scale3b7_branch2a
I1130 23:44:49.571120 11291 net.cpp:100] Creating Layer scale3b7_branch2a
I1130 23:44:49.571122 11291 net.cpp:434] scale3b7_branch2a <- res3b7_branch2a
I1130 23:44:49.571125 11291 net.cpp:395] scale3b7_branch2a -> res3b7_branch2a (in-place)
I1130 23:44:49.571151 11291 layer_factory.hpp:77] Creating layer scale3b7_branch2a
I1130 23:44:49.571223 11291 net.cpp:150] Setting up scale3b7_branch2a
I1130 23:44:49.571225 11291 net.cpp:157] Top shape: 6 128 28 28 (602112)
I1130 23:44:49.571226 11291 net.cpp:165] Memory required for data: 1316216856
I1130 23:44:49.571229 11291 layer_factory.hpp:77] Creating layer res3b7_branch2a_relu
I1130 23:44:49.571233 11291 net.cpp:100] Creating Layer res3b7_branch2a_relu
I1130 23:44:49.571235 11291 net.cpp:434] res3b7_branch2a_relu <- res3b7_branch2a
I1130 23:44:49.571238 11291 net.cpp:395] res3b7_branch2a_relu -> res3b7_branch2a (in-place)
I1130 23:44:49.571346 11291 net.cpp:150] Setting up res3b7_branch2a_relu
I1130 23:44:49.571351 11291 net.cpp:157] Top shape: 6 128 28 28 (602112)
I1130 23:44:49.571352 11291 net.cpp:165] Memory required for data: 1318625304
I1130 23:44:49.571353 11291 layer_factory.hpp:77] Creating layer res3b7_branch2b
I1130 23:44:49.571358 11291 net.cpp:100] Creating Layer res3b7_branch2b
I1130 23:44:49.571360 11291 net.cpp:434] res3b7_branch2b <- res3b7_branch2a
I1130 23:44:49.571364 11291 net.cpp:408] res3b7_branch2b -> res3b7_branch2b
I1130 23:44:49.573096 11291 net.cpp:150] Setting up res3b7_branch2b
I1130 23:44:49.573104 11291 net.cpp:157] Top shape: 6 128 28 28 (602112)
I1130 23:44:49.573107 11291 net.cpp:165] Memory required for data: 1321033752
I1130 23:44:49.573109 11291 layer_factory.hpp:77] Creating layer bn3b7_branch2b
I1130 23:44:49.573113 11291 net.cpp:100] Creating Layer bn3b7_branch2b
I1130 23:44:49.573115 11291 net.cpp:434] bn3b7_branch2b <- res3b7_branch2b
I1130 23:44:49.573118 11291 net.cpp:395] bn3b7_branch2b -> res3b7_branch2b (in-place)
I1130 23:44:49.573252 11291 net.cpp:150] Setting up bn3b7_branch2b
I1130 23:44:49.573256 11291 net.cpp:157] Top shape: 6 128 28 28 (602112)
I1130 23:44:49.573257 11291 net.cpp:165] Memory required for data: 1323442200
I1130 23:44:49.573261 11291 layer_factory.hpp:77] Creating layer scale3b7_branch2b
I1130 23:44:49.573264 11291 net.cpp:100] Creating Layer scale3b7_branch2b
I1130 23:44:49.573266 11291 net.cpp:434] scale3b7_branch2b <- res3b7_branch2b
I1130 23:44:49.573268 11291 net.cpp:395] scale3b7_branch2b -> res3b7_branch2b (in-place)
I1130 23:44:49.573293 11291 layer_factory.hpp:77] Creating layer scale3b7_branch2b
I1130 23:44:49.573364 11291 net.cpp:150] Setting up scale3b7_branch2b
I1130 23:44:49.573369 11291 net.cpp:157] Top shape: 6 128 28 28 (602112)
I1130 23:44:49.573370 11291 net.cpp:165] Memory required for data: 1325850648
I1130 23:44:49.573374 11291 layer_factory.hpp:77] Creating layer res3b7_branch2b_relu
I1130 23:44:49.573376 11291 net.cpp:100] Creating Layer res3b7_branch2b_relu
I1130 23:44:49.573377 11291 net.cpp:434] res3b7_branch2b_relu <- res3b7_branch2b
I1130 23:44:49.573379 11291 net.cpp:395] res3b7_branch2b_relu -> res3b7_branch2b (in-place)
I1130 23:44:49.573498 11291 net.cpp:150] Setting up res3b7_branch2b_relu
I1130 23:44:49.573501 11291 net.cpp:157] Top shape: 6 128 28 28 (602112)
I1130 23:44:49.573503 11291 net.cpp:165] Memory required for data: 1328259096
I1130 23:44:49.573504 11291 layer_factory.hpp:77] Creating layer res3b7_branch2c
I1130 23:44:49.573510 11291 net.cpp:100] Creating Layer res3b7_branch2c
I1130 23:44:49.573511 11291 net.cpp:434] res3b7_branch2c <- res3b7_branch2b
I1130 23:44:49.573514 11291 net.cpp:408] res3b7_branch2c -> res3b7_branch2c
I1130 23:44:49.574364 11291 net.cpp:150] Setting up res3b7_branch2c
I1130 23:44:49.574370 11291 net.cpp:157] Top shape: 6 512 28 28 (2408448)
I1130 23:44:49.574379 11291 net.cpp:165] Memory required for data: 1337892888
I1130 23:44:49.574383 11291 layer_factory.hpp:77] Creating layer bn3b7_branch2c
I1130 23:44:49.574386 11291 net.cpp:100] Creating Layer bn3b7_branch2c
I1130 23:44:49.574389 11291 net.cpp:434] bn3b7_branch2c <- res3b7_branch2c
I1130 23:44:49.574393 11291 net.cpp:395] bn3b7_branch2c -> res3b7_branch2c (in-place)
I1130 23:44:49.574523 11291 net.cpp:150] Setting up bn3b7_branch2c
I1130 23:44:49.574527 11291 net.cpp:157] Top shape: 6 512 28 28 (2408448)
I1130 23:44:49.574528 11291 net.cpp:165] Memory required for data: 1347526680
I1130 23:44:49.574532 11291 layer_factory.hpp:77] Creating layer scale3b7_branch2c
I1130 23:44:49.574534 11291 net.cpp:100] Creating Layer scale3b7_branch2c
I1130 23:44:49.574537 11291 net.cpp:434] scale3b7_branch2c <- res3b7_branch2c
I1130 23:44:49.574539 11291 net.cpp:395] scale3b7_branch2c -> res3b7_branch2c (in-place)
I1130 23:44:49.574564 11291 layer_factory.hpp:77] Creating layer scale3b7_branch2c
I1130 23:44:49.574635 11291 net.cpp:150] Setting up scale3b7_branch2c
I1130 23:44:49.574637 11291 net.cpp:157] Top shape: 6 512 28 28 (2408448)
I1130 23:44:49.574640 11291 net.cpp:165] Memory required for data: 1357160472
I1130 23:44:49.574642 11291 layer_factory.hpp:77] Creating layer res3b7
I1130 23:44:49.574645 11291 net.cpp:100] Creating Layer res3b7
I1130 23:44:49.574647 11291 net.cpp:434] res3b7 <- res3b6_res3b6_relu_0_split_1
I1130 23:44:49.574650 11291 net.cpp:434] res3b7 <- res3b7_branch2c
I1130 23:44:49.574652 11291 net.cpp:408] res3b7 -> res3b7
I1130 23:44:49.574666 11291 net.cpp:150] Setting up res3b7
I1130 23:44:49.574669 11291 net.cpp:157] Top shape: 6 512 28 28 (2408448)
I1130 23:44:49.574671 11291 net.cpp:165] Memory required for data: 1366794264
I1130 23:44:49.574673 11291 layer_factory.hpp:77] Creating layer res3b7_relu
I1130 23:44:49.574676 11291 net.cpp:100] Creating Layer res3b7_relu
I1130 23:44:49.574678 11291 net.cpp:434] res3b7_relu <- res3b7
I1130 23:44:49.574681 11291 net.cpp:395] res3b7_relu -> res3b7 (in-place)
I1130 23:44:49.574944 11291 net.cpp:150] Setting up res3b7_relu
I1130 23:44:49.574949 11291 net.cpp:157] Top shape: 6 512 28 28 (2408448)
I1130 23:44:49.574951 11291 net.cpp:165] Memory required for data: 1376428056
I1130 23:44:49.574954 11291 layer_factory.hpp:77] Creating layer res3b7_res3b7_relu_0_split
I1130 23:44:49.574957 11291 net.cpp:100] Creating Layer res3b7_res3b7_relu_0_split
I1130 23:44:49.574959 11291 net.cpp:434] res3b7_res3b7_relu_0_split <- res3b7
I1130 23:44:49.574962 11291 net.cpp:408] res3b7_res3b7_relu_0_split -> res3b7_res3b7_relu_0_split_0
I1130 23:44:49.574967 11291 net.cpp:408] res3b7_res3b7_relu_0_split -> res3b7_res3b7_relu_0_split_1
I1130 23:44:49.574995 11291 net.cpp:150] Setting up res3b7_res3b7_relu_0_split
I1130 23:44:49.574998 11291 net.cpp:157] Top shape: 6 512 28 28 (2408448)
I1130 23:44:49.575001 11291 net.cpp:157] Top shape: 6 512 28 28 (2408448)
I1130 23:44:49.575002 11291 net.cpp:165] Memory required for data: 1395695640
I1130 23:44:49.575004 11291 layer_factory.hpp:77] Creating layer res4a_branch1
I1130 23:44:49.575008 11291 net.cpp:100] Creating Layer res4a_branch1
I1130 23:44:49.575011 11291 net.cpp:434] res4a_branch1 <- res3b7_res3b7_relu_0_split_0
I1130 23:44:49.575014 11291 net.cpp:408] res4a_branch1 -> res4a_branch1
I1130 23:44:49.577939 11291 net.cpp:150] Setting up res4a_branch1
I1130 23:44:49.577947 11291 net.cpp:157] Top shape: 6 1024 14 14 (1204224)
I1130 23:44:49.577950 11291 net.cpp:165] Memory required for data: 1400512536
I1130 23:44:49.577952 11291 layer_factory.hpp:77] Creating layer bn4a_branch1
I1130 23:44:49.577958 11291 net.cpp:100] Creating Layer bn4a_branch1
I1130 23:44:49.577960 11291 net.cpp:434] bn4a_branch1 <- res4a_branch1
I1130 23:44:49.577963 11291 net.cpp:395] bn4a_branch1 -> res4a_branch1 (in-place)
I1130 23:44:49.578107 11291 net.cpp:150] Setting up bn4a_branch1
I1130 23:44:49.578110 11291 net.cpp:157] Top shape: 6 1024 14 14 (1204224)
I1130 23:44:49.578111 11291 net.cpp:165] Memory required for data: 1405329432
I1130 23:44:49.578125 11291 layer_factory.hpp:77] Creating layer scale4a_branch1
I1130 23:44:49.578127 11291 net.cpp:100] Creating Layer scale4a_branch1
I1130 23:44:49.578130 11291 net.cpp:434] scale4a_branch1 <- res4a_branch1
I1130 23:44:49.578131 11291 net.cpp:395] scale4a_branch1 -> res4a_branch1 (in-place)
I1130 23:44:49.578158 11291 layer_factory.hpp:77] Creating layer scale4a_branch1
I1130 23:44:49.578234 11291 net.cpp:150] Setting up scale4a_branch1
I1130 23:44:49.578238 11291 net.cpp:157] Top shape: 6 1024 14 14 (1204224)
I1130 23:44:49.578239 11291 net.cpp:165] Memory required for data: 1410146328
I1130 23:44:49.578243 11291 layer_factory.hpp:77] Creating layer res4a_branch2a
I1130 23:44:49.578248 11291 net.cpp:100] Creating Layer res4a_branch2a
I1130 23:44:49.578249 11291 net.cpp:434] res4a_branch2a <- res3b7_res3b7_relu_0_split_1
I1130 23:44:49.578253 11291 net.cpp:408] res4a_branch2a -> res4a_branch2a
I1130 23:44:49.579170 11291 net.cpp:150] Setting up res4a_branch2a
I1130 23:44:49.579176 11291 net.cpp:157] Top shape: 6 256 14 14 (301056)
I1130 23:44:49.579177 11291 net.cpp:165] Memory required for data: 1411350552
I1130 23:44:49.579180 11291 layer_factory.hpp:77] Creating layer bn4a_branch2a
I1130 23:44:49.579183 11291 net.cpp:100] Creating Layer bn4a_branch2a
I1130 23:44:49.579186 11291 net.cpp:434] bn4a_branch2a <- res4a_branch2a
I1130 23:44:49.579190 11291 net.cpp:395] bn4a_branch2a -> res4a_branch2a (in-place)
I1130 23:44:49.579318 11291 net.cpp:150] Setting up bn4a_branch2a
I1130 23:44:49.579320 11291 net.cpp:157] Top shape: 6 256 14 14 (301056)
I1130 23:44:49.579322 11291 net.cpp:165] Memory required for data: 1412554776
I1130 23:44:49.579326 11291 layer_factory.hpp:77] Creating layer scale4a_branch2a
I1130 23:44:49.579329 11291 net.cpp:100] Creating Layer scale4a_branch2a
I1130 23:44:49.579330 11291 net.cpp:434] scale4a_branch2a <- res4a_branch2a
I1130 23:44:49.579334 11291 net.cpp:395] scale4a_branch2a -> res4a_branch2a (in-place)
I1130 23:44:49.579358 11291 layer_factory.hpp:77] Creating layer scale4a_branch2a
I1130 23:44:49.579427 11291 net.cpp:150] Setting up scale4a_branch2a
I1130 23:44:49.579432 11291 net.cpp:157] Top shape: 6 256 14 14 (301056)
I1130 23:44:49.579433 11291 net.cpp:165] Memory required for data: 1413759000
I1130 23:44:49.579437 11291 layer_factory.hpp:77] Creating layer res4a_branch2a_relu
I1130 23:44:49.579438 11291 net.cpp:100] Creating Layer res4a_branch2a_relu
I1130 23:44:49.579440 11291 net.cpp:434] res4a_branch2a_relu <- res4a_branch2a
I1130 23:44:49.579443 11291 net.cpp:395] res4a_branch2a_relu -> res4a_branch2a (in-place)
I1130 23:44:49.579711 11291 net.cpp:150] Setting up res4a_branch2a_relu
I1130 23:44:49.579716 11291 net.cpp:157] Top shape: 6 256 14 14 (301056)
I1130 23:44:49.579718 11291 net.cpp:165] Memory required for data: 1414963224
I1130 23:44:49.579720 11291 layer_factory.hpp:77] Creating layer res4a_branch2b
I1130 23:44:49.579725 11291 net.cpp:100] Creating Layer res4a_branch2b
I1130 23:44:49.579727 11291 net.cpp:434] res4a_branch2b <- res4a_branch2a
I1130 23:44:49.579731 11291 net.cpp:408] res4a_branch2b -> res4a_branch2b
I1130 23:44:49.583060 11291 net.cpp:150] Setting up res4a_branch2b
I1130 23:44:49.583070 11291 net.cpp:157] Top shape: 6 256 14 14 (301056)
I1130 23:44:49.583071 11291 net.cpp:165] Memory required for data: 1416167448
I1130 23:44:49.583076 11291 layer_factory.hpp:77] Creating layer bn4a_branch2b
I1130 23:44:49.583082 11291 net.cpp:100] Creating Layer bn4a_branch2b
I1130 23:44:49.583084 11291 net.cpp:434] bn4a_branch2b <- res4a_branch2b
I1130 23:44:49.583088 11291 net.cpp:395] bn4a_branch2b -> res4a_branch2b (in-place)
I1130 23:44:49.583225 11291 net.cpp:150] Setting up bn4a_branch2b
I1130 23:44:49.583230 11291 net.cpp:157] Top shape: 6 256 14 14 (301056)
I1130 23:44:49.583230 11291 net.cpp:165] Memory required for data: 1417371672
I1130 23:44:49.583235 11291 layer_factory.hpp:77] Creating layer scale4a_branch2b
I1130 23:44:49.583237 11291 net.cpp:100] Creating Layer scale4a_branch2b
I1130 23:44:49.583240 11291 net.cpp:434] scale4a_branch2b <- res4a_branch2b
I1130 23:44:49.583250 11291 net.cpp:395] scale4a_branch2b -> res4a_branch2b (in-place)
I1130 23:44:49.583277 11291 layer_factory.hpp:77] Creating layer scale4a_branch2b
I1130 23:44:49.583351 11291 net.cpp:150] Setting up scale4a_branch2b
I1130 23:44:49.583355 11291 net.cpp:157] Top shape: 6 256 14 14 (301056)
I1130 23:44:49.583356 11291 net.cpp:165] Memory required for data: 1418575896
I1130 23:44:49.583359 11291 layer_factory.hpp:77] Creating layer res4a_branch2b_relu
I1130 23:44:49.583364 11291 net.cpp:100] Creating Layer res4a_branch2b_relu
I1130 23:44:49.583365 11291 net.cpp:434] res4a_branch2b_relu <- res4a_branch2b
I1130 23:44:49.583367 11291 net.cpp:395] res4a_branch2b_relu -> res4a_branch2b (in-place)
I1130 23:44:49.583482 11291 net.cpp:150] Setting up res4a_branch2b_relu
I1130 23:44:49.583487 11291 net.cpp:157] Top shape: 6 256 14 14 (301056)
I1130 23:44:49.583488 11291 net.cpp:165] Memory required for data: 1419780120
I1130 23:44:49.583490 11291 layer_factory.hpp:77] Creating layer res4a_branch2c
I1130 23:44:49.583497 11291 net.cpp:100] Creating Layer res4a_branch2c
I1130 23:44:49.583498 11291 net.cpp:434] res4a_branch2c <- res4a_branch2b
I1130 23:44:49.583503 11291 net.cpp:408] res4a_branch2c -> res4a_branch2c
I1130 23:44:49.585600 11291 net.cpp:150] Setting up res4a_branch2c
I1130 23:44:49.585611 11291 net.cpp:157] Top shape: 6 1024 14 14 (1204224)
I1130 23:44:49.585613 11291 net.cpp:165] Memory required for data: 1424597016
I1130 23:44:49.585618 11291 layer_factory.hpp:77] Creating layer bn4a_branch2c
I1130 23:44:49.585623 11291 net.cpp:100] Creating Layer bn4a_branch2c
I1130 23:44:49.585624 11291 net.cpp:434] bn4a_branch2c <- res4a_branch2c
I1130 23:44:49.585628 11291 net.cpp:395] bn4a_branch2c -> res4a_branch2c (in-place)
I1130 23:44:49.585767 11291 net.cpp:150] Setting up bn4a_branch2c
I1130 23:44:49.585770 11291 net.cpp:157] Top shape: 6 1024 14 14 (1204224)
I1130 23:44:49.585772 11291 net.cpp:165] Memory required for data: 1429413912
I1130 23:44:49.585775 11291 layer_factory.hpp:77] Creating layer scale4a_branch2c
I1130 23:44:49.585779 11291 net.cpp:100] Creating Layer scale4a_branch2c
I1130 23:44:49.585780 11291 net.cpp:434] scale4a_branch2c <- res4a_branch2c
I1130 23:44:49.585783 11291 net.cpp:395] scale4a_branch2c -> res4a_branch2c (in-place)
I1130 23:44:49.585808 11291 layer_factory.hpp:77] Creating layer scale4a_branch2c
I1130 23:44:49.585887 11291 net.cpp:150] Setting up scale4a_branch2c
I1130 23:44:49.585891 11291 net.cpp:157] Top shape: 6 1024 14 14 (1204224)
I1130 23:44:49.585892 11291 net.cpp:165] Memory required for data: 1434230808
I1130 23:44:49.585896 11291 layer_factory.hpp:77] Creating layer res4a
I1130 23:44:49.585898 11291 net.cpp:100] Creating Layer res4a
I1130 23:44:49.585901 11291 net.cpp:434] res4a <- res4a_branch1
I1130 23:44:49.585902 11291 net.cpp:434] res4a <- res4a_branch2c
I1130 23:44:49.585906 11291 net.cpp:408] res4a -> res4a
I1130 23:44:49.585922 11291 net.cpp:150] Setting up res4a
I1130 23:44:49.585924 11291 net.cpp:157] Top shape: 6 1024 14 14 (1204224)
I1130 23:44:49.585925 11291 net.cpp:165] Memory required for data: 1439047704
I1130 23:44:49.585927 11291 layer_factory.hpp:77] Creating layer res4a_relu
I1130 23:44:49.585932 11291 net.cpp:100] Creating Layer res4a_relu
I1130 23:44:49.585933 11291 net.cpp:434] res4a_relu <- res4a
I1130 23:44:49.585935 11291 net.cpp:395] res4a_relu -> res4a (in-place)
I1130 23:44:49.586043 11291 net.cpp:150] Setting up res4a_relu
I1130 23:44:49.586047 11291 net.cpp:157] Top shape: 6 1024 14 14 (1204224)
I1130 23:44:49.586050 11291 net.cpp:165] Memory required for data: 1443864600
I1130 23:44:49.586050 11291 layer_factory.hpp:77] Creating layer res4a_res4a_relu_0_split
I1130 23:44:49.586055 11291 net.cpp:100] Creating Layer res4a_res4a_relu_0_split
I1130 23:44:49.586056 11291 net.cpp:434] res4a_res4a_relu_0_split <- res4a
I1130 23:44:49.586060 11291 net.cpp:408] res4a_res4a_relu_0_split -> res4a_res4a_relu_0_split_0
I1130 23:44:49.586063 11291 net.cpp:408] res4a_res4a_relu_0_split -> res4a_res4a_relu_0_split_1
I1130 23:44:49.586097 11291 net.cpp:150] Setting up res4a_res4a_relu_0_split
I1130 23:44:49.586102 11291 net.cpp:157] Top shape: 6 1024 14 14 (1204224)
I1130 23:44:49.586103 11291 net.cpp:157] Top shape: 6 1024 14 14 (1204224)
I1130 23:44:49.586104 11291 net.cpp:165] Memory required for data: 1453498392
I1130 23:44:49.586107 11291 layer_factory.hpp:77] Creating layer res4b1_branch2a
I1130 23:44:49.586112 11291 net.cpp:100] Creating Layer res4b1_branch2a
I1130 23:44:49.586114 11291 net.cpp:434] res4b1_branch2a <- res4a_res4a_relu_0_split_0
I1130 23:44:49.586117 11291 net.cpp:408] res4b1_branch2a -> res4b1_branch2a
I1130 23:44:49.587638 11291 net.cpp:150] Setting up res4b1_branch2a
I1130 23:44:49.587644 11291 net.cpp:157] Top shape: 6 256 14 14 (301056)
I1130 23:44:49.587647 11291 net.cpp:165] Memory required for data: 1454702616
I1130 23:44:49.587649 11291 layer_factory.hpp:77] Creating layer bn4b1_branch2a
I1130 23:44:49.587653 11291 net.cpp:100] Creating Layer bn4b1_branch2a
I1130 23:44:49.587656 11291 net.cpp:434] bn4b1_branch2a <- res4b1_branch2a
I1130 23:44:49.587659 11291 net.cpp:395] bn4b1_branch2a -> res4b1_branch2a (in-place)
I1130 23:44:49.587790 11291 net.cpp:150] Setting up bn4b1_branch2a
I1130 23:44:49.587793 11291 net.cpp:157] Top shape: 6 256 14 14 (301056)
I1130 23:44:49.587795 11291 net.cpp:165] Memory required for data: 1455906840
I1130 23:44:49.587800 11291 layer_factory.hpp:77] Creating layer scale4b1_branch2a
I1130 23:44:49.587802 11291 net.cpp:100] Creating Layer scale4b1_branch2a
I1130 23:44:49.587803 11291 net.cpp:434] scale4b1_branch2a <- res4b1_branch2a
I1130 23:44:49.587806 11291 net.cpp:395] scale4b1_branch2a -> res4b1_branch2a (in-place)
I1130 23:44:49.587832 11291 layer_factory.hpp:77] Creating layer scale4b1_branch2a
I1130 23:44:49.587909 11291 net.cpp:150] Setting up scale4b1_branch2a
I1130 23:44:49.587913 11291 net.cpp:157] Top shape: 6 256 14 14 (301056)
I1130 23:44:49.587914 11291 net.cpp:165] Memory required for data: 1457111064
I1130 23:44:49.587918 11291 layer_factory.hpp:77] Creating layer res4b1_branch2a_relu
I1130 23:44:49.587921 11291 net.cpp:100] Creating Layer res4b1_branch2a_relu
I1130 23:44:49.587924 11291 net.cpp:434] res4b1_branch2a_relu <- res4b1_branch2a
I1130 23:44:49.587925 11291 net.cpp:395] res4b1_branch2a_relu -> res4b1_branch2a (in-place)
I1130 23:44:49.588034 11291 net.cpp:150] Setting up res4b1_branch2a_relu
I1130 23:44:49.588038 11291 net.cpp:157] Top shape: 6 256 14 14 (301056)
I1130 23:44:49.588040 11291 net.cpp:165] Memory required for data: 1458315288
I1130 23:44:49.588042 11291 layer_factory.hpp:77] Creating layer res4b1_branch2b
I1130 23:44:49.588047 11291 net.cpp:100] Creating Layer res4b1_branch2b
I1130 23:44:49.588049 11291 net.cpp:434] res4b1_branch2b <- res4b1_branch2a
I1130 23:44:49.588052 11291 net.cpp:408] res4b1_branch2b -> res4b1_branch2b
I1130 23:44:49.591358 11291 net.cpp:150] Setting up res4b1_branch2b
I1130 23:44:49.591367 11291 net.cpp:157] Top shape: 6 256 14 14 (301056)
I1130 23:44:49.591369 11291 net.cpp:165] Memory required for data: 1459519512
I1130 23:44:49.591372 11291 layer_factory.hpp:77] Creating layer bn4b1_branch2b
I1130 23:44:49.591377 11291 net.cpp:100] Creating Layer bn4b1_branch2b
I1130 23:44:49.591379 11291 net.cpp:434] bn4b1_branch2b <- res4b1_branch2b
I1130 23:44:49.591383 11291 net.cpp:395] bn4b1_branch2b -> res4b1_branch2b (in-place)
I1130 23:44:49.591523 11291 net.cpp:150] Setting up bn4b1_branch2b
I1130 23:44:49.591526 11291 net.cpp:157] Top shape: 6 256 14 14 (301056)
I1130 23:44:49.591528 11291 net.cpp:165] Memory required for data: 1460723736
I1130 23:44:49.591532 11291 layer_factory.hpp:77] Creating layer scale4b1_branch2b
I1130 23:44:49.591536 11291 net.cpp:100] Creating Layer scale4b1_branch2b
I1130 23:44:49.591537 11291 net.cpp:434] scale4b1_branch2b <- res4b1_branch2b
I1130 23:44:49.591541 11291 net.cpp:395] scale4b1_branch2b -> res4b1_branch2b (in-place)
I1130 23:44:49.591568 11291 layer_factory.hpp:77] Creating layer scale4b1_branch2b
I1130 23:44:49.591645 11291 net.cpp:150] Setting up scale4b1_branch2b
I1130 23:44:49.591658 11291 net.cpp:157] Top shape: 6 256 14 14 (301056)
I1130 23:44:49.591661 11291 net.cpp:165] Memory required for data: 1461927960
I1130 23:44:49.591665 11291 layer_factory.hpp:77] Creating layer res4b1_branch2b_relu
I1130 23:44:49.591667 11291 net.cpp:100] Creating Layer res4b1_branch2b_relu
I1130 23:44:49.591668 11291 net.cpp:434] res4b1_branch2b_relu <- res4b1_branch2b
I1130 23:44:49.591672 11291 net.cpp:395] res4b1_branch2b_relu -> res4b1_branch2b (in-place)
I1130 23:44:49.591784 11291 net.cpp:150] Setting up res4b1_branch2b_relu
I1130 23:44:49.591787 11291 net.cpp:157] Top shape: 6 256 14 14 (301056)
I1130 23:44:49.591789 11291 net.cpp:165] Memory required for data: 1463132184
I1130 23:44:49.591791 11291 layer_factory.hpp:77] Creating layer res4b1_branch2c
I1130 23:44:49.591796 11291 net.cpp:100] Creating Layer res4b1_branch2c
I1130 23:44:49.591797 11291 net.cpp:434] res4b1_branch2c <- res4b1_branch2b
I1130 23:44:49.591801 11291 net.cpp:408] res4b1_branch2c -> res4b1_branch2c
I1130 23:44:49.593829 11291 net.cpp:150] Setting up res4b1_branch2c
I1130 23:44:49.593837 11291 net.cpp:157] Top shape: 6 1024 14 14 (1204224)
I1130 23:44:49.593839 11291 net.cpp:165] Memory required for data: 1467949080
I1130 23:44:49.593842 11291 layer_factory.hpp:77] Creating layer bn4b1_branch2c
I1130 23:44:49.593847 11291 net.cpp:100] Creating Layer bn4b1_branch2c
I1130 23:44:49.593849 11291 net.cpp:434] bn4b1_branch2c <- res4b1_branch2c
I1130 23:44:49.593852 11291 net.cpp:395] bn4b1_branch2c -> res4b1_branch2c (in-place)
I1130 23:44:49.593996 11291 net.cpp:150] Setting up bn4b1_branch2c
I1130 23:44:49.593999 11291 net.cpp:157] Top shape: 6 1024 14 14 (1204224)
I1130 23:44:49.594000 11291 net.cpp:165] Memory required for data: 1472765976
I1130 23:44:49.594004 11291 layer_factory.hpp:77] Creating layer scale4b1_branch2c
I1130 23:44:49.594007 11291 net.cpp:100] Creating Layer scale4b1_branch2c
I1130 23:44:49.594010 11291 net.cpp:434] scale4b1_branch2c <- res4b1_branch2c
I1130 23:44:49.594012 11291 net.cpp:395] scale4b1_branch2c -> res4b1_branch2c (in-place)
I1130 23:44:49.594043 11291 layer_factory.hpp:77] Creating layer scale4b1_branch2c
I1130 23:44:49.594121 11291 net.cpp:150] Setting up scale4b1_branch2c
I1130 23:44:49.594126 11291 net.cpp:157] Top shape: 6 1024 14 14 (1204224)
I1130 23:44:49.594127 11291 net.cpp:165] Memory required for data: 1477582872
I1130 23:44:49.594151 11291 layer_factory.hpp:77] Creating layer res4b1
I1130 23:44:49.594156 11291 net.cpp:100] Creating Layer res4b1
I1130 23:44:49.594157 11291 net.cpp:434] res4b1 <- res4a_res4a_relu_0_split_1
I1130 23:44:49.594159 11291 net.cpp:434] res4b1 <- res4b1_branch2c
I1130 23:44:49.594162 11291 net.cpp:408] res4b1 -> res4b1
I1130 23:44:49.594178 11291 net.cpp:150] Setting up res4b1
I1130 23:44:49.594182 11291 net.cpp:157] Top shape: 6 1024 14 14 (1204224)
I1130 23:44:49.594183 11291 net.cpp:165] Memory required for data: 1482399768
I1130 23:44:49.594185 11291 layer_factory.hpp:77] Creating layer res4b1_relu
I1130 23:44:49.594188 11291 net.cpp:100] Creating Layer res4b1_relu
I1130 23:44:49.594190 11291 net.cpp:434] res4b1_relu <- res4b1
I1130 23:44:49.594192 11291 net.cpp:395] res4b1_relu -> res4b1 (in-place)
I1130 23:44:49.594471 11291 net.cpp:150] Setting up res4b1_relu
I1130 23:44:49.594476 11291 net.cpp:157] Top shape: 6 1024 14 14 (1204224)
I1130 23:44:49.594478 11291 net.cpp:165] Memory required for data: 1487216664
I1130 23:44:49.594480 11291 layer_factory.hpp:77] Creating layer res4b1_res4b1_relu_0_split
I1130 23:44:49.594485 11291 net.cpp:100] Creating Layer res4b1_res4b1_relu_0_split
I1130 23:44:49.594485 11291 net.cpp:434] res4b1_res4b1_relu_0_split <- res4b1
I1130 23:44:49.594490 11291 net.cpp:408] res4b1_res4b1_relu_0_split -> res4b1_res4b1_relu_0_split_0
I1130 23:44:49.594493 11291 net.cpp:408] res4b1_res4b1_relu_0_split -> res4b1_res4b1_relu_0_split_1
I1130 23:44:49.594522 11291 net.cpp:150] Setting up res4b1_res4b1_relu_0_split
I1130 23:44:49.594525 11291 net.cpp:157] Top shape: 6 1024 14 14 (1204224)
I1130 23:44:49.594527 11291 net.cpp:157] Top shape: 6 1024 14 14 (1204224)
I1130 23:44:49.594537 11291 net.cpp:165] Memory required for data: 1496850456
I1130 23:44:49.594538 11291 layer_factory.hpp:77] Creating layer res4b2_branch2a
I1130 23:44:49.594543 11291 net.cpp:100] Creating Layer res4b2_branch2a
I1130 23:44:49.594547 11291 net.cpp:434] res4b2_branch2a <- res4b1_res4b1_relu_0_split_0
I1130 23:44:49.594550 11291 net.cpp:408] res4b2_branch2a -> res4b2_branch2a
I1130 23:44:49.596117 11291 net.cpp:150] Setting up res4b2_branch2a
I1130 23:44:49.596124 11291 net.cpp:157] Top shape: 6 256 14 14 (301056)
I1130 23:44:49.596127 11291 net.cpp:165] Memory required for data: 1498054680
I1130 23:44:49.596130 11291 layer_factory.hpp:77] Creating layer bn4b2_branch2a
I1130 23:44:49.596134 11291 net.cpp:100] Creating Layer bn4b2_branch2a
I1130 23:44:49.596137 11291 net.cpp:434] bn4b2_branch2a <- res4b2_branch2a
I1130 23:44:49.596140 11291 net.cpp:395] bn4b2_branch2a -> res4b2_branch2a (in-place)
I1130 23:44:49.596281 11291 net.cpp:150] Setting up bn4b2_branch2a
I1130 23:44:49.596283 11291 net.cpp:157] Top shape: 6 256 14 14 (301056)
I1130 23:44:49.596285 11291 net.cpp:165] Memory required for data: 1499258904
I1130 23:44:49.596289 11291 layer_factory.hpp:77] Creating layer scale4b2_branch2a
I1130 23:44:49.596292 11291 net.cpp:100] Creating Layer scale4b2_branch2a
I1130 23:44:49.596293 11291 net.cpp:434] scale4b2_branch2a <- res4b2_branch2a
I1130 23:44:49.596295 11291 net.cpp:395] scale4b2_branch2a -> res4b2_branch2a (in-place)
I1130 23:44:49.596324 11291 layer_factory.hpp:77] Creating layer scale4b2_branch2a
I1130 23:44:49.596398 11291 net.cpp:150] Setting up scale4b2_branch2a
I1130 23:44:49.596402 11291 net.cpp:157] Top shape: 6 256 14 14 (301056)
I1130 23:44:49.596403 11291 net.cpp:165] Memory required for data: 1500463128
I1130 23:44:49.596406 11291 layer_factory.hpp:77] Creating layer res4b2_branch2a_relu
I1130 23:44:49.596410 11291 net.cpp:100] Creating Layer res4b2_branch2a_relu
I1130 23:44:49.596411 11291 net.cpp:434] res4b2_branch2a_relu <- res4b2_branch2a
I1130 23:44:49.596415 11291 net.cpp:395] res4b2_branch2a_relu -> res4b2_branch2a (in-place)
I1130 23:44:49.596689 11291 net.cpp:150] Setting up res4b2_branch2a_relu
I1130 23:44:49.596694 11291 net.cpp:157] Top shape: 6 256 14 14 (301056)
I1130 23:44:49.596696 11291 net.cpp:165] Memory required for data: 1501667352
I1130 23:44:49.596698 11291 layer_factory.hpp:77] Creating layer res4b2_branch2b
I1130 23:44:49.596704 11291 net.cpp:100] Creating Layer res4b2_branch2b
I1130 23:44:49.596706 11291 net.cpp:434] res4b2_branch2b <- res4b2_branch2a
I1130 23:44:49.596711 11291 net.cpp:408] res4b2_branch2b -> res4b2_branch2b
I1130 23:44:49.600039 11291 net.cpp:150] Setting up res4b2_branch2b
I1130 23:44:49.600047 11291 net.cpp:157] Top shape: 6 256 14 14 (301056)
I1130 23:44:49.600049 11291 net.cpp:165] Memory required for data: 1502871576
I1130 23:44:49.600054 11291 layer_factory.hpp:77] Creating layer bn4b2_branch2b
I1130 23:44:49.600059 11291 net.cpp:100] Creating Layer bn4b2_branch2b
I1130 23:44:49.600061 11291 net.cpp:434] bn4b2_branch2b <- res4b2_branch2b
I1130 23:44:49.600064 11291 net.cpp:395] bn4b2_branch2b -> res4b2_branch2b (in-place)
I1130 23:44:49.600208 11291 net.cpp:150] Setting up bn4b2_branch2b
I1130 23:44:49.600211 11291 net.cpp:157] Top shape: 6 256 14 14 (301056)
I1130 23:44:49.600214 11291 net.cpp:165] Memory required for data: 1504075800
I1130 23:44:49.600217 11291 layer_factory.hpp:77] Creating layer scale4b2_branch2b
I1130 23:44:49.600220 11291 net.cpp:100] Creating Layer scale4b2_branch2b
I1130 23:44:49.600222 11291 net.cpp:434] scale4b2_branch2b <- res4b2_branch2b
I1130 23:44:49.600224 11291 net.cpp:395] scale4b2_branch2b -> res4b2_branch2b (in-place)
I1130 23:44:49.600253 11291 layer_factory.hpp:77] Creating layer scale4b2_branch2b
I1130 23:44:49.600328 11291 net.cpp:150] Setting up scale4b2_branch2b
I1130 23:44:49.600332 11291 net.cpp:157] Top shape: 6 256 14 14 (301056)
I1130 23:44:49.600333 11291 net.cpp:165] Memory required for data: 1505280024
I1130 23:44:49.600337 11291 layer_factory.hpp:77] Creating layer res4b2_branch2b_relu
I1130 23:44:49.600349 11291 net.cpp:100] Creating Layer res4b2_branch2b_relu
I1130 23:44:49.600352 11291 net.cpp:434] res4b2_branch2b_relu <- res4b2_branch2b
I1130 23:44:49.600354 11291 net.cpp:395] res4b2_branch2b_relu -> res4b2_branch2b (in-place)
I1130 23:44:49.600469 11291 net.cpp:150] Setting up res4b2_branch2b_relu
I1130 23:44:49.600473 11291 net.cpp:157] Top shape: 6 256 14 14 (301056)
I1130 23:44:49.600476 11291 net.cpp:165] Memory required for data: 1506484248
I1130 23:44:49.600477 11291 layer_factory.hpp:77] Creating layer res4b2_branch2c
I1130 23:44:49.600482 11291 net.cpp:100] Creating Layer res4b2_branch2c
I1130 23:44:49.600484 11291 net.cpp:434] res4b2_branch2c <- res4b2_branch2b
I1130 23:44:49.600487 11291 net.cpp:408] res4b2_branch2c -> res4b2_branch2c
I1130 23:44:49.602529 11291 net.cpp:150] Setting up res4b2_branch2c
I1130 23:44:49.602536 11291 net.cpp:157] Top shape: 6 1024 14 14 (1204224)
I1130 23:44:49.602538 11291 net.cpp:165] Memory required for data: 1511301144
I1130 23:44:49.602541 11291 layer_factory.hpp:77] Creating layer bn4b2_branch2c
I1130 23:44:49.602546 11291 net.cpp:100] Creating Layer bn4b2_branch2c
I1130 23:44:49.602548 11291 net.cpp:434] bn4b2_branch2c <- res4b2_branch2c
I1130 23:44:49.602552 11291 net.cpp:395] bn4b2_branch2c -> res4b2_branch2c (in-place)
I1130 23:44:49.602697 11291 net.cpp:150] Setting up bn4b2_branch2c
I1130 23:44:49.602701 11291 net.cpp:157] Top shape: 6 1024 14 14 (1204224)
I1130 23:44:49.602704 11291 net.cpp:165] Memory required for data: 1516118040
I1130 23:44:49.602707 11291 layer_factory.hpp:77] Creating layer scale4b2_branch2c
I1130 23:44:49.602710 11291 net.cpp:100] Creating Layer scale4b2_branch2c
I1130 23:44:49.602712 11291 net.cpp:434] scale4b2_branch2c <- res4b2_branch2c
I1130 23:44:49.602715 11291 net.cpp:395] scale4b2_branch2c -> res4b2_branch2c (in-place)
I1130 23:44:49.602741 11291 layer_factory.hpp:77] Creating layer scale4b2_branch2c
I1130 23:44:49.602821 11291 net.cpp:150] Setting up scale4b2_branch2c
I1130 23:44:49.602825 11291 net.cpp:157] Top shape: 6 1024 14 14 (1204224)
I1130 23:44:49.602828 11291 net.cpp:165] Memory required for data: 1520934936
I1130 23:44:49.602829 11291 layer_factory.hpp:77] Creating layer res4b2
I1130 23:44:49.602833 11291 net.cpp:100] Creating Layer res4b2
I1130 23:44:49.602835 11291 net.cpp:434] res4b2 <- res4b1_res4b1_relu_0_split_1
I1130 23:44:49.602838 11291 net.cpp:434] res4b2 <- res4b2_branch2c
I1130 23:44:49.602840 11291 net.cpp:408] res4b2 -> res4b2
I1130 23:44:49.602856 11291 net.cpp:150] Setting up res4b2
I1130 23:44:49.602860 11291 net.cpp:157] Top shape: 6 1024 14 14 (1204224)
I1130 23:44:49.602861 11291 net.cpp:165] Memory required for data: 1525751832
I1130 23:44:49.602864 11291 layer_factory.hpp:77] Creating layer res4b2_relu
I1130 23:44:49.602866 11291 net.cpp:100] Creating Layer res4b2_relu
I1130 23:44:49.602869 11291 net.cpp:434] res4b2_relu <- res4b2
I1130 23:44:49.602870 11291 net.cpp:395] res4b2_relu -> res4b2 (in-place)
I1130 23:44:49.602978 11291 net.cpp:150] Setting up res4b2_relu
I1130 23:44:49.602982 11291 net.cpp:157] Top shape: 6 1024 14 14 (1204224)
I1130 23:44:49.602984 11291 net.cpp:165] Memory required for data: 1530568728
I1130 23:44:49.602987 11291 layer_factory.hpp:77] Creating layer res4b2_res4b2_relu_0_split
I1130 23:44:49.602989 11291 net.cpp:100] Creating Layer res4b2_res4b2_relu_0_split
I1130 23:44:49.602990 11291 net.cpp:434] res4b2_res4b2_relu_0_split <- res4b2
I1130 23:44:49.602994 11291 net.cpp:408] res4b2_res4b2_relu_0_split -> res4b2_res4b2_relu_0_split_0
…
I1130 23:44:50.547816 11291 net.cpp:100] Creating Layer bn4b33_branch2a
I1130 23:44:50.547818 11291 net.cpp:434] bn4b33_branch2a <- res4b33_branch2a
I1130 23:44:50.547822 11291 net.cpp:395] bn4b33_branch2a -> res4b33_branch2a (in-place)
I1130 23:44:50.548012 11291 net.cpp:150] Setting up bn4b33_branch2a
I1130 23:44:50.548014 11291 net.cpp:157] Top shape: 1 256 14 14 (50176)
I1130 23:44:50.548017 11291 net.cpp:165] Memory required for data: 473862156
I1130 23:44:50.548020 11291 layer_factory.hpp:77] Creating layer scale4b33_branch2a
I1130 23:44:50.548023 11291 net.cpp:100] Creating Layer scale4b33_branch2a
I1130 23:44:50.548025 11291 net.cpp:434] scale4b33_branch2a <- res4b33_branch2a
I1130 23:44:50.548028 11291 net.cpp:395] scale4b33_branch2a -> res4b33_branch2a (in-place)
I1130 23:44:50.548060 11291 layer_factory.hpp:77] Creating layer scale4b33_branch2a
I1130 23:44:50.548156 11291 net.cpp:150] Setting up scale4b33_branch2a
I1130 23:44:50.548159 11291 net.cpp:157] Top shape: 1 256 14 14 (50176)
I1130 23:44:50.548161 11291 net.cpp:165] Memory required for data: 474062860
I1130 23:44:50.548164 11291 layer_factory.hpp:77] Creating layer res4b33_branch2a_relu
I1130 23:44:50.548167 11291 net.cpp:100] Creating Layer res4b33_branch2a_relu
I1130 23:44:50.548169 11291 net.cpp:434] res4b33_branch2a_relu <- res4b33_branch2a
I1130 23:44:50.548172 11291 net.cpp:395] res4b33_branch2a_relu -> res4b33_branch2a (in-place)
I1130 23:44:50.548707 11291 net.cpp:150] Setting up res4b33_branch2a_relu
I1130 23:44:50.548712 11291 net.cpp:157] Top shape: 1 256 14 14 (50176)
I1130 23:44:50.548723 11291 net.cpp:165] Memory required for data: 474263564
I1130 23:44:50.548725 11291 layer_factory.hpp:77] Creating layer res4b33_branch2b
I1130 23:44:50.548732 11291 net.cpp:100] Creating Layer res4b33_branch2b
I1130 23:44:50.548733 11291 net.cpp:434] res4b33_branch2b <- res4b33_branch2a
I1130 23:44:50.548738 11291 net.cpp:408] res4b33_branch2b -> res4b33_branch2b
I1130 23:44:50.552703 11291 net.cpp:150] Setting up res4b33_branch2b
I1130 23:44:50.552717 11291 net.cpp:157] Top shape: 1 256 14 14 (50176)
I1130 23:44:50.552719 11291 net.cpp:165] Memory required for data: 474464268
I1130 23:44:50.552726 11291 layer_factory.hpp:77] Creating layer bn4b33_branch2b
I1130 23:44:50.552731 11291 net.cpp:100] Creating Layer bn4b33_branch2b
I1130 23:44:50.552734 11291 net.cpp:434] bn4b33_branch2b <- res4b33_branch2b
I1130 23:44:50.552738 11291 net.cpp:395] bn4b33_branch2b -> res4b33_branch2b (in-place)
I1130 23:44:50.552930 11291 net.cpp:150] Setting up bn4b33_branch2b
I1130 23:44:50.552934 11291 net.cpp:157] Top shape: 1 256 14 14 (50176)
I1130 23:44:50.552935 11291 net.cpp:165] Memory required for data: 474664972
I1130 23:44:50.552939 11291 layer_factory.hpp:77] Creating layer scale4b33_branch2b
I1130 23:44:50.552943 11291 net.cpp:100] Creating Layer scale4b33_branch2b
I1130 23:44:50.552945 11291 net.cpp:434] scale4b33_branch2b <- res4b33_branch2b
I1130 23:44:50.552947 11291 net.cpp:395] scale4b33_branch2b -> res4b33_branch2b (in-place)
I1130 23:44:50.552981 11291 layer_factory.hpp:77] Creating layer scale4b33_branch2b
I1130 23:44:50.553079 11291 net.cpp:150] Setting up scale4b33_branch2b
I1130 23:44:50.553083 11291 net.cpp:157] Top shape: 1 256 14 14 (50176)
I1130 23:44:50.553084 11291 net.cpp:165] Memory required for data: 474865676
I1130 23:44:50.553087 11291 layer_factory.hpp:77] Creating layer res4b33_branch2b_relu
I1130 23:44:50.553091 11291 net.cpp:100] Creating Layer res4b33_branch2b_relu
I1130 23:44:50.553092 11291 net.cpp:434] res4b33_branch2b_relu <- res4b33_branch2b
I1130 23:44:50.553095 11291 net.cpp:395] res4b33_branch2b_relu -> res4b33_branch2b (in-place)
I1130 23:44:50.553683 11291 net.cpp:150] Setting up res4b33_branch2b_relu
I1130 23:44:50.553689 11291 net.cpp:157] Top shape: 1 256 14 14 (50176)
I1130 23:44:50.553691 11291 net.cpp:165] Memory required for data: 475066380
I1130 23:44:50.553694 11291 layer_factory.hpp:77] Creating layer res4b33_branch2c
I1130 23:44:50.553699 11291 net.cpp:100] Creating Layer res4b33_branch2c
I1130 23:44:50.553701 11291 net.cpp:434] res4b33_branch2c <- res4b33_branch2b
I1130 23:44:50.553706 11291 net.cpp:408] res4b33_branch2c -> res4b33_branch2c
I1130 23:44:50.556416 11291 net.cpp:150] Setting up res4b33_branch2c
I1130 23:44:50.556423 11291 net.cpp:157] Top shape: 1 1024 14 14 (200704)
I1130 23:44:50.556426 11291 net.cpp:165] Memory required for data: 475869196
I1130 23:44:50.556430 11291 layer_factory.hpp:77] Creating layer bn4b33_branch2c
I1130 23:44:50.556435 11291 net.cpp:100] Creating Layer bn4b33_branch2c
I1130 23:44:50.556437 11291 net.cpp:434] bn4b33_branch2c <- res4b33_branch2c
I1130 23:44:50.556442 11291 net.cpp:395] bn4b33_branch2c -> res4b33_branch2c (in-place)
I1130 23:44:50.556671 11291 net.cpp:150] Setting up bn4b33_branch2c
I1130 23:44:50.556674 11291 net.cpp:157] Top shape: 1 1024 14 14 (200704)
I1130 23:44:50.556676 11291 net.cpp:165] Memory required for data: 476672012
I1130 23:44:50.556680 11291 layer_factory.hpp:77] Creating layer scale4b33_branch2c
I1130 23:44:50.556684 11291 net.cpp:100] Creating Layer scale4b33_branch2c
I1130 23:44:50.556685 11291 net.cpp:434] scale4b33_branch2c <- res4b33_branch2c
I1130 23:44:50.556691 11291 net.cpp:395] scale4b33_branch2c -> res4b33_branch2c (in-place)
I1130 23:44:50.556735 11291 layer_factory.hpp:77] Creating layer scale4b33_branch2c
I1130 23:44:50.556855 11291 net.cpp:150] Setting up scale4b33_branch2c
I1130 23:44:50.556859 11291 net.cpp:157] Top shape: 1 1024 14 14 (200704)
I1130 23:44:50.556861 11291 net.cpp:165] Memory required for data: 477474828
I1130 23:44:50.556865 11291 layer_factory.hpp:77] Creating layer res4b33
I1130 23:44:50.556885 11291 net.cpp:100] Creating Layer res4b33
I1130 23:44:50.556887 11291 net.cpp:434] res4b33 <- res4b32_res4b32_relu_0_split_1
I1130 23:44:50.556890 11291 net.cpp:434] res4b33 <- res4b33_branch2c
I1130 23:44:50.556892 11291 net.cpp:408] res4b33 -> res4b33
I1130 23:44:50.556913 11291 net.cpp:150] Setting up res4b33
I1130 23:44:50.556916 11291 net.cpp:157] Top shape: 1 1024 14 14 (200704)
I1130 23:44:50.556918 11291 net.cpp:165] Memory required for data: 478277644
I1130 23:44:50.556920 11291 layer_factory.hpp:77] Creating layer res4b33_relu
I1130 23:44:50.556923 11291 net.cpp:100] Creating Layer res4b33_relu
I1130 23:44:50.556924 11291 net.cpp:434] res4b33_relu <- res4b33
I1130 23:44:50.556927 11291 net.cpp:395] res4b33_relu -> res4b33 (in-place)
I1130 23:44:50.557085 11291 net.cpp:150] Setting up res4b33_relu
I1130 23:44:50.557090 11291 net.cpp:157] Top shape: 1 1024 14 14 (200704)
I1130 23:44:50.557090 11291 net.cpp:165] Memory required for data: 479080460
I1130 23:44:50.557092 11291 layer_factory.hpp:77] Creating layer res4b33_res4b33_relu_0_split
I1130 23:44:50.557096 11291 net.cpp:100] Creating Layer res4b33_res4b33_relu_0_split
I1130 23:44:50.557098 11291 net.cpp:434] res4b33_res4b33_relu_0_split <- res4b33
I1130 23:44:50.557101 11291 net.cpp:408] res4b33_res4b33_relu_0_split -> res4b33_res4b33_relu_0_split_0
I1130 23:44:50.557104 11291 net.cpp:408] res4b33_res4b33_relu_0_split -> res4b33_res4b33_relu_0_split_1
I1130 23:44:50.557142 11291 net.cpp:150] Setting up res4b33_res4b33_relu_0_split
I1130 23:44:50.557145 11291 net.cpp:157] Top shape: 1 1024 14 14 (200704)
I1130 23:44:50.557147 11291 net.cpp:157] Top shape: 1 1024 14 14 (200704)
I1130 23:44:50.557148 11291 net.cpp:165] Memory required for data: 480686092
I1130 23:44:50.557150 11291 layer_factory.hpp:77] Creating layer res4b34_branch2a
I1130 23:44:50.557155 11291 net.cpp:100] Creating Layer res4b34_branch2a
I1130 23:44:50.557158 11291 net.cpp:434] res4b34_branch2a <- res4b33_res4b33_relu_0_split_0
I1130 23:44:50.557162 11291 net.cpp:408] res4b34_branch2a -> res4b34_branch2a
I1130 23:44:50.559212 11291 net.cpp:150] Setting up res4b34_branch2a
I1130 23:44:50.559221 11291 net.cpp:157] Top shape: 1 256 14 14 (50176)
I1130 23:44:50.559222 11291 net.cpp:165] Memory required for data: 480886796
I1130 23:44:50.559226 11291 layer_factory.hpp:77] Creating layer bn4b34_branch2a
I1130 23:44:50.559231 11291 net.cpp:100] Creating Layer bn4b34_branch2a
I1130 23:44:50.559233 11291 net.cpp:434] bn4b34_branch2a <- res4b34_branch2a
I1130 23:44:50.559237 11291 net.cpp:395] bn4b34_branch2a -> res4b34_branch2a (in-place)
I1130 23:44:50.559420 11291 net.cpp:150] Setting up bn4b34_branch2a
I1130 23:44:50.559424 11291 net.cpp:157] Top shape: 1 256 14 14 (50176)
I1130 23:44:50.559427 11291 net.cpp:165] Memory required for data: 481087500
I1130 23:44:50.559430 11291 layer_factory.hpp:77] Creating layer scale4b34_branch2a
I1130 23:44:50.559433 11291 net.cpp:100] Creating Layer scale4b34_branch2a
I1130 23:44:50.559434 11291 net.cpp:434] scale4b34_branch2a <- res4b34_branch2a
I1130 23:44:50.559437 11291 net.cpp:395] scale4b34_branch2a -> res4b34_branch2a (in-place)
I1130 23:44:50.559470 11291 layer_factory.hpp:77] Creating layer scale4b34_branch2a
I1130 23:44:50.559571 11291 net.cpp:150] Setting up scale4b34_branch2a
I1130 23:44:50.559574 11291 net.cpp:157] Top shape: 1 256 14 14 (50176)
I1130 23:44:50.559576 11291 net.cpp:165] Memory required for data: 481288204
I1130 23:44:50.559579 11291 layer_factory.hpp:77] Creating layer res4b34_branch2a_relu
I1130 23:44:50.559583 11291 net.cpp:100] Creating Layer res4b34_branch2a_relu
I1130 23:44:50.559584 11291 net.cpp:434] res4b34_branch2a_relu <- res4b34_branch2a
I1130 23:44:50.559587 11291 net.cpp:395] res4b34_branch2a_relu -> res4b34_branch2a (in-place)
I1130 23:44:50.559741 11291 net.cpp:150] Setting up res4b34_branch2a_relu
I1130 23:44:50.559746 11291 net.cpp:157] Top shape: 1 256 14 14 (50176)
I1130 23:44:50.559747 11291 net.cpp:165] Memory required for data: 481488908
I1130 23:44:50.559758 11291 layer_factory.hpp:77] Creating layer res4b34_branch2b
I1130 23:44:50.559763 11291 net.cpp:100] Creating Layer res4b34_branch2b
I1130 23:44:50.559765 11291 net.cpp:434] res4b34_branch2b <- res4b34_branch2a
I1130 23:44:50.559769 11291 net.cpp:408] res4b34_branch2b -> res4b34_branch2b
I1130 23:44:50.564049 11291 net.cpp:150] Setting up res4b34_branch2b
I1130 23:44:50.564061 11291 net.cpp:157] Top shape: 1 256 14 14 (50176)
I1130 23:44:50.564064 11291 net.cpp:165] Memory required for data: 481689612
I1130 23:44:50.564069 11291 layer_factory.hpp:77] Creating layer bn4b34_branch2b
I1130 23:44:50.564074 11291 net.cpp:100] Creating Layer bn4b34_branch2b
I1130 23:44:50.564077 11291 net.cpp:434] bn4b34_branch2b <- res4b34_branch2b
I1130 23:44:50.564082 11291 net.cpp:395] bn4b34_branch2b -> res4b34_branch2b (in-place)
I1130 23:44:50.564275 11291 net.cpp:150] Setting up bn4b34_branch2b
I1130 23:44:50.564280 11291 net.cpp:157] Top shape: 1 256 14 14 (50176)
I1130 23:44:50.564281 11291 net.cpp:165] Memory required for data: 481890316
I1130 23:44:50.564285 11291 layer_factory.hpp:77] Creating layer scale4b34_branch2b
I1130 23:44:50.564288 11291 net.cpp:100] Creating Layer scale4b34_branch2b
I1130 23:44:50.564291 11291 net.cpp:434] scale4b34_branch2b <- res4b34_branch2b
I1130 23:44:50.564294 11291 net.cpp:395] scale4b34_branch2b -> res4b34_branch2b (in-place)
I1130 23:44:50.564328 11291 layer_factory.hpp:77] Creating layer scale4b34_branch2b
I1130 23:44:50.564429 11291 net.cpp:150] Setting up scale4b34_branch2b
I1130 23:44:50.564434 11291 net.cpp:157] Top shape: 1 256 14 14 (50176)
I1130 23:44:50.564435 11291 net.cpp:165] Memory required for data: 482091020
I1130 23:44:50.564437 11291 layer_factory.hpp:77] Creating layer res4b34_branch2b_relu
I1130 23:44:50.564440 11291 net.cpp:100] Creating Layer res4b34_branch2b_relu
I1130 23:44:50.564443 11291 net.cpp:434] res4b34_branch2b_relu <- res4b34_branch2b
I1130 23:44:50.564445 11291 net.cpp:395] res4b34_branch2b_relu -> res4b34_branch2b (in-place)
I1130 23:44:50.564646 11291 net.cpp:150] Setting up res4b34_branch2b_relu
I1130 23:44:50.564651 11291 net.cpp:157] Top shape: 1 256 14 14 (50176)
I1130 23:44:50.564652 11291 net.cpp:165] Memory required for data: 482291724
I1130 23:44:50.564654 11291 layer_factory.hpp:77] Creating layer res4b34_branch2c
I1130 23:44:50.564661 11291 net.cpp:100] Creating Layer res4b34_branch2c
I1130 23:44:50.564662 11291 net.cpp:434] res4b34_branch2c <- res4b34_branch2b
I1130 23:44:50.564666 11291 net.cpp:408] res4b34_branch2c -> res4b34_branch2c
I1130 23:44:50.567809 11291 net.cpp:150] Setting up res4b34_branch2c
I1130 23:44:50.567821 11291 net.cpp:157] Top shape: 1 1024 14 14 (200704)
I1130 23:44:50.567821 11291 net.cpp:165] Memory required for data: 483094540
I1130 23:44:50.567827 11291 layer_factory.hpp:77] Creating layer bn4b34_branch2c
I1130 23:44:50.567832 11291 net.cpp:100] Creating Layer bn4b34_branch2c
I1130 23:44:50.567836 11291 net.cpp:434] bn4b34_branch2c <- res4b34_branch2c
I1130 23:44:50.567839 11291 net.cpp:395] bn4b34_branch2c -> res4b34_branch2c (in-place)
I1130 23:44:50.568080 11291 net.cpp:150] Setting up bn4b34_branch2c
I1130 23:44:50.568085 11291 net.cpp:157] Top shape: 1 1024 14 14 (200704)
I1130 23:44:50.568087 11291 net.cpp:165] Memory required for data: 483897356
I1130 23:44:50.568091 11291 layer_factory.hpp:77] Creating layer scale4b34_branch2c
I1130 23:44:50.568094 11291 net.cpp:100] Creating Layer scale4b34_branch2c
I1130 23:44:50.568096 11291 net.cpp:434] scale4b34_branch2c <- res4b34_branch2c
I1130 23:44:50.568101 11291 net.cpp:395] scale4b34_branch2c -> res4b34_branch2c (in-place)
I1130 23:44:50.568146 11291 layer_factory.hpp:77] Creating layer scale4b34_branch2c
I1130 23:44:50.568269 11291 net.cpp:150] Setting up scale4b34_branch2c
I1130 23:44:50.568274 11291 net.cpp:157] Top shape: 1 1024 14 14 (200704)
I1130 23:44:50.568274 11291 net.cpp:165] Memory required for data: 484700172
I1130 23:44:50.568279 11291 layer_factory.hpp:77] Creating layer res4b34
I1130 23:44:50.568281 11291 net.cpp:100] Creating Layer res4b34
I1130 23:44:50.568296 11291 net.cpp:434] res4b34 <- res4b33_res4b33_relu_0_split_1
I1130 23:44:50.568300 11291 net.cpp:434] res4b34 <- res4b34_branch2c
I1130 23:44:50.568305 11291 net.cpp:408] res4b34 -> res4b34
I1130 23:44:50.568325 11291 net.cpp:150] Setting up res4b34
I1130 23:44:50.568330 11291 net.cpp:157] Top shape: 1 1024 14 14 (200704)
I1130 23:44:50.568331 11291 net.cpp:165] Memory required for data: 485502988
I1130 23:44:50.568332 11291 layer_factory.hpp:77] Creating layer res4b34_relu
I1130 23:44:50.568336 11291 net.cpp:100] Creating Layer res4b34_relu
I1130 23:44:50.568337 11291 net.cpp:434] res4b34_relu <- res4b34
I1130 23:44:50.568339 11291 net.cpp:395] res4b34_relu -> res4b34 (in-place)
I1130 23:44:50.568502 11291 net.cpp:150] Setting up res4b34_relu
I1130 23:44:50.568507 11291 net.cpp:157] Top shape: 1 1024 14 14 (200704)
I1130 23:44:50.568509 11291 net.cpp:165] Memory required for data: 486305804
I1130 23:44:50.568511 11291 layer_factory.hpp:77] Creating layer res4b34_res4b34_relu_0_split
I1130 23:44:50.568513 11291 net.cpp:100] Creating Layer res4b34_res4b34_relu_0_split
I1130 23:44:50.568516 11291 net.cpp:434] res4b34_res4b34_relu_0_split <- res4b34
I1130 23:44:50.568519 11291 net.cpp:408] res4b34_res4b34_relu_0_split -> res4b34_res4b34_relu_0_split_0
I1130 23:44:50.568523 11291 net.cpp:408] res4b34_res4b34_relu_0_split -> res4b34_res4b34_relu_0_split_1
I1130 23:44:50.568559 11291 net.cpp:150] Setting up res4b34_res4b34_relu_0_split
I1130 23:44:50.568563 11291 net.cpp:157] Top shape: 1 1024 14 14 (200704)
I1130 23:44:50.568565 11291 net.cpp:157] Top shape: 1 1024 14 14 (200704)
I1130 23:44:50.568567 11291 net.cpp:165] Memory required for data: 487911436
I1130 23:44:50.568568 11291 layer_factory.hpp:77] Creating layer res4b35_branch2a
I1130 23:44:50.568574 11291 net.cpp:100] Creating Layer res4b35_branch2a
I1130 23:44:50.568577 11291 net.cpp:434] res4b35_branch2a <- res4b34_res4b34_relu_0_split_0
I1130 23:44:50.568579 11291 net.cpp:408] res4b35_branch2a -> res4b35_branch2a
I1130 23:44:50.570562 11291 net.cpp:150] Setting up res4b35_branch2a
I1130 23:44:50.570569 11291 net.cpp:157] Top shape: 1 256 14 14 (50176)
I1130 23:44:50.570570 11291 net.cpp:165] Memory required for data: 488112140
I1130 23:44:50.570574 11291 layer_factory.hpp:77] Creating layer bn4b35_branch2a
I1130 23:44:50.570579 11291 net.cpp:100] Creating Layer bn4b35_branch2a
I1130 23:44:50.570580 11291 net.cpp:434] bn4b35_branch2a <- res4b35_branch2a
I1130 23:44:50.570583 11291 net.cpp:395] bn4b35_branch2a -> res4b35_branch2a (in-place)
I1130 23:44:50.570771 11291 net.cpp:150] Setting up bn4b35_branch2a
I1130 23:44:50.570775 11291 net.cpp:157] Top shape: 1 256 14 14 (50176)
I1130 23:44:50.570777 11291 net.cpp:165] Memory required for data: 488312844
I1130 23:44:50.570780 11291 layer_factory.hpp:77] Creating layer scale4b35_branch2a
I1130 23:44:50.570783 11291 net.cpp:100] Creating Layer scale4b35_branch2a
I1130 23:44:50.570785 11291 net.cpp:434] scale4b35_branch2a <- res4b35_branch2a
I1130 23:44:50.570788 11291 net.cpp:395] scale4b35_branch2a -> res4b35_branch2a (in-place)
I1130 23:44:50.570823 11291 layer_factory.hpp:77] Creating layer scale4b35_branch2a
I1130 23:44:50.571597 11291 net.cpp:150] Setting up scale4b35_branch2a
I1130 23:44:50.571604 11291 net.cpp:157] Top shape: 1 256 14 14 (50176)
I1130 23:44:50.571607 11291 net.cpp:165] Memory required for data: 488513548
I1130 23:44:50.571610 11291 layer_factory.hpp:77] Creating layer res4b35_branch2a_relu
I1130 23:44:50.571614 11291 net.cpp:100] Creating Layer res4b35_branch2a_relu
I1130 23:44:50.571615 11291 net.cpp:434] res4b35_branch2a_relu <- res4b35_branch2a
I1130 23:44:50.571619 11291 net.cpp:395] res4b35_branch2a_relu -> res4b35_branch2a (in-place)
I1130 23:44:50.572217 11291 net.cpp:150] Setting up res4b35_branch2a_relu
I1130 23:44:50.572223 11291 net.cpp:157] Top shape: 1 256 14 14 (50176)
I1130 23:44:50.572226 11291 net.cpp:165] Memory required for data: 488714252
I1130 23:44:50.572227 11291 layer_factory.hpp:77] Creating layer res4b35_branch2b
I1130 23:44:50.572234 11291 net.cpp:100] Creating Layer res4b35_branch2b
I1130 23:44:50.572247 11291 net.cpp:434] res4b35_branch2b <- res4b35_branch2a
I1130 23:44:50.572252 11291 net.cpp:408] res4b35_branch2b -> res4b35_branch2b
I1130 23:44:50.576007 11291 net.cpp:150] Setting up res4b35_branch2b
I1130 23:44:50.576017 11291 net.cpp:157] Top shape: 1 256 14 14 (50176)
I1130 23:44:50.576019 11291 net.cpp:165] Memory required for data: 488914956
I1130 23:44:50.576022 11291 layer_factory.hpp:77] Creating layer bn4b35_branch2b
I1130 23:44:50.576028 11291 net.cpp:100] Creating Layer bn4b35_branch2b
I1130 23:44:50.576031 11291 net.cpp:434] bn4b35_branch2b <- res4b35_branch2b
I1130 23:44:50.576035 11291 net.cpp:395] bn4b35_branch2b -> res4b35_branch2b (in-place)
I1130 23:44:50.576160 11291 net.cpp:150] Setting up bn4b35_branch2b
I1130 23:44:50.576164 11291 net.cpp:157] Top shape: 1 256 14 14 (50176)
I1130 23:44:50.576165 11291 net.cpp:165] Memory required for data: 489115660
I1130 23:44:50.576169 11291 layer_factory.hpp:77] Creating layer scale4b35_branch2b
I1130 23:44:50.576174 11291 net.cpp:100] Creating Layer scale4b35_branch2b
I1130 23:44:50.576176 11291 net.cpp:434] scale4b35_branch2b <- res4b35_branch2b
I1130 23:44:50.576179 11291 net.cpp:395] scale4b35_branch2b -> res4b35_branch2b (in-place)
I1130 23:44:50.576200 11291 layer_factory.hpp:77] Creating layer scale4b35_branch2b
I1130 23:44:50.576267 11291 net.cpp:150] Setting up scale4b35_branch2b
I1130 23:44:50.576269 11291 net.cpp:157] Top shape: 1 256 14 14 (50176)
I1130 23:44:50.576272 11291 net.cpp:165] Memory required for data: 489316364
I1130 23:44:50.576274 11291 layer_factory.hpp:77] Creating layer res4b35_branch2b_relu
I1130 23:44:50.576278 11291 net.cpp:100] Creating Layer res4b35_branch2b_relu
I1130 23:44:50.576280 11291 net.cpp:434] res4b35_branch2b_relu <- res4b35_branch2b
I1130 23:44:50.576282 11291 net.cpp:395] res4b35_branch2b_relu -> res4b35_branch2b (in-place)
I1130 23:44:50.576863 11291 net.cpp:150] Setting up res4b35_branch2b_relu
I1130 23:44:50.576869 11291 net.cpp:157] Top shape: 1 256 14 14 (50176)
I1130 23:44:50.576870 11291 net.cpp:165] Memory required for data: 489517068
I1130 23:44:50.576871 11291 layer_factory.hpp:77] Creating layer res4b35_branch2c
I1130 23:44:50.576877 11291 net.cpp:100] Creating Layer res4b35_branch2c
I1130 23:44:50.576879 11291 net.cpp:434] res4b35_branch2c <- res4b35_branch2b
I1130 23:44:50.576884 11291 net.cpp:408] res4b35_branch2c -> res4b35_branch2c
I1130 23:44:50.579556 11291 net.cpp:150] Setting up res4b35_branch2c
I1130 23:44:50.579566 11291 net.cpp:157] Top shape: 1 1024 14 14 (200704)
I1130 23:44:50.579568 11291 net.cpp:165] Memory required for data: 490319884
I1130 23:44:50.579572 11291 layer_factory.hpp:77] Creating layer bn4b35_branch2c
I1130 23:44:50.579577 11291 net.cpp:100] Creating Layer bn4b35_branch2c
I1130 23:44:50.579579 11291 net.cpp:434] bn4b35_branch2c <- res4b35_branch2c
I1130 23:44:50.579583 11291 net.cpp:395] bn4b35_branch2c -> res4b35_branch2c (in-place)
I1130 23:44:50.579761 11291 net.cpp:150] Setting up bn4b35_branch2c
I1130 23:44:50.579764 11291 net.cpp:157] Top shape: 1 1024 14 14 (200704)
I1130 23:44:50.579766 11291 net.cpp:165] Memory required for data: 491122700
I1130 23:44:50.579769 11291 layer_factory.hpp:77] Creating layer scale4b35_branch2c
I1130 23:44:50.579773 11291 net.cpp:100] Creating Layer scale4b35_branch2c
I1130 23:44:50.579776 11291 net.cpp:434] scale4b35_branch2c <- res4b35_branch2c
I1130 23:44:50.579777 11291 net.cpp:395] scale4b35_branch2c -> res4b35_branch2c (in-place)
I1130 23:44:50.579818 11291 layer_factory.hpp:77] Creating layer scale4b35_branch2c
I1130 23:44:50.579919 11291 net.cpp:150] Setting up scale4b35_branch2c
I1130 23:44:50.579923 11291 net.cpp:157] Top shape: 1 1024 14 14 (200704)
I1130 23:44:50.579926 11291 net.cpp:165] Memory required for data: 491925516
I1130 23:44:50.579928 11291 layer_factory.hpp:77] Creating layer res4b35
I1130 23:44:50.579932 11291 net.cpp:100] Creating Layer res4b35
I1130 23:44:50.579936 11291 net.cpp:434] res4b35 <- res4b34_res4b34_relu_0_split_1
I1130 23:44:50.579937 11291 net.cpp:434] res4b35 <- res4b35_branch2c
I1130 23:44:50.579953 11291 net.cpp:408] res4b35 -> res4b35
I1130 23:44:50.579970 11291 net.cpp:150] Setting up res4b35
I1130 23:44:50.579973 11291 net.cpp:157] Top shape: 1 1024 14 14 (200704)
I1130 23:44:50.579974 11291 net.cpp:165] Memory required for data: 492728332
I1130 23:44:50.579977 11291 layer_factory.hpp:77] Creating layer res4b35_relu
I1130 23:44:50.579979 11291 net.cpp:100] Creating Layer res4b35_relu
I1130 23:44:50.579982 11291 net.cpp:434] res4b35_relu <- res4b35
I1130 23:44:50.579984 11291 net.cpp:395] res4b35_relu -> res4b35 (in-place)
I1130 23:44:50.580142 11291 net.cpp:150] Setting up res4b35_relu
I1130 23:44:50.580147 11291 net.cpp:157] Top shape: 1 1024 14 14 (200704)
I1130 23:44:50.580148 11291 net.cpp:165] Memory required for data: 493531148
I1130 23:44:50.580150 11291 layer_factory.hpp:77] Creating layer res4b35_res4b35_relu_0_split
I1130 23:44:50.580153 11291 net.cpp:100] Creating Layer res4b35_res4b35_relu_0_split
I1130 23:44:50.580155 11291 net.cpp:434] res4b35_res4b35_relu_0_split <- res4b35
I1130 23:44:50.580158 11291 net.cpp:408] res4b35_res4b35_relu_0_split -> res4b35_res4b35_relu_0_split_0
I1130 23:44:50.580163 11291 net.cpp:408] res4b35_res4b35_relu_0_split -> res4b35_res4b35_relu_0_split_1
I1130 23:44:50.580188 11291 net.cpp:150] Setting up res4b35_res4b35_relu_0_split
I1130 23:44:50.580191 11291 net.cpp:157] Top shape: 1 1024 14 14 (200704)
I1130 23:44:50.580193 11291 net.cpp:157] Top shape: 1 1024 14 14 (200704)
I1130 23:44:50.580194 11291 net.cpp:165] Memory required for data: 495136780
I1130 23:44:50.580195 11291 layer_factory.hpp:77] Creating layer res5a_branch1
I1130 23:44:50.580201 11291 net.cpp:100] Creating Layer res5a_branch1
I1130 23:44:50.580204 11291 net.cpp:434] res5a_branch1 <- res4b35_res4b35_relu_0_split_0
I1130 23:44:50.580207 11291 net.cpp:408] res5a_branch1 -> res5a_branch1
I1130 23:44:50.590615 11291 net.cpp:150] Setting up res5a_branch1
I1130 23:44:50.590631 11291 net.cpp:157] Top shape: 1 2048 7 7 (100352)
I1130 23:44:50.590632 11291 net.cpp:165] Memory required for data: 495538188
I1130 23:44:50.590637 11291 layer_factory.hpp:77] Creating layer bn5a_branch1
I1130 23:44:50.590644 11291 net.cpp:100] Creating Layer bn5a_branch1
I1130 23:44:50.590648 11291 net.cpp:434] bn5a_branch1 <- res5a_branch1
I1130 23:44:50.590652 11291 net.cpp:395] bn5a_branch1 -> res5a_branch1 (in-place)
I1130 23:44:50.590850 11291 net.cpp:150] Setting up bn5a_branch1
I1130 23:44:50.590854 11291 net.cpp:157] Top shape: 1 2048 7 7 (100352)
I1130 23:44:50.590857 11291 net.cpp:165] Memory required for data: 495939596
I1130 23:44:50.590860 11291 layer_factory.hpp:77] Creating layer scale5a_branch1
I1130 23:44:50.590863 11291 net.cpp:100] Creating Layer scale5a_branch1
I1130 23:44:50.590865 11291 net.cpp:434] scale5a_branch1 <- res5a_branch1
I1130 23:44:50.590869 11291 net.cpp:395] scale5a_branch1 -> res5a_branch1 (in-place)
I1130 23:44:50.590911 11291 layer_factory.hpp:77] Creating layer scale5a_branch1
I1130 23:44:50.591004 11291 net.cpp:150] Setting up scale5a_branch1
I1130 23:44:50.591007 11291 net.cpp:157] Top shape: 1 2048 7 7 (100352)
I1130 23:44:50.591009 11291 net.cpp:165] Memory required for data: 496341004
I1130 23:44:50.591012 11291 layer_factory.hpp:77] Creating layer res5a_branch2a
I1130 23:44:50.591018 11291 net.cpp:100] Creating Layer res5a_branch2a
I1130 23:44:50.591022 11291 net.cpp:434] res5a_branch2a <- res4b35_res4b35_relu_0_split_1
I1130 23:44:50.591025 11291 net.cpp:408] res5a_branch2a -> res5a_branch2a
I1130 23:44:50.594657 11291 net.cpp:150] Setting up res5a_branch2a
I1130 23:44:50.594667 11291 net.cpp:157] Top shape: 1 512 7 7 (25088)
I1130 23:44:50.594669 11291 net.cpp:165] Memory required for data: 496441356
I1130 23:44:50.594673 11291 layer_factory.hpp:77] Creating layer bn5a_branch2a
I1130 23:44:50.594679 11291 net.cpp:100] Creating Layer bn5a_branch2a
I1130 23:44:50.594682 11291 net.cpp:434] bn5a_branch2a <- res5a_branch2a
I1130 23:44:50.594686 11291 net.cpp:395] bn5a_branch2a -> res5a_branch2a (in-place)
I1130 23:44:50.594873 11291 net.cpp:150] Setting up bn5a_branch2a
I1130 23:44:50.594877 11291 net.cpp:157] Top shape: 1 512 7 7 (25088)
I1130 23:44:50.594879 11291 net.cpp:165] Memory required for data: 496541708
I1130 23:44:50.594882 11291 layer_factory.hpp:77] Creating layer scale5a_branch2a
I1130 23:44:50.594887 11291 net.cpp:100] Creating Layer scale5a_branch2a
I1130 23:44:50.594889 11291 net.cpp:434] scale5a_branch2a <- res5a_branch2a
I1130 23:44:50.594892 11291 net.cpp:395] scale5a_branch2a -> res5a_branch2a (in-place)
I1130 23:44:50.594933 11291 layer_factory.hpp:77] Creating layer scale5a_branch2a
I1130 23:44:50.595024 11291 net.cpp:150] Setting up scale5a_branch2a
I1130 23:44:50.595028 11291 net.cpp:157] Top shape: 1 512 7 7 (25088)
I1130 23:44:50.595029 11291 net.cpp:165] Memory required for data: 496642060
I1130 23:44:50.595032 11291 layer_factory.hpp:77] Creating layer res5a_branch2a_relu
I1130 23:44:50.595036 11291 net.cpp:100] Creating Layer res5a_branch2a_relu
I1130 23:44:50.595037 11291 net.cpp:434] res5a_branch2a_relu <- res5a_branch2a
I1130 23:44:50.595041 11291 net.cpp:395] res5a_branch2a_relu -> res5a_branch2a (in-place)
I1130 23:44:50.595196 11291 net.cpp:150] Setting up res5a_branch2a_relu
I1130 23:44:50.595201 11291 net.cpp:157] Top shape: 1 512 7 7 (25088)
I1130 23:44:50.595202 11291 net.cpp:165] Memory required for data: 496742412
I1130 23:44:50.595204 11291 layer_factory.hpp:77] Creating layer res5a_branch2b
I1130 23:44:50.595211 11291 net.cpp:100] Creating Layer res5a_branch2b
I1130 23:44:50.595212 11291 net.cpp:434] res5a_branch2b <- res5a_branch2a
I1130 23:44:50.595216 11291 net.cpp:408] res5a_branch2b -> res5a_branch2b
I1130 23:44:50.607132 11291 net.cpp:150] Setting up res5a_branch2b
I1130 23:44:50.607148 11291 net.cpp:157] Top shape: 1 512 7 7 (25088)
I1130 23:44:50.607151 11291 net.cpp:165] Memory required for data: 496842764
I1130 23:44:50.607157 11291 layer_factory.hpp:77] Creating layer bn5a_branch2b
I1130 23:44:50.607164 11291 net.cpp:100] Creating Layer bn5a_branch2b
I1130 23:44:50.607168 11291 net.cpp:434] bn5a_branch2b <- res5a_branch2b
I1130 23:44:50.607173 11291 net.cpp:395] bn5a_branch2b -> res5a_branch2b (in-place)
I1130 23:44:50.607370 11291 net.cpp:150] Setting up bn5a_branch2b
I1130 23:44:50.607375 11291 net.cpp:157] Top shape: 1 512 7 7 (25088)
I1130 23:44:50.607376 11291 net.cpp:165] Memory required for data: 496943116
I1130 23:44:50.607381 11291 layer_factory.hpp:77] Creating layer scale5a_branch2b
I1130 23:44:50.607384 11291 net.cpp:100] Creating Layer scale5a_branch2b
I1130 23:44:50.607386 11291 net.cpp:434] scale5a_branch2b <- res5a_branch2b
I1130 23:44:50.607388 11291 net.cpp:395] scale5a_branch2b -> res5a_branch2b (in-place)
I1130 23:44:50.607432 11291 layer_factory.hpp:77] Creating layer scale5a_branch2b
I1130 23:44:50.607524 11291 net.cpp:150] Setting up scale5a_branch2b
I1130 23:44:50.607528 11291 net.cpp:157] Top shape: 1 512 7 7 (25088)
I1130 23:44:50.607529 11291 net.cpp:165] Memory required for data: 497043468
I1130 23:44:50.607533 11291 layer_factory.hpp:77] Creating layer res5a_branch2b_relu
I1130 23:44:50.607537 11291 net.cpp:100] Creating Layer res5a_branch2b_relu
I1130 23:44:50.607537 11291 net.cpp:434] res5a_branch2b_relu <- res5a_branch2b
I1130 23:44:50.607540 11291 net.cpp:395] res5a_branch2b_relu -> res5a_branch2b (in-place)
I1130 23:44:50.607707 11291 net.cpp:150] Setting up res5a_branch2b_relu
I1130 23:44:50.607712 11291 net.cpp:157] Top shape: 1 512 7 7 (25088)
I1130 23:44:50.607712 11291 net.cpp:165] Memory required for data: 497143820
I1130 23:44:50.607714 11291 layer_factory.hpp:77] Creating layer res5a_branch2c
I1130 23:44:50.607720 11291 net.cpp:100] Creating Layer res5a_branch2c
I1130 23:44:50.607722 11291 net.cpp:434] res5a_branch2c <- res5a_branch2b
I1130 23:44:50.607727 11291 net.cpp:408] res5a_branch2c -> res5a_branch2c
I1130 23:44:50.613545 11291 net.cpp:150] Setting up res5a_branch2c
I1130 23:44:50.613561 11291 net.cpp:157] Top shape: 1 2048 7 7 (100352)
I1130 23:44:50.613564 11291 net.cpp:165] Memory required for data: 497545228
I1130 23:44:50.613569 11291 layer_factory.hpp:77] Creating layer bn5a_branch2c
I1130 23:44:50.613591 11291 net.cpp:100] Creating Layer bn5a_branch2c
I1130 23:44:50.613595 11291 net.cpp:434] bn5a_branch2c <- res5a_branch2c
I1130 23:44:50.613600 11291 net.cpp:395] bn5a_branch2c -> res5a_branch2c (in-place)
I1130 23:44:50.613788 11291 net.cpp:150] Setting up bn5a_branch2c
I1130 23:44:50.613793 11291 net.cpp:157] Top shape: 1 2048 7 7 (100352)
I1130 23:44:50.613795 11291 net.cpp:165] Memory required for data: 497946636
I1130 23:44:50.613801 11291 layer_factory.hpp:77] Creating layer scale5a_branch2c
I1130 23:44:50.613803 11291 net.cpp:100] Creating Layer scale5a_branch2c
I1130 23:44:50.613806 11291 net.cpp:434] scale5a_branch2c <- res5a_branch2c
I1130 23:44:50.613808 11291 net.cpp:395] scale5a_branch2c -> res5a_branch2c (in-place)
I1130 23:44:50.613852 11291 layer_factory.hpp:77] Creating layer scale5a_branch2c
I1130 23:44:50.613950 11291 net.cpp:150] Setting up scale5a_branch2c
I1130 23:44:50.613955 11291 net.cpp:157] Top shape: 1 2048 7 7 (100352)
I1130 23:44:50.613956 11291 net.cpp:165] Memory required for data: 498348044
I1130 23:44:50.613960 11291 layer_factory.hpp:77] Creating layer res5a
I1130 23:44:50.613962 11291 net.cpp:100] Creating Layer res5a
I1130 23:44:50.613965 11291 net.cpp:434] res5a <- res5a_branch1
I1130 23:44:50.613967 11291 net.cpp:434] res5a <- res5a_branch2c
I1130 23:44:50.613970 11291 net.cpp:408] res5a -> res5a
I1130 23:44:50.613986 11291 net.cpp:150] Setting up res5a
I1130 23:44:50.613988 11291 net.cpp:157] Top shape: 1 2048 7 7 (100352)
I1130 23:44:50.613991 11291 net.cpp:165] Memory required for data: 498749452
I1130 23:44:50.613991 11291 layer_factory.hpp:77] Creating layer res5a_relu
I1130 23:44:50.613994 11291 net.cpp:100] Creating Layer res5a_relu
I1130 23:44:50.613997 11291 net.cpp:434] res5a_relu <- res5a
I1130 23:44:50.614001 11291 net.cpp:395] res5a_relu -> res5a (in-place)
I1130 23:44:50.614156 11291 net.cpp:150] Setting up res5a_relu
I1130 23:44:50.614161 11291 net.cpp:157] Top shape: 1 2048 7 7 (100352)
I1130 23:44:50.614162 11291 net.cpp:165] Memory required for data: 499150860
I1130 23:44:50.614164 11291 layer_factory.hpp:77] Creating layer res5a_res5a_relu_0_split
I1130 23:44:50.614167 11291 net.cpp:100] Creating Layer res5a_res5a_relu_0_split
I1130 23:44:50.614169 11291 net.cpp:434] res5a_res5a_relu_0_split <- res5a
I1130 23:44:50.614173 11291 net.cpp:408] res5a_res5a_relu_0_split -> res5a_res5a_relu_0_split_0
I1130 23:44:50.614177 11291 net.cpp:408] res5a_res5a_relu_0_split -> res5a_res5a_relu_0_split_1
I1130 23:44:50.614203 11291 net.cpp:150] Setting up res5a_res5a_relu_0_split
I1130 23:44:50.614207 11291 net.cpp:157] Top shape: 1 2048 7 7 (100352)
I1130 23:44:50.614208 11291 net.cpp:157] Top shape: 1 2048 7 7 (100352)
I1130 23:44:50.614210 11291 net.cpp:165] Memory required for data: 499953676
I1130 23:44:50.614212 11291 layer_factory.hpp:77] Creating layer res5b_branch2a
I1130 23:44:50.614217 11291 net.cpp:100] Creating Layer res5b_branch2a
I1130 23:44:50.614219 11291 net.cpp:434] res5b_branch2a <- res5a_res5a_relu_0_split_0
I1130 23:44:50.614224 11291 net.cpp:408] res5b_branch2a -> res5b_branch2a
I1130 23:44:50.620172 11291 net.cpp:150] Setting up res5b_branch2a
I1130 23:44:50.620188 11291 net.cpp:157] Top shape: 1 512 7 7 (25088)
I1130 23:44:50.620190 11291 net.cpp:165] Memory required for data: 500054028
I1130 23:44:50.620196 11291 layer_factory.hpp:77] Creating layer bn5b_branch2a
I1130 23:44:50.620203 11291 net.cpp:100] Creating Layer bn5b_branch2a
I1130 23:44:50.620205 11291 net.cpp:434] bn5b_branch2a <- res5b_branch2a
I1130 23:44:50.620210 11291 net.cpp:395] bn5b_branch2a -> res5b_branch2a (in-place)
I1130 23:44:50.620405 11291 net.cpp:150] Setting up bn5b_branch2a
I1130 23:44:50.620410 11291 net.cpp:157] Top shape: 1 512 7 7 (25088)
I1130 23:44:50.620411 11291 net.cpp:165] Memory required for data: 500154380
I1130 23:44:50.620415 11291 layer_factory.hpp:77] Creating layer scale5b_branch2a
I1130 23:44:50.620420 11291 net.cpp:100] Creating Layer scale5b_branch2a
I1130 23:44:50.620422 11291 net.cpp:434] scale5b_branch2a <- res5b_branch2a
I1130 23:44:50.620434 11291 net.cpp:395] scale5b_branch2a -> res5b_branch2a (in-place)
I1130 23:44:50.620479 11291 layer_factory.hpp:77] Creating layer scale5b_branch2a
I1130 23:44:50.620576 11291 net.cpp:150] Setting up scale5b_branch2a
I1130 23:44:50.620580 11291 net.cpp:157] Top shape: 1 512 7 7 (25088)
I1130 23:44:50.620582 11291 net.cpp:165] Memory required for data: 500254732
I1130 23:44:50.620585 11291 layer_factory.hpp:77] Creating layer res5b_branch2a_relu
I1130 23:44:50.620589 11291 net.cpp:100] Creating Layer res5b_branch2a_relu
I1130 23:44:50.620590 11291 net.cpp:434] res5b_branch2a_relu <- res5b_branch2a
I1130 23:44:50.620594 11291 net.cpp:395] res5b_branch2a_relu -> res5b_branch2a (in-place)
I1130 23:44:50.620750 11291 net.cpp:150] Setting up res5b_branch2a_relu
I1130 23:44:50.620755 11291 net.cpp:157] Top shape: 1 512 7 7 (25088)
I1130 23:44:50.620757 11291 net.cpp:165] Memory required for data: 500355084
I1130 23:44:50.620759 11291 layer_factory.hpp:77] Creating layer res5b_branch2b
I1130 23:44:50.620764 11291 net.cpp:100] Creating Layer res5b_branch2b
I1130 23:44:50.620767 11291 net.cpp:434] res5b_branch2b <- res5b_branch2a
I1130 23:44:50.620770 11291 net.cpp:408] res5b_branch2b -> res5b_branch2b
I1130 23:44:50.632715 11291 net.cpp:150] Setting up res5b_branch2b
I1130 23:44:50.632731 11291 net.cpp:157] Top shape: 1 512 7 7 (25088)
I1130 23:44:50.632733 11291 net.cpp:165] Memory required for data: 500455436
I1130 23:44:50.632740 11291 layer_factory.hpp:77] Creating layer bn5b_branch2b
I1130 23:44:50.632746 11291 net.cpp:100] Creating Layer bn5b_branch2b
I1130 23:44:50.632750 11291 net.cpp:434] bn5b_branch2b <- res5b_branch2b
I1130 23:44:50.632755 11291 net.cpp:395] bn5b_branch2b -> res5b_branch2b (in-place)
I1130 23:44:50.632959 11291 net.cpp:150] Setting up bn5b_branch2b
I1130 23:44:50.632964 11291 net.cpp:157] Top shape: 1 512 7 7 (25088)
I1130 23:44:50.632966 11291 net.cpp:165] Memory required for data: 500555788
I1130 23:44:50.632971 11291 layer_factory.hpp:77] Creating layer scale5b_branch2b
I1130 23:44:50.632974 11291 net.cpp:100] Creating Layer scale5b_branch2b
I1130 23:44:50.632975 11291 net.cpp:434] scale5b_branch2b <- res5b_branch2b
I1130 23:44:50.632977 11291 net.cpp:395] scale5b_branch2b -> res5b_branch2b (in-place)
I1130 23:44:50.633021 11291 layer_factory.hpp:77] Creating layer scale5b_branch2b
I1130 23:44:50.633116 11291 net.cpp:150] Setting up scale5b_branch2b
I1130 23:44:50.633119 11291 net.cpp:157] Top shape: 1 512 7 7 (25088)
I1130 23:44:50.633121 11291 net.cpp:165] Memory required for data: 500656140
I1130 23:44:50.633124 11291 layer_factory.hpp:77] Creating layer res5b_branch2b_relu
I1130 23:44:50.633127 11291 net.cpp:100] Creating Layer res5b_branch2b_relu
I1130 23:44:50.633129 11291 net.cpp:434] res5b_branch2b_relu <- res5b_branch2b
I1130 23:44:50.633132 11291 net.cpp:395] res5b_branch2b_relu -> res5b_branch2b (in-place)
I1130 23:44:50.633705 11291 net.cpp:150] Setting up res5b_branch2b_relu
I1130 23:44:50.633713 11291 net.cpp:157] Top shape: 1 512 7 7 (25088)
I1130 23:44:50.633714 11291 net.cpp:165] Memory required for data: 500756492
I1130 23:44:50.633716 11291 layer_factory.hpp:77] Creating layer res5b_branch2c
I1130 23:44:50.633723 11291 net.cpp:100] Creating Layer res5b_branch2c
I1130 23:44:50.633724 11291 net.cpp:434] res5b_branch2c <- res5b_branch2b
I1130 23:44:50.633729 11291 net.cpp:408] res5b_branch2c -> res5b_branch2c
I1130 23:44:50.639081 11291 net.cpp:150] Setting up res5b_branch2c
I1130 23:44:50.639098 11291 net.cpp:157] Top shape: 1 2048 7 7 (100352)
I1130 23:44:50.639101 11291 net.cpp:165] Memory required for data: 501157900
I1130 23:44:50.639106 11291 layer_factory.hpp:77] Creating layer bn5b_branch2c
I1130 23:44:50.639111 11291 net.cpp:100] Creating Layer bn5b_branch2c
I1130 23:44:50.639114 11291 net.cpp:434] bn5b_branch2c <- res5b_branch2c
I1130 23:44:50.639118 11291 net.cpp:395] bn5b_branch2c -> res5b_branch2c (in-place)
I1130 23:44:50.639309 11291 net.cpp:150] Setting up bn5b_branch2c
I1130 23:44:50.639313 11291 net.cpp:157] Top shape: 1 2048 7 7 (100352)
I1130 23:44:50.639323 11291 net.cpp:165] Memory required for data: 501559308
I1130 23:44:50.639328 11291 layer_factory.hpp:77] Creating layer scale5b_branch2c
I1130 23:44:50.639333 11291 net.cpp:100] Creating Layer scale5b_branch2c
I1130 23:44:50.639335 11291 net.cpp:434] scale5b_branch2c <- res5b_branch2c
I1130 23:44:50.639338 11291 net.cpp:395] scale5b_branch2c -> res5b_branch2c (in-place)
I1130 23:44:50.639385 11291 layer_factory.hpp:77] Creating layer scale5b_branch2c
I1130 23:44:50.639482 11291 net.cpp:150] Setting up scale5b_branch2c
I1130 23:44:50.639485 11291 net.cpp:157] Top shape: 1 2048 7 7 (100352)
I1130 23:44:50.639487 11291 net.cpp:165] Memory required for data: 501960716
I1130 23:44:50.639490 11291 layer_factory.hpp:77] Creating layer res5b
I1130 23:44:50.639493 11291 net.cpp:100] Creating Layer res5b
I1130 23:44:50.639495 11291 net.cpp:434] res5b <- res5a_res5a_relu_0_split_1
I1130 23:44:50.639498 11291 net.cpp:434] res5b <- res5b_branch2c
I1130 23:44:50.639503 11291 net.cpp:408] res5b -> res5b
I1130 23:44:50.639518 11291 net.cpp:150] Setting up res5b
I1130 23:44:50.639520 11291 net.cpp:157] Top shape: 1 2048 7 7 (100352)
I1130 23:44:50.639523 11291 net.cpp:165] Memory required for data: 502362124
I1130 23:44:50.639523 11291 layer_factory.hpp:77] Creating layer res5b_relu
I1130 23:44:50.639528 11291 net.cpp:100] Creating Layer res5b_relu
I1130 23:44:50.639528 11291 net.cpp:434] res5b_relu <- res5b
I1130 23:44:50.639531 11291 net.cpp:395] res5b_relu -> res5b (in-place)
I1130 23:44:50.640197 11291 net.cpp:150] Setting up res5b_relu
I1130 23:44:50.640204 11291 net.cpp:157] Top shape: 1 2048 7 7 (100352)
I1130 23:44:50.640205 11291 net.cpp:165] Memory required for data: 502763532
I1130 23:44:50.640208 11291 layer_factory.hpp:77] Creating layer res5b_res5b_relu_0_split
I1130 23:44:50.640211 11291 net.cpp:100] Creating Layer res5b_res5b_relu_0_split
I1130 23:44:50.640213 11291 net.cpp:434] res5b_res5b_relu_0_split <- res5b
I1130 23:44:50.640218 11291 net.cpp:408] res5b_res5b_relu_0_split -> res5b_res5b_relu_0_split_0
I1130 23:44:50.640223 11291 net.cpp:408] res5b_res5b_relu_0_split -> res5b_res5b_relu_0_split_1
I1130 23:44:50.640250 11291 net.cpp:150] Setting up res5b_res5b_relu_0_split
I1130 23:44:50.640254 11291 net.cpp:157] Top shape: 1 2048 7 7 (100352)
I1130 23:44:50.640256 11291 net.cpp:157] Top shape: 1 2048 7 7 (100352)
I1130 23:44:50.640259 11291 net.cpp:165] Memory required for data: 503566348
I1130 23:44:50.640260 11291 layer_factory.hpp:77] Creating layer res5c_branch2a
I1130 23:44:50.640265 11291 net.cpp:100] Creating Layer res5c_branch2a
I1130 23:44:50.640267 11291 net.cpp:434] res5c_branch2a <- res5b_res5b_relu_0_split_0
I1130 23:44:50.640271 11291 net.cpp:408] res5c_branch2a -> res5c_branch2a
I1130 23:44:50.646173 11291 net.cpp:150] Setting up res5c_branch2a
I1130 23:44:50.646189 11291 net.cpp:157] Top shape: 1 512 7 7 (25088)
I1130 23:44:50.646191 11291 net.cpp:165] Memory required for data: 503666700
I1130 23:44:50.646198 11291 layer_factory.hpp:77] Creating layer bn5c_branch2a
I1130 23:44:50.646203 11291 net.cpp:100] Creating Layer bn5c_branch2a
I1130 23:44:50.646206 11291 net.cpp:434] bn5c_branch2a <- res5c_branch2a
I1130 23:44:50.646210 11291 net.cpp:395] bn5c_branch2a -> res5c_branch2a (in-place)
I1130 23:44:50.646415 11291 net.cpp:150] Setting up bn5c_branch2a
I1130 23:44:50.646420 11291 net.cpp:157] Top shape: 1 512 7 7 (25088)
I1130 23:44:50.646421 11291 net.cpp:165] Memory required for data: 503767052
I1130 23:44:50.646425 11291 layer_factory.hpp:77] Creating layer scale5c_branch2a
I1130 23:44:50.646430 11291 net.cpp:100] Creating Layer scale5c_branch2a
I1130 23:44:50.646431 11291 net.cpp:434] scale5c_branch2a <- res5c_branch2a
I1130 23:44:50.646433 11291 net.cpp:395] scale5c_branch2a -> res5c_branch2a (in-place)
I1130 23:44:50.646479 11291 layer_factory.hpp:77] Creating layer scale5c_branch2a
I1130 23:44:50.646576 11291 net.cpp:150] Setting up scale5c_branch2a
I1130 23:44:50.646580 11291 net.cpp:157] Top shape: 1 512 7 7 (25088)
I1130 23:44:50.646590 11291 net.cpp:165] Memory required for data: 503867404
I1130 23:44:50.646594 11291 layer_factory.hpp:77] Creating layer res5c_branch2a_relu
I1130 23:44:50.646597 11291 net.cpp:100] Creating Layer res5c_branch2a_relu
I1130 23:44:50.646600 11291 net.cpp:434] res5c_branch2a_relu <- res5c_branch2a
I1130 23:44:50.646602 11291 net.cpp:395] res5c_branch2a_relu -> res5c_branch2a (in-place)
I1130 23:44:50.646762 11291 net.cpp:150] Setting up res5c_branch2a_relu
I1130 23:44:50.646767 11291 net.cpp:157] Top shape: 1 512 7 7 (25088)
I1130 23:44:50.646770 11291 net.cpp:165] Memory required for data: 503967756
I1130 23:44:50.646770 11291 layer_factory.hpp:77] Creating layer res5c_branch2b
I1130 23:44:50.646777 11291 net.cpp:100] Creating Layer res5c_branch2b
I1130 23:44:50.646780 11291 net.cpp:434] res5c_branch2b <- res5c_branch2a
I1130 23:44:50.646783 11291 net.cpp:408] res5c_branch2b -> res5c_branch2b
I1130 23:44:50.658804 11291 net.cpp:150] Setting up res5c_branch2b
I1130 23:44:50.658821 11291 net.cpp:157] Top shape: 1 512 7 7 (25088)
I1130 23:44:50.658823 11291 net.cpp:165] Memory required for data: 504068108
I1130 23:44:50.658829 11291 layer_factory.hpp:77] Creating layer bn5c_branch2b
I1130 23:44:50.658835 11291 net.cpp:100] Creating Layer bn5c_branch2b
I1130 23:44:50.658839 11291 net.cpp:434] bn5c_branch2b <- res5c_branch2b
I1130 23:44:50.658843 11291 net.cpp:395] bn5c_branch2b -> res5c_branch2b (in-place)
I1130 23:44:50.659052 11291 net.cpp:150] Setting up bn5c_branch2b
I1130 23:44:50.659057 11291 net.cpp:157] Top shape: 1 512 7 7 (25088)
I1130 23:44:50.659059 11291 net.cpp:165] Memory required for data: 504168460
I1130 23:44:50.659063 11291 layer_factory.hpp:77] Creating layer scale5c_branch2b
I1130 23:44:50.659067 11291 net.cpp:100] Creating Layer scale5c_branch2b
I1130 23:44:50.659068 11291 net.cpp:434] scale5c_branch2b <- res5c_branch2b
I1130 23:44:50.659071 11291 net.cpp:395] scale5c_branch2b -> res5c_branch2b (in-place)
I1130 23:44:50.659116 11291 layer_factory.hpp:77] Creating layer scale5c_branch2b
I1130 23:44:50.659212 11291 net.cpp:150] Setting up scale5c_branch2b
I1130 23:44:50.659216 11291 net.cpp:157] Top shape: 1 512 7 7 (25088)
I1130 23:44:50.659219 11291 net.cpp:165] Memory required for data: 504268812
I1130 23:44:50.659221 11291 layer_factory.hpp:77] Creating layer res5c_branch2b_relu
I1130 23:44:50.659224 11291 net.cpp:100] Creating Layer res5c_branch2b_relu
I1130 23:44:50.659226 11291 net.cpp:434] res5c_branch2b_relu <- res5c_branch2b
I1130 23:44:50.659229 11291 net.cpp:395] res5c_branch2b_relu -> res5c_branch2b (in-place)
I1130 23:44:50.659402 11291 net.cpp:150] Setting up res5c_branch2b_relu
I1130 23:44:50.659407 11291 net.cpp:157] Top shape: 1 512 7 7 (25088)
I1130 23:44:50.659409 11291 net.cpp:165] Memory required for data: 504369164
I1130 23:44:50.659411 11291 layer_factory.hpp:77] Creating layer res5c_branch2c
I1130 23:44:50.659417 11291 net.cpp:100] Creating Layer res5c_branch2c
I1130 23:44:50.659420 11291 net.cpp:434] res5c_branch2c <- res5c_branch2b
I1130 23:44:50.659422 11291 net.cpp:408] res5c_branch2c -> res5c_branch2c
I1130 23:44:50.665315 11291 net.cpp:150] Setting up res5c_branch2c
I1130 23:44:50.665333 11291 net.cpp:157] Top shape: 1 2048 7 7 (100352)
I1130 23:44:50.665334 11291 net.cpp:165] Memory required for data: 504770572
I1130 23:44:50.665340 11291 layer_factory.hpp:77] Creating layer bn5c_branch2c
I1130 23:44:50.665347 11291 net.cpp:100] Creating Layer bn5c_branch2c
I1130 23:44:50.665350 11291 net.cpp:434] bn5c_branch2c <- res5c_branch2c
I1130 23:44:50.665354 11291 net.cpp:395] bn5c_branch2c -> res5c_branch2c (in-place)
I1130 23:44:50.665557 11291 net.cpp:150] Setting up bn5c_branch2c
I1130 23:44:50.665561 11291 net.cpp:157] Top shape: 1 2048 7 7 (100352)
I1130 23:44:50.665563 11291 net.cpp:165] Memory required for data: 505171980
I1130 23:44:50.665567 11291 layer_factory.hpp:77] Creating layer scale5c_branch2c
I1130 23:44:50.665570 11291 net.cpp:100] Creating Layer scale5c_branch2c
I1130 23:44:50.665572 11291 net.cpp:434] scale5c_branch2c <- res5c_branch2c
I1130 23:44:50.665575 11291 net.cpp:395] scale5c_branch2c -> res5c_branch2c (in-place)
I1130 23:44:50.665633 11291 layer_factory.hpp:77] Creating layer scale5c_branch2c
I1130 23:44:50.665732 11291 net.cpp:150] Setting up scale5c_branch2c
I1130 23:44:50.665736 11291 net.cpp:157] Top shape: 1 2048 7 7 (100352)
I1130 23:44:50.665738 11291 net.cpp:165] Memory required for data: 505573388
I1130 23:44:50.665741 11291 layer_factory.hpp:77] Creating layer res5c
I1130 23:44:50.665745 11291 net.cpp:100] Creating Layer res5c
I1130 23:44:50.665747 11291 net.cpp:434] res5c <- res5b_res5b_relu_0_split_1
I1130 23:44:50.665750 11291 net.cpp:434] res5c <- res5c_branch2c
I1130 23:44:50.665753 11291 net.cpp:408] res5c -> res5c
I1130 23:44:50.665768 11291 net.cpp:150] Setting up res5c
I1130 23:44:50.665771 11291 net.cpp:157] Top shape: 1 2048 7 7 (100352)
I1130 23:44:50.665774 11291 net.cpp:165] Memory required for data: 505974796
I1130 23:44:50.665776 11291 layer_factory.hpp:77] Creating layer res5c_relu
I1130 23:44:50.665779 11291 net.cpp:100] Creating Layer res5c_relu
I1130 23:44:50.665781 11291 net.cpp:434] res5c_relu <- res5c
I1130 23:44:50.665784 11291 net.cpp:395] res5c_relu -> res5c (in-place)
I1130 23:44:50.665944 11291 net.cpp:150] Setting up res5c_relu
I1130 23:44:50.665949 11291 net.cpp:157] Top shape: 1 2048 7 7 (100352)
I1130 23:44:50.665951 11291 net.cpp:165] Memory required for data: 506376204
I1130 23:44:50.665952 11291 layer_factory.hpp:77] Creating layer pool5
I1130 23:44:50.665957 11291 net.cpp:100] Creating Layer pool5
I1130 23:44:50.665958 11291 net.cpp:434] pool5 <- res5c
I1130 23:44:50.665961 11291 net.cpp:408] pool5 -> pool5
I1130 23:44:50.666600 11291 net.cpp:150] Setting up pool5
I1130 23:44:50.666607 11291 net.cpp:157] Top shape: 1 2048 1 1 (2048)
I1130 23:44:50.666610 11291 net.cpp:165] Memory required for data: 506384396
I1130 23:44:50.666611 11291 layer_factory.hpp:77] Creating layer fc1000-whria
I1130 23:44:50.666615 11291 net.cpp:100] Creating Layer fc1000-whria
I1130 23:44:50.666617 11291 net.cpp:434] fc1000-whria <- pool5
I1130 23:44:50.666621 11291 net.cpp:408] fc1000-whria -> fc1000-whria
I1130 23:44:50.666754 11291 net.cpp:150] Setting up fc1000-whria
I1130 23:44:50.666759 11291 net.cpp:157] Top shape: 1 4 (4)
I1130 23:44:50.666760 11291 net.cpp:165] Memory required for data: 506384412
I1130 23:44:50.666764 11291 layer_factory.hpp:77] Creating layer fc1000-whria_fc1000-whria_0_split
I1130 23:44:50.666767 11291 net.cpp:100] Creating Layer fc1000-whria_fc1000-whria_0_split
I1130 23:44:50.666769 11291 net.cpp:434] fc1000-whria_fc1000-whria_0_split <- fc1000-whria
I1130 23:44:50.666771 11291 net.cpp:408] fc1000-whria_fc1000-whria_0_split -> fc1000-whria_fc1000-whria_0_split_0
I1130 23:44:50.666775 11291 net.cpp:408] fc1000-whria_fc1000-whria_0_split -> fc1000-whria_fc1000-whria_0_split_1
I1130 23:44:50.666800 11291 net.cpp:150] Setting up fc1000-whria_fc1000-whria_0_split
I1130 23:44:50.666803 11291 net.cpp:157] Top shape: 1 4 (4)
I1130 23:44:50.666805 11291 net.cpp:157] Top shape: 1 4 (4)
I1130 23:44:50.666806 11291 net.cpp:165] Memory required for data: 506384444
I1130 23:44:50.666808 11291 layer_factory.hpp:77] Creating layer loss
I1130 23:44:50.666813 11291 net.cpp:100] Creating Layer loss
I1130 23:44:50.666815 11291 net.cpp:434] loss <- fc1000-whria_fc1000-whria_0_split_0
I1130 23:44:50.666818 11291 net.cpp:434] loss <- label_resnet_152_1_split_0
I1130 23:44:50.666821 11291 net.cpp:408] loss -> loss
…
