…
I1129 07:53:55.661865  1125 net.cpp:322] The NetState phase (0) differed from the phase (1) specified by a rule in layer accuracy
I1129 07:53:55.661962  1125 net.cpp:58] Initializing net from parameters: 
name: "CaffeNet"
state {
  phase: TRAIN
  level: 0
  stage: ""
}
layer {
  name: "data"
  type: "Data"
  top: "data"
  top: "label"
  include {
    phase: TRAIN
  }
  transform_param {
    mirror: true
    crop_size: 227
    mean_file: "/home/ai/large/input2/100-web/croporg/mean227x227.binaryproto"
  }
  data_param {
    source: "/home/ai/large/input2/100-web/croporg/train227x227_lmdb"
    batch_size: 210
    backend: LMDB
  }
}
layer {
  name: "conv1"
  type: "Convolution"
  bottom: "data"
  top: "conv1"
  param {
    lr_mult: 1
    decay_mult: 1
  }
  param {
    lr_mult: 2
    decay_mult: 0
  }
  convolution_param {
    num_output: 96
    kernel_size: 11
    stride: 4
    weight_filler {
      type: "gaussian"
      std: 0.01
    }
    bias_filler {
      type: "constant"
      value: 0
    }
  }
}
layer {
  name: "relu1"
  type: "ReLU"
  bottom: "conv1"
  top: "conv1"
}
layer {
  name: "pool1"
  type: "Pooling"
  bottom: "conv1"
  top: "pool1"
  pooling_param {
    pool: MAX
    kernel_size: 3
    stride: 2
  }
}
layer {
  name: "norm1"
  type: "LRN"
  bottom: "pool1"
  top: "norm1"
  lrn_param {
    local_size: 5
    alpha: 0.0001
    beta: 0.75
  }
}
layer {
  name: "conv2"
  type: "Convolution"
  bottom: "norm1"
  top: "conv2"
  param {
    lr_mult: 1
    decay_mult: 1
  }
  param {
    lr_mult: 2
    decay_mult: 0
  }
  convolution_param {
    num_output: 256
    pad: 2
    kernel_size: 5
    group: 2
    weight_filler {
      type: "gaussian"
      std: 0.01
    }
    bias_filler {
      type: "constant"
      value: 1
    }
  }
}
layer {
  name: "relu2"
  type: "ReLU"
  bottom: "conv2"
  top: "conv2"
}
layer {
  name: "pool2"
  type: "Pooling"
  bottom: "conv2"
  top: "pool2"
  pooling_param {
    pool: MAX
    kernel_size: 3
    stride: 2
  }
}
layer {
  name: "norm2"
  type: "LRN"
  bottom: "pool2"
  top: "norm2"
  lrn_param {
    local_size: 5
    alpha: 0.0001
    beta: 0.75
  }
}
layer {
  name: "conv3"
  type: "Convolution"
  bottom: "norm2"
  top: "conv3"
  param {
    lr_mult: 1
    decay_mult: 1
  }
  param {
    lr_mult: 2
    decay_mult: 0
  }
  convolution_param {
    num_output: 384
    pad: 1
    kernel_size: 3
    weight_filler {
      type: "gaussian"
      std: 0.01
    }
    bias_filler {
      type: "constant"
      value: 0
    }
  }
}
layer {
  name: "relu3"
  type: "ReLU"
  bottom: "conv3"
  top: "conv3"
}
layer {
  name: "conv4"
  type: "Convolution"
  bottom: "conv3"
  top: "conv4"
  param {
    lr_mult: 1
    decay_mult: 1
  }
  param {
    lr_mult: 2
    decay_mult: 0
  }
  convolution_param {
    num_output: 384
    pad: 1
    kernel_size: 3
    group: 2
    weight_filler {
      type: "gaussian"
      std: 0.01
    }
    bias_filler {
      type: "constant"
      value: 1
    }
  }
}
layer {
  name: "relu4"
  type: "ReLU"
  bottom: "conv4"
  top: "conv4"
}
layer {
  name: "conv5"
  type: "Convolution"
  bottom: "conv4"
  top: "conv5"
  param {
    lr_mult: 1
    decay_mult: 1
  }
  param {
    lr_mult: 2
    decay_mult: 0
  }
  convolution_param {
    num_output: 256
    pad: 1
    kernel_size: 3
    group: 2
    weight_filler {
      type: "gaussian"
      std: 0.01
    }
    bias_filler {
      type: "constant"
      value: 1
    }
  }
}
layer {
  name: "relu5"
  type: "ReLU"
  bottom: "conv5"
  top: "conv5"
}
layer {
  name: "pool5"
  type: "Pooling"
  bottom: "conv5"
  top: "pool5"
  pooling_param {
    pool: MAX
    kernel_size: 3
    stride: 2
  }
}
layer {
  name: "fc6"
  type: "InnerProduct"
  bottom: "pool5"
  top: "fc6"
  param {
    lr_mult: 1
    decay_mult: 1
  }
  param {
    lr_mult: 2
    decay_mult: 0
  }
  inner_product_param {
    num_output: 4096
    weight_filler {
      type: "gaussian"
      std: 0.005
    }
    bias_filler {
      type: "constant"
      value: 1
    }
  }
}
layer {
  name: "relu6"
  type: "ReLU"
  bottom: "fc6"
  top: "fc6"
}
layer {
  name: "drop6"
  type: "Dropout"
  bottom: "fc6"
  top: "fc6"
  dropout_param {
    dropout_ratio: 0.5
  }
}
layer {
  name: "fc7"
  type: "InnerProduct"
  bottom: "fc6"
  top: "fc7"
  param {
    lr_mult: 1
    decay_mult: 1
  }
  param {
    lr_mult: 2
    decay_mult: 0
  }
  inner_product_param {
    num_output: 4096
    weight_filler {
      type: "gaussian"
      std: 0.005
    }
    bias_filler {
      type: "constant"
      value: 1
    }
  }
}
layer {
  name: "relu7"
  type: "ReLU"
  bottom: "fc7"
  top: "fc7"
}
layer {
  name: "drop7"
  type: "Dropout"
  bottom: "fc7"
  top: "fc7"
  dropout_param {
    dropout_ratio: 0.5
  }
}
layer {
  name: "fc8-cats-dogs"
  type: "InnerProduct"
  bottom: "fc7"
  top: "fc8-cats-dogs"
  param {
    lr_mult: 10
    decay_mult: 1
  }
  param {
    lr_mult: 20
    decay_mult: 0
  }
  inner_product_param {
    num_output: 4
    weight_filler {
      type: "gaussian"
      std: 0.01
    }
    bias_filler {
      type: "constant"
      value: 0
    }
  }
}
layer {
  name: "loss"
  type: "SoftmaxWithLoss"
  bottom: "fc8-cats-dogs"
  bottom: "label"
  top: "loss"
}
I1129 07:53:55.662027  1125 layer_factory.hpp:77] Creating layer data
I1129 07:53:55.662446  1125 net.cpp:100] Creating Layer data
I1129 07:53:55.662453  1125 net.cpp:408] data -> data
I1129 07:53:55.662467  1125 net.cpp:408] data -> label
I1129 07:53:55.662478  1125 data_transformer.cpp:25] Loading mean file from: /home/ai/large/input2/100-web/croporg/mean227x227.binaryproto
I1129 07:53:55.770089  1134 db_lmdb.cpp:35] Opened lmdb /home/ai/large/input2/100-web/croporg/train227x227_lmdb
I1129 07:53:55.794805  1125 data_layer.cpp:41] output data size: 210,3,227,227
I1129 07:53:55.918668  1125 net.cpp:150] Setting up data
I1129 07:53:55.918686  1125 net.cpp:157] Top shape: 210 3 227 227 (32463270)
I1129 07:53:55.918689  1125 net.cpp:157] Top shape: 210 (210)
I1129 07:53:55.918690  1125 net.cpp:165] Memory required for data: 129853920
I1129 07:53:55.918697  1125 layer_factory.hpp:77] Creating layer conv1
I1129 07:53:55.918712  1125 net.cpp:100] Creating Layer conv1
I1129 07:53:55.918716  1125 net.cpp:434] conv1 <- data
I1129 07:53:55.918726  1125 net.cpp:408] conv1 -> conv1
I1129 07:53:55.962821  1135 blocking_queue.cpp:50] Waiting for data
I1129 07:53:56.069619  1125 net.cpp:150] Setting up conv1
I1129 07:53:56.069635  1125 net.cpp:157] Top shape: 210 96 55 55 (60984000)
I1129 07:53:56.069638  1125 net.cpp:165] Memory required for data: 373789920
I1129 07:53:56.069654  1125 layer_factory.hpp:77] Creating layer relu1
I1129 07:53:56.069664  1125 net.cpp:100] Creating Layer relu1
I1129 07:53:56.069666  1125 net.cpp:434] relu1 <- conv1
I1129 07:53:56.069670  1125 net.cpp:395] relu1 -> conv1 (in-place)
I1129 07:53:56.069788  1125 net.cpp:150] Setting up relu1
I1129 07:53:56.069793  1125 net.cpp:157] Top shape: 210 96 55 55 (60984000)
I1129 07:53:56.069795  1125 net.cpp:165] Memory required for data: 617725920
I1129 07:53:56.069797  1125 layer_factory.hpp:77] Creating layer pool1
I1129 07:53:56.069802  1125 net.cpp:100] Creating Layer pool1
I1129 07:53:56.069802  1125 net.cpp:434] pool1 <- conv1
I1129 07:53:56.069805  1125 net.cpp:408] pool1 -> pool1
I1129 07:53:56.069836  1125 net.cpp:150] Setting up pool1
I1129 07:53:56.069841  1125 net.cpp:157] Top shape: 210 96 27 27 (14696640)
I1129 07:53:56.069854  1125 net.cpp:165] Memory required for data: 676512480
I1129 07:53:56.069855  1125 layer_factory.hpp:77] Creating layer norm1
I1129 07:53:56.069861  1125 net.cpp:100] Creating Layer norm1
I1129 07:53:56.069864  1125 net.cpp:434] norm1 <- pool1
I1129 07:53:56.069866  1125 net.cpp:408] norm1 -> norm1
I1129 07:53:56.070127  1125 net.cpp:150] Setting up norm1
I1129 07:53:56.070134  1125 net.cpp:157] Top shape: 210 96 27 27 (14696640)
I1129 07:53:56.070137  1125 net.cpp:165] Memory required for data: 735299040
I1129 07:53:56.070138  1125 layer_factory.hpp:77] Creating layer conv2
I1129 07:53:56.070145  1125 net.cpp:100] Creating Layer conv2
I1129 07:53:56.070147  1125 net.cpp:434] conv2 <- norm1
I1129 07:53:56.070150  1125 net.cpp:408] conv2 -> conv2
I1129 07:53:56.073380  1125 net.cpp:150] Setting up conv2
I1129 07:53:56.073391  1125 net.cpp:157] Top shape: 210 256 27 27 (39191040)
I1129 07:53:56.073393  1125 net.cpp:165] Memory required for data: 892063200
I1129 07:53:56.073400  1125 layer_factory.hpp:77] Creating layer relu2
I1129 07:53:56.073405  1125 net.cpp:100] Creating Layer relu2
I1129 07:53:56.073406  1125 net.cpp:434] relu2 <- conv2
I1129 07:53:56.073410  1125 net.cpp:395] relu2 -> conv2 (in-place)
I1129 07:53:56.073665  1125 net.cpp:150] Setting up relu2
I1129 07:53:56.073673  1125 net.cpp:157] Top shape: 210 256 27 27 (39191040)
I1129 07:53:56.073674  1125 net.cpp:165] Memory required for data: 1048827360
I1129 07:53:56.073676  1125 layer_factory.hpp:77] Creating layer pool2
I1129 07:53:56.073680  1125 net.cpp:100] Creating Layer pool2
I1129 07:53:56.073683  1125 net.cpp:434] pool2 <- conv2
I1129 07:53:56.073685  1125 net.cpp:408] pool2 -> pool2
I1129 07:53:56.073712  1125 net.cpp:150] Setting up pool2
I1129 07:53:56.073716  1125 net.cpp:157] Top shape: 210 256 13 13 (9085440)
I1129 07:53:56.073717  1125 net.cpp:165] Memory required for data: 1085169120
I1129 07:53:56.073719  1125 layer_factory.hpp:77] Creating layer norm2
I1129 07:53:56.073724  1125 net.cpp:100] Creating Layer norm2
I1129 07:53:56.073726  1125 net.cpp:434] norm2 <- pool2
I1129 07:53:56.073729  1125 net.cpp:408] norm2 -> norm2
I1129 07:53:56.073858  1125 net.cpp:150] Setting up norm2
I1129 07:53:56.073865  1125 net.cpp:157] Top shape: 210 256 13 13 (9085440)
I1129 07:53:56.073868  1125 net.cpp:165] Memory required for data: 1121510880
I1129 07:53:56.073869  1125 layer_factory.hpp:77] Creating layer conv3
I1129 07:53:56.073875  1125 net.cpp:100] Creating Layer conv3
I1129 07:53:56.073878  1125 net.cpp:434] conv3 <- norm2
I1129 07:53:56.073881  1125 net.cpp:408] conv3 -> conv3
I1129 07:53:56.080823  1125 net.cpp:150] Setting up conv3
I1129 07:53:56.080838  1125 net.cpp:157] Top shape: 210 384 13 13 (13628160)
I1129 07:53:56.080840  1125 net.cpp:165] Memory required for data: 1176023520
I1129 07:53:56.080852  1125 layer_factory.hpp:77] Creating layer relu3
I1129 07:53:56.080858  1125 net.cpp:100] Creating Layer relu3
I1129 07:53:56.080862  1125 net.cpp:434] relu3 <- conv3
I1129 07:53:56.080865  1125 net.cpp:395] relu3 -> conv3 (in-place)
I1129 07:53:56.080974  1125 net.cpp:150] Setting up relu3
I1129 07:53:56.080979  1125 net.cpp:157] Top shape: 210 384 13 13 (13628160)
I1129 07:53:56.080981  1125 net.cpp:165] Memory required for data: 1230536160
I1129 07:53:56.080982  1125 layer_factory.hpp:77] Creating layer conv4
I1129 07:53:56.080989  1125 net.cpp:100] Creating Layer conv4
I1129 07:53:56.080991  1125 net.cpp:434] conv4 <- conv3
I1129 07:53:56.080994  1125 net.cpp:408] conv4 -> conv4
I1129 07:53:56.086838  1125 net.cpp:150] Setting up conv4
I1129 07:53:56.086861  1125 net.cpp:157] Top shape: 210 384 13 13 (13628160)
I1129 07:53:56.086863  1125 net.cpp:165] Memory required for data: 1285048800
I1129 07:53:56.086869  1125 layer_factory.hpp:77] Creating layer relu4
I1129 07:53:56.086874  1125 net.cpp:100] Creating Layer relu4
I1129 07:53:56.086877  1125 net.cpp:434] relu4 <- conv4
I1129 07:53:56.086881  1125 net.cpp:395] relu4 -> conv4 (in-place)
I1129 07:53:56.086992  1125 net.cpp:150] Setting up relu4
I1129 07:53:56.087007  1125 net.cpp:157] Top shape: 210 384 13 13 (13628160)
I1129 07:53:56.087008  1125 net.cpp:165] Memory required for data: 1339561440
I1129 07:53:56.087010  1125 layer_factory.hpp:77] Creating layer conv5
I1129 07:53:56.087016  1125 net.cpp:100] Creating Layer conv5
I1129 07:53:56.087018  1125 net.cpp:434] conv5 <- conv4
I1129 07:53:56.087023  1125 net.cpp:408] conv5 -> conv5
I1129 07:53:56.091405  1125 net.cpp:150] Setting up conv5
I1129 07:53:56.091418  1125 net.cpp:157] Top shape: 210 256 13 13 (9085440)
I1129 07:53:56.091420  1125 net.cpp:165] Memory required for data: 1375903200
I1129 07:53:56.091428  1125 layer_factory.hpp:77] Creating layer relu5
I1129 07:53:56.091434  1125 net.cpp:100] Creating Layer relu5
I1129 07:53:56.091437  1125 net.cpp:434] relu5 <- conv5
I1129 07:53:56.091440  1125 net.cpp:395] relu5 -> conv5 (in-place)
I1129 07:53:56.091548  1125 net.cpp:150] Setting up relu5
I1129 07:53:56.091554  1125 net.cpp:157] Top shape: 210 256 13 13 (9085440)
I1129 07:53:56.091557  1125 net.cpp:165] Memory required for data: 1412244960
I1129 07:53:56.091557  1125 layer_factory.hpp:77] Creating layer pool5
I1129 07:53:56.091562  1125 net.cpp:100] Creating Layer pool5
I1129 07:53:56.091563  1125 net.cpp:434] pool5 <- conv5
I1129 07:53:56.091567  1125 net.cpp:408] pool5 -> pool5
I1129 07:53:56.091594  1125 net.cpp:150] Setting up pool5
I1129 07:53:56.091598  1125 net.cpp:157] Top shape: 210 256 6 6 (1935360)
I1129 07:53:56.091599  1125 net.cpp:165] Memory required for data: 1419986400
I1129 07:53:56.091601  1125 layer_factory.hpp:77] Creating layer fc6
I1129 07:53:56.091608  1125 net.cpp:100] Creating Layer fc6
I1129 07:53:56.091609  1125 net.cpp:434] fc6 <- pool5
I1129 07:53:56.091612  1125 net.cpp:408] fc6 -> fc6
I1129 07:53:56.348732  1125 net.cpp:150] Setting up fc6
I1129 07:53:56.348750  1125 net.cpp:157] Top shape: 210 4096 (860160)
I1129 07:53:56.348753  1125 net.cpp:165] Memory required for data: 1423427040
I1129 07:53:56.348758  1125 layer_factory.hpp:77] Creating layer relu6
I1129 07:53:56.348764  1125 net.cpp:100] Creating Layer relu6
I1129 07:53:56.348767  1125 net.cpp:434] relu6 <- fc6
I1129 07:53:56.348773  1125 net.cpp:395] relu6 -> fc6 (in-place)
I1129 07:53:56.348944  1125 net.cpp:150] Setting up relu6
I1129 07:53:56.348949  1125 net.cpp:157] Top shape: 210 4096 (860160)
I1129 07:53:56.348950  1125 net.cpp:165] Memory required for data: 1426867680
I1129 07:53:56.348953  1125 layer_factory.hpp:77] Creating layer drop6
I1129 07:53:56.348956  1125 net.cpp:100] Creating Layer drop6
I1129 07:53:56.348958  1125 net.cpp:434] drop6 <- fc6
I1129 07:53:56.348961  1125 net.cpp:395] drop6 -> fc6 (in-place)
I1129 07:53:56.348983  1125 net.cpp:150] Setting up drop6
I1129 07:53:56.348986  1125 net.cpp:157] Top shape: 210 4096 (860160)
I1129 07:53:56.348989  1125 net.cpp:165] Memory required for data: 1430308320
I1129 07:53:56.348989  1125 layer_factory.hpp:77] Creating layer fc7
I1129 07:53:56.348995  1125 net.cpp:100] Creating Layer fc7
I1129 07:53:56.348997  1125 net.cpp:434] fc7 <- fc6
I1129 07:53:56.349001  1125 net.cpp:408] fc7 -> fc7
I1129 07:53:56.468147  1125 net.cpp:150] Setting up fc7
I1129 07:53:56.468164  1125 net.cpp:157] Top shape: 210 4096 (860160)
I1129 07:53:56.468166  1125 net.cpp:165] Memory required for data: 1433748960
I1129 07:53:56.468173  1125 layer_factory.hpp:77] Creating layer relu7
I1129 07:53:56.468178  1125 net.cpp:100] Creating Layer relu7
I1129 07:53:56.468181  1125 net.cpp:434] relu7 <- fc7
I1129 07:53:56.468185  1125 net.cpp:395] relu7 -> fc7 (in-place)
I1129 07:53:56.468570  1125 net.cpp:150] Setting up relu7
I1129 07:53:56.468576  1125 net.cpp:157] Top shape: 210 4096 (860160)
I1129 07:53:56.468580  1125 net.cpp:165] Memory required for data: 1437189600
I1129 07:53:56.468580  1125 layer_factory.hpp:77] Creating layer drop7
I1129 07:53:56.468585  1125 net.cpp:100] Creating Layer drop7
I1129 07:53:56.468586  1125 net.cpp:434] drop7 <- fc7
I1129 07:53:56.468591  1125 net.cpp:395] drop7 -> fc7 (in-place)
I1129 07:53:56.468611  1125 net.cpp:150] Setting up drop7
I1129 07:53:56.468623  1125 net.cpp:157] Top shape: 210 4096 (860160)
I1129 07:53:56.468626  1125 net.cpp:165] Memory required for data: 1440630240
I1129 07:53:56.468627  1125 layer_factory.hpp:77] Creating layer fc8-cats-dogs
I1129 07:53:56.468631  1125 net.cpp:100] Creating Layer fc8-cats-dogs
I1129 07:53:56.468632  1125 net.cpp:434] fc8-cats-dogs <- fc7
I1129 07:53:56.468636  1125 net.cpp:408] fc8-cats-dogs -> fc8-cats-dogs
I1129 07:53:56.469291  1125 net.cpp:150] Setting up fc8-cats-dogs
I1129 07:53:56.469298  1125 net.cpp:157] Top shape: 210 4 (840)
I1129 07:53:56.469300  1125 net.cpp:165] Memory required for data: 1440633600
I1129 07:53:56.469303  1125 layer_factory.hpp:77] Creating layer loss
I1129 07:53:56.469307  1125 net.cpp:100] Creating Layer loss
I1129 07:53:56.469310  1125 net.cpp:434] loss <- fc8-cats-dogs
I1129 07:53:56.469311  1125 net.cpp:434] loss <- label
I1129 07:53:56.469318  1125 net.cpp:408] loss -> loss
I1129 07:53:56.469329  1125 layer_factory.hpp:77] Creating layer loss
…
I1129 07:53:56.469807  1125 net.cpp:322] The NetState phase (1) differed from the phase (0) specified by a rule in layer data
I1129 07:53:56.469907  1125 net.cpp:58] Initializing net from parameters: 
name: "CaffeNet"
state {
  phase: TEST
}
layer {
  name: "data"
  type: "Data"
  top: "data"
  top: "label"
  include {
    phase: TEST
  }
  transform_param {
    mirror: false
    crop_size: 227
    mean_file: "/home/ai/large/input2/100-web/croporg/mean227x227.binaryproto"
  }
  data_param {
    source: "/home/ai/large/input2/100-web/croporg/validation227x227_lmdb"
    batch_size: 50
    backend: LMDB
  }
}
layer {
  name: "conv1"
  type: "Convolution"
  bottom: "data"
  top: "conv1"
  param {
    lr_mult: 1
    decay_mult: 1
  }
  param {
    lr_mult: 2
    decay_mult: 0
  }
  convolution_param {
    num_output: 96
    kernel_size: 11
    stride: 4
    weight_filler {
      type: "gaussian"
      std: 0.01
    }
    bias_filler {
      type: "constant"
      value: 0
    }
  }
}
layer {
  name: "relu1"
  type: "ReLU"
  bottom: "conv1"
  top: "conv1"
}
layer {
  name: "pool1"
  type: "Pooling"
  bottom: "conv1"
  top: "pool1"
  pooling_param {
    pool: MAX
    kernel_size: 3
    stride: 2
  }
}
layer {
  name: "norm1"
  type: "LRN"
  bottom: "pool1"
  top: "norm1"
  lrn_param {
    local_size: 5
    alpha: 0.0001
    beta: 0.75
  }
}
layer {
  name: "conv2"
  type: "Convolution"
  bottom: "norm1"
  top: "conv2"
  param {
    lr_mult: 1
    decay_mult: 1
  }
  param {
    lr_mult: 2
    decay_mult: 0
  }
  convolution_param {
    num_output: 256
    pad: 2
    kernel_size: 5
    group: 2
    weight_filler {
      type: "gaussian"
      std: 0.01
    }
    bias_filler {
      type: "constant"
      value: 1
    }
  }
}
layer {
  name: "relu2"
  type: "ReLU"
  bottom: "conv2"
  top: "conv2"
}
layer {
  name: "pool2"
  type: "Pooling"
  bottom: "conv2"
  top: "pool2"
  pooling_param {
    pool: MAX
    kernel_size: 3
    stride: 2
  }
}
layer {
  name: "norm2"
  type: "LRN"
  bottom: "pool2"
  top: "norm2"
  lrn_param {
    local_size: 5
    alpha: 0.0001
    beta: 0.75
  }
}
layer {
  name: "conv3"
  type: "Convolution"
  bottom: "norm2"
  top: "conv3"
  param {
    lr_mult: 1
    decay_mult: 1
  }
  param {
    lr_mult: 2
    decay_mult: 0
  }
  convolution_param {
    num_output: 384
    pad: 1
    kernel_size: 3
    weight_filler {
      type: "gaussian"
      std: 0.01
    }
    bias_filler {
      type: "constant"
      value: 0
    }
  }
}
layer {
  name: "relu3"
  type: "ReLU"
  bottom: "conv3"
  top: "conv3"
}
layer {
  name: "conv4"
  type: "Convolution"
  bottom: "conv3"
  top: "conv4"
  param {
    lr_mult: 1
    decay_mult: 1
  }
  param {
    lr_mult: 2
    decay_mult: 0
  }
  convolution_param {
    num_output: 384
    pad: 1
    kernel_size: 3
    group: 2
    weight_filler {
      type: "gaussian"
      std: 0.01
    }
    bias_filler {
      type: "constant"
      value: 1
    }
  }
}
layer {
  name: "relu4"
  type: "ReLU"
  bottom: "conv4"
  top: "conv4"
}
layer {
  name: "conv5"
  type: "Convolution"
  bottom: "conv4"
  top: "conv5"
  param {
    lr_mult: 1
    decay_mult: 1
  }
  param {
    lr_mult: 2
    decay_mult: 0
  }
  convolution_param {
    num_output: 256
    pad: 1
    kernel_size: 3
    group: 2
    weight_filler {
      type: "gaussian"
      std: 0.01
    }
    bias_filler {
      type: "constant"
      value: 1
    }
  }
}
layer {
  name: "relu5"
  type: "ReLU"
  bottom: "conv5"
  top: "conv5"
}
layer {
  name: "pool5"
  type: "Pooling"
  bottom: "conv5"
  top: "pool5"
  pooling_param {
    pool: MAX
    kernel_size: 3
    stride: 2
  }
}
layer {
  name: "fc6"
  type: "InnerProduct"
  bottom: "pool5"
  top: "fc6"
  param {
    lr_mult: 1
    decay_mult: 1
  }
  param {
    lr_mult: 2
    decay_mult: 0
  }
  inner_product_param {
    num_output: 4096
    weight_filler {
      type: "gaussian"
      std: 0.005
    }
    bias_filler {
      type: "constant"
      value: 1
    }
  }
}
layer {
  name: "relu6"
  type: "ReLU"
  bottom: "fc6"
  top: "fc6"
}
layer {
  name: "drop6"
  type: "Dropout"
  bottom: "fc6"
  top: "fc6"
  dropout_param {
    dropout_ratio: 0.5
  }
}
layer {
  name: "fc7"
  type: "InnerProduct"
  bottom: "fc6"
  top: "fc7"
  param {
    lr_mult: 1
    decay_mult: 1
  }
  param {
    lr_mult: 2
    decay_mult: 0
  }
  inner_product_param {
    num_output: 4096
    weight_filler {
      type: "gaussian"
      std: 0.005
    }
    bias_filler {
      type: "constant"
      value: 1
    }
  }
}
layer {
  name: "relu7"
  type: "ReLU"
  bottom: "fc7"
  top: "fc7"
}
layer {
  name: "drop7"
  type: "Dropout"
  bottom: "fc7"
  top: "fc7"
  dropout_param {
    dropout_ratio: 0.5
  }
}
layer {
  name: "fc8-cats-dogs"
  type: "InnerProduct"
  bottom: "fc7"
  top: "fc8-cats-dogs"
  param {
    lr_mult: 10
    decay_mult: 1
  }
  param {
    lr_mult: 20
    decay_mult: 0
  }
  inner_product_param {
    num_output: 4
    weight_filler {
      type: "gaussian"
      std: 0.01
    }
    bias_filler {
      type: "constant"
      value: 0
    }
  }
}
layer {
  name: "accuracy"
  type: "Accuracy"
  bottom: "fc8-cats-dogs"
  bottom: "label"
  top: "accuracy"
  include {
    phase: TEST
  }
}
layer {
  name: "loss"
  type: "SoftmaxWithLoss"
  bottom: "fc8-cats-dogs"
  bottom: "label"
  top: "loss"
}
I1129 07:53:56.469977  1125 layer_factory.hpp:77] Creating layer data
I1129 07:53:56.470032  1125 net.cpp:100] Creating Layer data
I1129 07:53:56.470038  1125 net.cpp:408] data -> data
I1129 07:53:56.470043  1125 net.cpp:408] data -> label
I1129 07:53:56.470047  1125 data_transformer.cpp:25] Loading mean file from: /home/ai/large/input2/100-web/croporg/mean227x227.binaryproto
I1129 07:53:56.489814  1136 db_lmdb.cpp:35] Opened lmdb /home/ai/large/input2/100-web/croporg/validation227x227_lmdb
I1129 07:53:56.518946  1125 data_layer.cpp:41] output data size: 50,3,227,227
I1129 07:53:56.547991  1125 net.cpp:150] Setting up data
I1129 07:53:56.548007  1125 net.cpp:157] Top shape: 50 3 227 227 (7729350)
I1129 07:53:56.548009  1125 net.cpp:157] Top shape: 50 (50)
I1129 07:53:56.548010  1125 net.cpp:165] Memory required for data: 30917600
I1129 07:53:56.548015  1125 layer_factory.hpp:77] Creating layer label_data_1_split
I1129 07:53:56.548023  1125 net.cpp:100] Creating Layer label_data_1_split
I1129 07:53:56.548025  1125 net.cpp:434] label_data_1_split <- label
I1129 07:53:56.548030  1125 net.cpp:408] label_data_1_split -> label_data_1_split_0
I1129 07:53:56.548038  1125 net.cpp:408] label_data_1_split -> label_data_1_split_1
I1129 07:53:56.548140  1125 net.cpp:150] Setting up label_data_1_split
I1129 07:53:56.548149  1125 net.cpp:157] Top shape: 50 (50)
I1129 07:53:56.548151  1125 net.cpp:157] Top shape: 50 (50)
I1129 07:53:56.548153  1125 net.cpp:165] Memory required for data: 30918000
I1129 07:53:56.548156  1125 layer_factory.hpp:77] Creating layer conv1
I1129 07:53:56.548163  1125 net.cpp:100] Creating Layer conv1
I1129 07:53:56.548164  1125 net.cpp:434] conv1 <- data
I1129 07:53:56.548169  1125 net.cpp:408] conv1 -> conv1
I1129 07:53:56.551578  1125 net.cpp:150] Setting up conv1
I1129 07:53:56.551587  1125 net.cpp:157] Top shape: 50 96 55 55 (14520000)
I1129 07:53:56.551590  1125 net.cpp:165] Memory required for data: 88998000
I1129 07:53:56.551597  1125 layer_factory.hpp:77] Creating layer relu1
I1129 07:53:56.551602  1125 net.cpp:100] Creating Layer relu1
I1129 07:53:56.551604  1125 net.cpp:434] relu1 <- conv1
I1129 07:53:56.551606  1125 net.cpp:395] relu1 -> conv1 (in-place)
I1129 07:53:56.551708  1125 net.cpp:150] Setting up relu1
I1129 07:53:56.551713  1125 net.cpp:157] Top shape: 50 96 55 55 (14520000)
I1129 07:53:56.551715  1125 net.cpp:165] Memory required for data: 147078000
I1129 07:53:56.551717  1125 layer_factory.hpp:77] Creating layer pool1
I1129 07:53:56.551723  1125 net.cpp:100] Creating Layer pool1
I1129 07:53:56.551725  1125 net.cpp:434] pool1 <- conv1
I1129 07:53:56.551728  1125 net.cpp:408] pool1 -> pool1
I1129 07:53:56.551756  1125 net.cpp:150] Setting up pool1
I1129 07:53:56.551760  1125 net.cpp:157] Top shape: 50 96 27 27 (3499200)
I1129 07:53:56.551761  1125 net.cpp:165] Memory required for data: 161074800
I1129 07:53:56.551764  1125 layer_factory.hpp:77] Creating layer norm1
I1129 07:53:56.551766  1125 net.cpp:100] Creating Layer norm1
I1129 07:53:56.551769  1125 net.cpp:434] norm1 <- pool1
I1129 07:53:56.551772  1125 net.cpp:408] norm1 -> norm1
I1129 07:53:56.551899  1125 net.cpp:150] Setting up norm1
I1129 07:53:56.551904  1125 net.cpp:157] Top shape: 50 96 27 27 (3499200)
I1129 07:53:56.551906  1125 net.cpp:165] Memory required for data: 175071600
I1129 07:53:56.551908  1125 layer_factory.hpp:77] Creating layer conv2
I1129 07:53:56.551914  1125 net.cpp:100] Creating Layer conv2
I1129 07:53:56.551916  1125 net.cpp:434] conv2 <- norm1
I1129 07:53:56.551920  1125 net.cpp:408] conv2 -> conv2
I1129 07:53:56.554854  1125 net.cpp:150] Setting up conv2
I1129 07:53:56.554873  1125 net.cpp:157] Top shape: 50 256 27 27 (9331200)
I1129 07:53:56.554877  1125 net.cpp:165] Memory required for data: 212396400
I1129 07:53:56.554883  1125 layer_factory.hpp:77] Creating layer relu2
I1129 07:53:56.554886  1125 net.cpp:100] Creating Layer relu2
I1129 07:53:56.554889  1125 net.cpp:434] relu2 <- conv2
I1129 07:53:56.554893  1125 net.cpp:395] relu2 -> conv2 (in-place)
I1129 07:53:56.555155  1125 net.cpp:150] Setting up relu2
I1129 07:53:56.555161  1125 net.cpp:157] Top shape: 50 256 27 27 (9331200)
I1129 07:53:56.555163  1125 net.cpp:165] Memory required for data: 249721200
I1129 07:53:56.555166  1125 layer_factory.hpp:77] Creating layer pool2
I1129 07:53:56.555171  1125 net.cpp:100] Creating Layer pool2
I1129 07:53:56.555172  1125 net.cpp:434] pool2 <- conv2
I1129 07:53:56.555176  1125 net.cpp:408] pool2 -> pool2
I1129 07:53:56.555202  1125 net.cpp:150] Setting up pool2
I1129 07:53:56.555207  1125 net.cpp:157] Top shape: 50 256 13 13 (2163200)
I1129 07:53:56.555209  1125 net.cpp:165] Memory required for data: 258374000
I1129 07:53:56.555212  1125 layer_factory.hpp:77] Creating layer norm2
I1129 07:53:56.555214  1125 net.cpp:100] Creating Layer norm2
I1129 07:53:56.555217  1125 net.cpp:434] norm2 <- pool2
I1129 07:53:56.555219  1125 net.cpp:408] norm2 -> norm2
I1129 07:53:56.555332  1125 net.cpp:150] Setting up norm2
I1129 07:53:56.555337  1125 net.cpp:157] Top shape: 50 256 13 13 (2163200)
I1129 07:53:56.555341  1125 net.cpp:165] Memory required for data: 267026800
I1129 07:53:56.555341  1125 layer_factory.hpp:77] Creating layer conv3
I1129 07:53:56.555346  1125 net.cpp:100] Creating Layer conv3
I1129 07:53:56.555348  1125 net.cpp:434] conv3 <- norm2
I1129 07:53:56.555352  1125 net.cpp:408] conv3 -> conv3
I1129 07:53:56.562264  1125 net.cpp:150] Setting up conv3
I1129 07:53:56.562278  1125 net.cpp:157] Top shape: 50 384 13 13 (3244800)
I1129 07:53:56.562279  1125 net.cpp:165] Memory required for data: 280006000
I1129 07:53:56.562288  1125 layer_factory.hpp:77] Creating layer relu3
I1129 07:53:56.562292  1125 net.cpp:100] Creating Layer relu3
I1129 07:53:56.562295  1125 net.cpp:434] relu3 <- conv3
I1129 07:53:56.562299  1125 net.cpp:395] relu3 -> conv3 (in-place)
I1129 07:53:56.562404  1125 net.cpp:150] Setting up relu3
I1129 07:53:56.562409  1125 net.cpp:157] Top shape: 50 384 13 13 (3244800)
I1129 07:53:56.562410  1125 net.cpp:165] Memory required for data: 292985200
I1129 07:53:56.562412  1125 layer_factory.hpp:77] Creating layer conv4
I1129 07:53:56.562418  1125 net.cpp:100] Creating Layer conv4
I1129 07:53:56.562420  1125 net.cpp:434] conv4 <- conv3
I1129 07:53:56.562423  1125 net.cpp:408] conv4 -> conv4
I1129 07:53:56.568356  1125 net.cpp:150] Setting up conv4
I1129 07:53:56.568367  1125 net.cpp:157] Top shape: 50 384 13 13 (3244800)
I1129 07:53:56.568369  1125 net.cpp:165] Memory required for data: 305964400
I1129 07:53:56.568373  1125 layer_factory.hpp:77] Creating layer relu4
I1129 07:53:56.568378  1125 net.cpp:100] Creating Layer relu4
I1129 07:53:56.568380  1125 net.cpp:434] relu4 <- conv4
I1129 07:53:56.568384  1125 net.cpp:395] relu4 -> conv4 (in-place)
I1129 07:53:56.568496  1125 net.cpp:150] Setting up relu4
I1129 07:53:56.568502  1125 net.cpp:157] Top shape: 50 384 13 13 (3244800)
I1129 07:53:56.568505  1125 net.cpp:165] Memory required for data: 318943600
I1129 07:53:56.568506  1125 layer_factory.hpp:77] Creating layer conv5
I1129 07:53:56.568511  1125 net.cpp:100] Creating Layer conv5
I1129 07:53:56.568512  1125 net.cpp:434] conv5 <- conv4
I1129 07:53:56.568516  1125 net.cpp:408] conv5 -> conv5
I1129 07:53:56.572924  1125 net.cpp:150] Setting up conv5
I1129 07:53:56.572937  1125 net.cpp:157] Top shape: 50 256 13 13 (2163200)
I1129 07:53:56.572939  1125 net.cpp:165] Memory required for data: 327596400
I1129 07:53:56.572947  1125 layer_factory.hpp:77] Creating layer relu5
I1129 07:53:56.572953  1125 net.cpp:100] Creating Layer relu5
I1129 07:53:56.572955  1125 net.cpp:434] relu5 <- conv5
I1129 07:53:56.572957  1125 net.cpp:395] relu5 -> conv5 (in-place)
I1129 07:53:56.573079  1125 net.cpp:150] Setting up relu5
I1129 07:53:56.573084  1125 net.cpp:157] Top shape: 50 256 13 13 (2163200)
I1129 07:53:56.573086  1125 net.cpp:165] Memory required for data: 336249200
I1129 07:53:56.573088  1125 layer_factory.hpp:77] Creating layer pool5
I1129 07:53:56.573094  1125 net.cpp:100] Creating Layer pool5
I1129 07:53:56.573096  1125 net.cpp:434] pool5 <- conv5
I1129 07:53:56.573099  1125 net.cpp:408] pool5 -> pool5
I1129 07:53:56.573127  1125 net.cpp:150] Setting up pool5
I1129 07:53:56.573132  1125 net.cpp:157] Top shape: 50 256 6 6 (460800)
I1129 07:53:56.573133  1125 net.cpp:165] Memory required for data: 338092400
I1129 07:53:56.573134  1125 layer_factory.hpp:77] Creating layer fc6
I1129 07:53:56.573138  1125 net.cpp:100] Creating Layer fc6
I1129 07:53:56.573140  1125 net.cpp:434] fc6 <- pool5
I1129 07:53:56.573143  1125 net.cpp:408] fc6 -> fc6
I1129 07:53:56.826964  1125 net.cpp:150] Setting up fc6
I1129 07:53:56.826980  1125 net.cpp:157] Top shape: 50 4096 (204800)
I1129 07:53:56.826982  1125 net.cpp:165] Memory required for data: 338911600
I1129 07:53:56.826988  1125 layer_factory.hpp:77] Creating layer relu6
I1129 07:53:56.826993  1125 net.cpp:100] Creating Layer relu6
I1129 07:53:56.826995  1125 net.cpp:434] relu6 <- fc6
I1129 07:53:56.827000  1125 net.cpp:395] relu6 -> fc6 (in-place)
I1129 07:53:56.827158  1125 net.cpp:150] Setting up relu6
I1129 07:53:56.827163  1125 net.cpp:157] Top shape: 50 4096 (204800)
I1129 07:53:56.827165  1125 net.cpp:165] Memory required for data: 339730800
I1129 07:53:56.827167  1125 layer_factory.hpp:77] Creating layer drop6
I1129 07:53:56.827172  1125 net.cpp:100] Creating Layer drop6
I1129 07:53:56.827172  1125 net.cpp:434] drop6 <- fc6
I1129 07:53:56.827175  1125 net.cpp:395] drop6 -> fc6 (in-place)
I1129 07:53:56.827194  1125 net.cpp:150] Setting up drop6
I1129 07:53:56.827196  1125 net.cpp:157] Top shape: 50 4096 (204800)
I1129 07:53:56.827198  1125 net.cpp:165] Memory required for data: 340550000
I1129 07:53:56.827199  1125 layer_factory.hpp:77] Creating layer fc7
I1129 07:53:56.827205  1125 net.cpp:100] Creating Layer fc7
I1129 07:53:56.827208  1125 net.cpp:434] fc7 <- fc6
I1129 07:53:56.827211  1125 net.cpp:408] fc7 -> fc7
I1129 07:53:56.940153  1125 net.cpp:150] Setting up fc7
I1129 07:53:56.940170  1125 net.cpp:157] Top shape: 50 4096 (204800)
I1129 07:53:56.940171  1125 net.cpp:165] Memory required for data: 341369200
I1129 07:53:56.940177  1125 layer_factory.hpp:77] Creating layer relu7
I1129 07:53:56.940182  1125 net.cpp:100] Creating Layer relu7
I1129 07:53:56.940186  1125 net.cpp:434] relu7 <- fc7
I1129 07:53:56.940189  1125 net.cpp:395] relu7 -> fc7 (in-place)
I1129 07:53:56.940585  1125 net.cpp:150] Setting up relu7
I1129 07:53:56.940593  1125 net.cpp:157] Top shape: 50 4096 (204800)
I1129 07:53:56.940594  1125 net.cpp:165] Memory required for data: 342188400
I1129 07:53:56.940596  1125 layer_factory.hpp:77] Creating layer drop7
I1129 07:53:56.940600  1125 net.cpp:100] Creating Layer drop7
I1129 07:53:56.940601  1125 net.cpp:434] drop7 <- fc7
I1129 07:53:56.940605  1125 net.cpp:395] drop7 -> fc7 (in-place)
I1129 07:53:56.940626  1125 net.cpp:150] Setting up drop7
I1129 07:53:56.940629  1125 net.cpp:157] Top shape: 50 4096 (204800)
I1129 07:53:56.940631  1125 net.cpp:165] Memory required for data: 343007600
I1129 07:53:56.940634  1125 layer_factory.hpp:77] Creating layer fc8-cats-dogs
I1129 07:53:56.940637  1125 net.cpp:100] Creating Layer fc8-cats-dogs
I1129 07:53:56.940639  1125 net.cpp:434] fc8-cats-dogs <- fc7
I1129 07:53:56.940642  1125 net.cpp:408] fc8-cats-dogs -> fc8-cats-dogs
I1129 07:53:56.940817  1125 net.cpp:150] Setting up fc8-cats-dogs
I1129 07:53:56.940820  1125 net.cpp:157] Top shape: 50 4 (200)
I1129 07:53:56.940822  1125 net.cpp:165] Memory required for data: 343008400
I1129 07:53:56.940825  1125 layer_factory.hpp:77] Creating layer fc8-cats-dogs_fc8-cats-dogs_0_split
I1129 07:53:56.940829  1125 net.cpp:100] Creating Layer fc8-cats-dogs_fc8-cats-dogs_0_split
I1129 07:53:56.940831  1125 net.cpp:434] fc8-cats-dogs_fc8-cats-dogs_0_split <- fc8-cats-dogs
I1129 07:53:56.940843  1125 net.cpp:408] fc8-cats-dogs_fc8-cats-dogs_0_split -> fc8-cats-dogs_fc8-cats-dogs_0_split_0
I1129 07:53:56.940847  1125 net.cpp:408] fc8-cats-dogs_fc8-cats-dogs_0_split -> fc8-cats-dogs_fc8-cats-dogs_0_split_1
I1129 07:53:56.940870  1125 net.cpp:150] Setting up fc8-cats-dogs_fc8-cats-dogs_0_split
I1129 07:53:56.940873  1125 net.cpp:157] Top shape: 50 4 (200)
I1129 07:53:56.940876  1125 net.cpp:157] Top shape: 50 4 (200)
I1129 07:53:56.940876  1125 net.cpp:165] Memory required for data: 343010000
I1129 07:53:56.940878  1125 layer_factory.hpp:77] Creating layer accuracy
I1129 07:53:56.940882  1125 net.cpp:100] Creating Layer accuracy
I1129 07:53:56.940883  1125 net.cpp:434] accuracy <- fc8-cats-dogs_fc8-cats-dogs_0_split_0
I1129 07:53:56.940886  1125 net.cpp:434] accuracy <- label_data_1_split_0
I1129 07:53:56.940889  1125 net.cpp:408] accuracy -> accuracy
…
