…
I1129 07:41:58.751929   495 net.cpp:322] The NetState phase (0) differed from the phase (1) specified by a rule in layer accuracy
I1129 07:41:58.752027   495 net.cpp:58] Initializing net from parameters: 
name: "CaffeNet"
state {
  phase: TRAIN
  level: 0
  stage: ""
}
layer {
  name: "data"
  type: "Data"
  top: "data"
  top: "label"
  include {
    phase: TRAIN
  }
  transform_param {
    mirror: true
    crop_size: 227
    mean_file: "/home/ai/large/input/100-web/croporg/mean227x227.binaryproto"
  }
  data_param {
    source: "/home/ai/large/input/100-web/croporg/train227x227_lmdb"
    batch_size: 210
    backend: LMDB
  }
}
layer {
  name: "conv1"
  type: "Convolution"
  bottom: "data"
  top: "conv1"
  param {
    lr_mult: 1
    decay_mult: 1
  }
  param {
    lr_mult: 2
    decay_mult: 0
  }
  convolution_param {
    num_output: 96
    kernel_size: 11
    stride: 4
    weight_filler {
      type: "gaussian"
      std: 0.01
    }
    bias_filler {
      type: "constant"
      value: 0
    }
  }
}
layer {
  name: "relu1"
  type: "ReLU"
  bottom: "conv1"
  top: "conv1"
}
layer {
  name: "pool1"
  type: "Pooling"
  bottom: "conv1"
  top: "pool1"
  pooling_param {
    pool: MAX
    kernel_size: 3
    stride: 2
  }
}
layer {
  name: "norm1"
  type: "LRN"
  bottom: "pool1"
  top: "norm1"
  lrn_param {
    local_size: 5
    alpha: 0.0001
    beta: 0.75
  }
}
layer {
  name: "conv2"
  type: "Convolution"
  bottom: "norm1"
  top: "conv2"
  param {
    lr_mult: 1
    decay_mult: 1
  }
  param {
    lr_mult: 2
    decay_mult: 0
  }
  convolution_param {
    num_output: 256
    pad: 2
    kernel_size: 5
    group: 2
    weight_filler {
      type: "gaussian"
      std: 0.01
    }
    bias_filler {
      type: "constant"
      value: 1
    }
  }
}
layer {
  name: "relu2"
  type: "ReLU"
  bottom: "conv2"
  top: "conv2"
}
layer {
  name: "pool2"
  type: "Pooling"
  bottom: "conv2"
  top: "pool2"
  pooling_param {
    pool: MAX
    kernel_size: 3
    stride: 2
  }
}
layer {
  name: "norm2"
  type: "LRN"
  bottom: "pool2"
  top: "norm2"
  lrn_param {
    local_size: 5
    alpha: 0.0001
    beta: 0.75
  }
}
layer {
  name: "conv3"
  type: "Convolution"
  bottom: "norm2"
  top: "conv3"
  param {
    lr_mult: 1
    decay_mult: 1
  }
  param {
    lr_mult: 2
    decay_mult: 0
  }
  convolution_param {
    num_output: 384
    pad: 1
    kernel_size: 3
    weight_filler {
      type: "gaussian"
      std: 0.01
    }
    bias_filler {
      type: "constant"
      value: 0
    }
  }
}
layer {
  name: "relu3"
  type: "ReLU"
  bottom: "conv3"
  top: "conv3"
}
layer {
  name: "conv4"
  type: "Convolution"
  bottom: "conv3"
  top: "conv4"
  param {
    lr_mult: 1
    decay_mult: 1
  }
  param {
    lr_mult: 2
    decay_mult: 0
  }
  convolution_param {
    num_output: 384
    pad: 1
    kernel_size: 3
    group: 2
    weight_filler {
      type: "gaussian"
      std: 0.01
    }
    bias_filler {
      type: "constant"
      value: 1
    }
  }
}
layer {
  name: "relu4"
  type: "ReLU"
  bottom: "conv4"
  top: "conv4"
}
layer {
  name: "conv5"
  type: "Convolution"
  bottom: "conv4"
  top: "conv5"
  param {
    lr_mult: 1
    decay_mult: 1
  }
  param {
    lr_mult: 2
    decay_mult: 0
  }
  convolution_param {
    num_output: 256
    pad: 1
    kernel_size: 3
    group: 2
    weight_filler {
      type: "gaussian"
      std: 0.01
    }
    bias_filler {
      type: "constant"
      value: 1
    }
  }
}
layer {
  name: "relu5"
  type: "ReLU"
  bottom: "conv5"
  top: "conv5"
}
layer {
  name: "pool5"
  type: "Pooling"
  bottom: "conv5"
  top: "pool5"
  pooling_param {
    pool: MAX
    kernel_size: 3
    stride: 2
  }
}
layer {
  name: "fc6"
  type: "InnerProduct"
  bottom: "pool5"
  top: "fc6"
  param {
    lr_mult: 1
    decay_mult: 1
  }
  param {
    lr_mult: 2
    decay_mult: 0
  }
  inner_product_param {
    num_output: 4096
    weight_filler {
      type: "gaussian"
      std: 0.005
    }
    bias_filler {
      type: "constant"
      value: 1
    }
  }
}
layer {
  name: "relu6"
  type: "ReLU"
  bottom: "fc6"
  top: "fc6"
}
layer {
  name: "drop6"
  type: "Dropout"
  bottom: "fc6"
  top: "fc6"
  dropout_param {
    dropout_ratio: 0.5
  }
}
layer {
  name: "fc7"
  type: "InnerProduct"
  bottom: "fc6"
  top: "fc7"
  param {
    lr_mult: 1
    decay_mult: 1
  }
  param {
    lr_mult: 2
    decay_mult: 0
  }
  inner_product_param {
    num_output: 4096
    weight_filler {
      type: "gaussian"
      std: 0.005
    }
    bias_filler {
      type: "constant"
      value: 1
    }
  }
}
layer {
  name: "relu7"
  type: "ReLU"
  bottom: "fc7"
  top: "fc7"
}
layer {
  name: "drop7"
  type: "Dropout"
  bottom: "fc7"
  top: "fc7"
  dropout_param {
    dropout_ratio: 0.5
  }
}
layer {
  name: "fc8-cats-dogs"
  type: "InnerProduct"
  bottom: "fc7"
  top: "fc8-cats-dogs"
  param {
    lr_mult: 10
    decay_mult: 1
  }
  param {
    lr_mult: 20
    decay_mult: 0
  }
  inner_product_param {
    num_output: 4
    weight_filler {
      type: "gaussian"
      std: 0.01
    }
    bias_filler {
      type: "constant"
      value: 0
    }
  }
}
layer {
  name: "loss"
  type: "SoftmaxWithLoss"
  bottom: "fc8-cats-dogs"
  bottom: "label"
  top: "loss"
}
I1129 07:41:58.752089   495 layer_factory.hpp:77] Creating layer data
I1129 07:41:58.752647   495 net.cpp:100] Creating Layer data
I1129 07:41:58.752655   495 net.cpp:408] data -> data
I1129 07:41:58.752674   495 net.cpp:408] data -> label
I1129 07:41:58.752683   495 data_transformer.cpp:25] Loading mean file from: /home/ai/large/input/100-web/croporg/mean227x227.binaryproto
I1129 07:41:58.841760   503 db_lmdb.cpp:35] Opened lmdb /home/ai/large/input/100-web/croporg/train227x227_lmdb
I1129 07:41:58.859931   495 data_layer.cpp:41] output data size: 210,3,227,227
I1129 07:41:58.983450   495 net.cpp:150] Setting up data
I1129 07:41:58.983469   495 net.cpp:157] Top shape: 210 3 227 227 (32463270)
I1129 07:41:58.983471   495 net.cpp:157] Top shape: 210 (210)
I1129 07:41:58.983472   495 net.cpp:165] Memory required for data: 129853920
I1129 07:41:58.983480   495 layer_factory.hpp:77] Creating layer conv1
I1129 07:41:58.983495   495 net.cpp:100] Creating Layer conv1
I1129 07:41:58.983500   495 net.cpp:434] conv1 <- data
I1129 07:41:58.983511   495 net.cpp:408] conv1 -> conv1
I1129 07:41:59.027884   506 blocking_queue.cpp:50] Waiting for data
I1129 07:41:59.132975   495 net.cpp:150] Setting up conv1
I1129 07:41:59.132992   495 net.cpp:157] Top shape: 210 96 55 55 (60984000)
I1129 07:41:59.132994   495 net.cpp:165] Memory required for data: 373789920
I1129 07:41:59.133010   495 layer_factory.hpp:77] Creating layer relu1
I1129 07:41:59.133019   495 net.cpp:100] Creating Layer relu1
I1129 07:41:59.133021   495 net.cpp:434] relu1 <- conv1
I1129 07:41:59.133025   495 net.cpp:395] relu1 -> conv1 (in-place)
I1129 07:41:59.133152   495 net.cpp:150] Setting up relu1
I1129 07:41:59.133158   495 net.cpp:157] Top shape: 210 96 55 55 (60984000)
I1129 07:41:59.133159   495 net.cpp:165] Memory required for data: 617725920
I1129 07:41:59.133162   495 layer_factory.hpp:77] Creating layer pool1
I1129 07:41:59.133165   495 net.cpp:100] Creating Layer pool1
I1129 07:41:59.133167   495 net.cpp:434] pool1 <- conv1
I1129 07:41:59.133170   495 net.cpp:408] pool1 -> pool1
I1129 07:41:59.133205   495 net.cpp:150] Setting up pool1
I1129 07:41:59.133209   495 net.cpp:157] Top shape: 210 96 27 27 (14696640)
I1129 07:41:59.133224   495 net.cpp:165] Memory required for data: 676512480
I1129 07:41:59.133226   495 layer_factory.hpp:77] Creating layer norm1
I1129 07:41:59.133232   495 net.cpp:100] Creating Layer norm1
I1129 07:41:59.133234   495 net.cpp:434] norm1 <- pool1
I1129 07:41:59.133237   495 net.cpp:408] norm1 -> norm1
I1129 07:41:59.133514   495 net.cpp:150] Setting up norm1
I1129 07:41:59.133522   495 net.cpp:157] Top shape: 210 96 27 27 (14696640)
I1129 07:41:59.133523   495 net.cpp:165] Memory required for data: 735299040
I1129 07:41:59.133525   495 layer_factory.hpp:77] Creating layer conv2
I1129 07:41:59.133533   495 net.cpp:100] Creating Layer conv2
I1129 07:41:59.133534   495 net.cpp:434] conv2 <- norm1
I1129 07:41:59.133538   495 net.cpp:408] conv2 -> conv2
I1129 07:41:59.136693   495 net.cpp:150] Setting up conv2
I1129 07:41:59.136703   495 net.cpp:157] Top shape: 210 256 27 27 (39191040)
I1129 07:41:59.136704   495 net.cpp:165] Memory required for data: 892063200
I1129 07:41:59.136711   495 layer_factory.hpp:77] Creating layer relu2
I1129 07:41:59.136715   495 net.cpp:100] Creating Layer relu2
I1129 07:41:59.136718   495 net.cpp:434] relu2 <- conv2
I1129 07:41:59.136721   495 net.cpp:395] relu2 -> conv2 (in-place)
I1129 07:41:59.136970   495 net.cpp:150] Setting up relu2
I1129 07:41:59.136976   495 net.cpp:157] Top shape: 210 256 27 27 (39191040)
I1129 07:41:59.136978   495 net.cpp:165] Memory required for data: 1048827360
I1129 07:41:59.136981   495 layer_factory.hpp:77] Creating layer pool2
I1129 07:41:59.136983   495 net.cpp:100] Creating Layer pool2
I1129 07:41:59.136986   495 net.cpp:434] pool2 <- conv2
I1129 07:41:59.136988   495 net.cpp:408] pool2 -> pool2
I1129 07:41:59.137012   495 net.cpp:150] Setting up pool2
I1129 07:41:59.137017   495 net.cpp:157] Top shape: 210 256 13 13 (9085440)
I1129 07:41:59.137018   495 net.cpp:165] Memory required for data: 1085169120
I1129 07:41:59.137019   495 layer_factory.hpp:77] Creating layer norm2
I1129 07:41:59.137023   495 net.cpp:100] Creating Layer norm2
I1129 07:41:59.137027   495 net.cpp:434] norm2 <- pool2
I1129 07:41:59.137028   495 net.cpp:408] norm2 -> norm2
I1129 07:41:59.137133   495 net.cpp:150] Setting up norm2
I1129 07:41:59.137137   495 net.cpp:157] Top shape: 210 256 13 13 (9085440)
I1129 07:41:59.137140   495 net.cpp:165] Memory required for data: 1121510880
I1129 07:41:59.137141   495 layer_factory.hpp:77] Creating layer conv3
I1129 07:41:59.137146   495 net.cpp:100] Creating Layer conv3
I1129 07:41:59.137147   495 net.cpp:434] conv3 <- norm2
I1129 07:41:59.137151   495 net.cpp:408] conv3 -> conv3
I1129 07:41:59.144004   495 net.cpp:150] Setting up conv3
I1129 07:41:59.144021   495 net.cpp:157] Top shape: 210 384 13 13 (13628160)
I1129 07:41:59.144022   495 net.cpp:165] Memory required for data: 1176023520
I1129 07:41:59.144032   495 layer_factory.hpp:77] Creating layer relu3
I1129 07:41:59.144038   495 net.cpp:100] Creating Layer relu3
I1129 07:41:59.144042   495 net.cpp:434] relu3 <- conv3
I1129 07:41:59.144045   495 net.cpp:395] relu3 -> conv3 (in-place)
I1129 07:41:59.144147   495 net.cpp:150] Setting up relu3
I1129 07:41:59.144151   495 net.cpp:157] Top shape: 210 384 13 13 (13628160)
I1129 07:41:59.144153   495 net.cpp:165] Memory required for data: 1230536160
I1129 07:41:59.144155   495 layer_factory.hpp:77] Creating layer conv4
I1129 07:41:59.144162   495 net.cpp:100] Creating Layer conv4
I1129 07:41:59.144165   495 net.cpp:434] conv4 <- conv3
I1129 07:41:59.144167   495 net.cpp:408] conv4 -> conv4
I1129 07:41:59.149900   495 net.cpp:150] Setting up conv4
I1129 07:41:59.149914   495 net.cpp:157] Top shape: 210 384 13 13 (13628160)
I1129 07:41:59.149915   495 net.cpp:165] Memory required for data: 1285048800
I1129 07:41:59.149920   495 layer_factory.hpp:77] Creating layer relu4
I1129 07:41:59.149925   495 net.cpp:100] Creating Layer relu4
I1129 07:41:59.149929   495 net.cpp:434] relu4 <- conv4
I1129 07:41:59.149931   495 net.cpp:395] relu4 -> conv4 (in-place)
I1129 07:41:59.150033   495 net.cpp:150] Setting up relu4
I1129 07:41:59.150038   495 net.cpp:157] Top shape: 210 384 13 13 (13628160)
I1129 07:41:59.150053   495 net.cpp:165] Memory required for data: 1339561440
I1129 07:41:59.150054   495 layer_factory.hpp:77] Creating layer conv5
I1129 07:41:59.150060   495 net.cpp:100] Creating Layer conv5
I1129 07:41:59.150063   495 net.cpp:434] conv5 <- conv4
I1129 07:41:59.150065   495 net.cpp:408] conv5 -> conv5
I1129 07:41:59.154386   495 net.cpp:150] Setting up conv5
I1129 07:41:59.154398   495 net.cpp:157] Top shape: 210 256 13 13 (9085440)
I1129 07:41:59.154400   495 net.cpp:165] Memory required for data: 1375903200
I1129 07:41:59.154409   495 layer_factory.hpp:77] Creating layer relu5
I1129 07:41:59.154415   495 net.cpp:100] Creating Layer relu5
I1129 07:41:59.154417   495 net.cpp:434] relu5 <- conv5
I1129 07:41:59.154422   495 net.cpp:395] relu5 -> conv5 (in-place)
I1129 07:41:59.154526   495 net.cpp:150] Setting up relu5
I1129 07:41:59.154532   495 net.cpp:157] Top shape: 210 256 13 13 (9085440)
I1129 07:41:59.154534   495 net.cpp:165] Memory required for data: 1412244960
I1129 07:41:59.154536   495 layer_factory.hpp:77] Creating layer pool5
I1129 07:41:59.154539   495 net.cpp:100] Creating Layer pool5
I1129 07:41:59.154541   495 net.cpp:434] pool5 <- conv5
I1129 07:41:59.154544   495 net.cpp:408] pool5 -> pool5
I1129 07:41:59.154572   495 net.cpp:150] Setting up pool5
I1129 07:41:59.154577   495 net.cpp:157] Top shape: 210 256 6 6 (1935360)
I1129 07:41:59.154579   495 net.cpp:165] Memory required for data: 1419986400
I1129 07:41:59.154580   495 layer_factory.hpp:77] Creating layer fc6
I1129 07:41:59.154587   495 net.cpp:100] Creating Layer fc6
I1129 07:41:59.154589   495 net.cpp:434] fc6 <- pool5
I1129 07:41:59.154592   495 net.cpp:408] fc6 -> fc6
I1129 07:41:59.409015   495 net.cpp:150] Setting up fc6
I1129 07:41:59.409030   495 net.cpp:157] Top shape: 210 4096 (860160)
I1129 07:41:59.409034   495 net.cpp:165] Memory required for data: 1423427040
I1129 07:41:59.409039   495 layer_factory.hpp:77] Creating layer relu6
I1129 07:41:59.409044   495 net.cpp:100] Creating Layer relu6
I1129 07:41:59.409046   495 net.cpp:434] relu6 <- fc6
I1129 07:41:59.409054   495 net.cpp:395] relu6 -> fc6 (in-place)
I1129 07:41:59.409211   495 net.cpp:150] Setting up relu6
I1129 07:41:59.409216   495 net.cpp:157] Top shape: 210 4096 (860160)
I1129 07:41:59.409219   495 net.cpp:165] Memory required for data: 1426867680
I1129 07:41:59.409220   495 layer_factory.hpp:77] Creating layer drop6
I1129 07:41:59.409224   495 net.cpp:100] Creating Layer drop6
I1129 07:41:59.409226   495 net.cpp:434] drop6 <- fc6
I1129 07:41:59.409229   495 net.cpp:395] drop6 -> fc6 (in-place)
I1129 07:41:59.409251   495 net.cpp:150] Setting up drop6
I1129 07:41:59.409255   495 net.cpp:157] Top shape: 210 4096 (860160)
I1129 07:41:59.409257   495 net.cpp:165] Memory required for data: 1430308320
I1129 07:41:59.409258   495 layer_factory.hpp:77] Creating layer fc7
I1129 07:41:59.409263   495 net.cpp:100] Creating Layer fc7
I1129 07:41:59.409265   495 net.cpp:434] fc7 <- fc6
I1129 07:41:59.409267   495 net.cpp:408] fc7 -> fc7
I1129 07:41:59.523353   495 net.cpp:150] Setting up fc7
I1129 07:41:59.523368   495 net.cpp:157] Top shape: 210 4096 (860160)
I1129 07:41:59.523370   495 net.cpp:165] Memory required for data: 1433748960
I1129 07:41:59.523376   495 layer_factory.hpp:77] Creating layer relu7
I1129 07:41:59.523382   495 net.cpp:100] Creating Layer relu7
I1129 07:41:59.523385   495 net.cpp:434] relu7 <- fc7
I1129 07:41:59.523389   495 net.cpp:395] relu7 -> fc7 (in-place)
I1129 07:41:59.523766   495 net.cpp:150] Setting up relu7
I1129 07:41:59.523773   495 net.cpp:157] Top shape: 210 4096 (860160)
I1129 07:41:59.523775   495 net.cpp:165] Memory required for data: 1437189600
I1129 07:41:59.523777   495 layer_factory.hpp:77] Creating layer drop7
I1129 07:41:59.523782   495 net.cpp:100] Creating Layer drop7
I1129 07:41:59.523782   495 net.cpp:434] drop7 <- fc7
I1129 07:41:59.523787   495 net.cpp:395] drop7 -> fc7 (in-place)
I1129 07:41:59.523808   495 net.cpp:150] Setting up drop7
I1129 07:41:59.523813   495 net.cpp:157] Top shape: 210 4096 (860160)
I1129 07:41:59.523824   495 net.cpp:165] Memory required for data: 1440630240
I1129 07:41:59.523828   495 layer_factory.hpp:77] Creating layer fc8-cats-dogs
I1129 07:41:59.523831   495 net.cpp:100] Creating Layer fc8-cats-dogs
I1129 07:41:59.523833   495 net.cpp:434] fc8-cats-dogs <- fc7
I1129 07:41:59.523838   495 net.cpp:408] fc8-cats-dogs -> fc8-cats-dogs
I1129 07:41:59.524485   495 net.cpp:150] Setting up fc8-cats-dogs
I1129 07:41:59.524493   495 net.cpp:157] Top shape: 210 4 (840)
I1129 07:41:59.524495   495 net.cpp:165] Memory required for data: 1440633600
I1129 07:41:59.524500   495 layer_factory.hpp:77] Creating layer loss
I1129 07:41:59.524504   495 net.cpp:100] Creating Layer loss
I1129 07:41:59.524507   495 net.cpp:434] loss <- fc8-cats-dogs
I1129 07:41:59.524509   495 net.cpp:434] loss <- label
I1129 07:41:59.524515   495 net.cpp:408] loss -> loss
I1129 07:41:59.524526   495 layer_factory.hpp:77] Creating layer loss
…
I1129 07:41:59.524979   495 net.cpp:322] The NetState phase (1) differed from the phase (0) specified by a rule in layer data
I1129 07:41:59.525079   495 net.cpp:58] Initializing net from parameters: 
name: "CaffeNet"
state {
  phase: TEST
}
layer {
  name: "data"
  type: "Data"
  top: "data"
  top: "label"
  include {
    phase: TEST
  }
  transform_param {
    mirror: false
    crop_size: 227
    mean_file: "/home/ai/large/input/100-web/croporg/mean227x227.binaryproto"
  }
  data_param {
    source: "/home/ai/large/input/100-web/croporg/validation227x227_lmdb"
    batch_size: 50
    backend: LMDB
  }
}
layer {
  name: "conv1"
  type: "Convolution"
  bottom: "data"
  top: "conv1"
  param {
    lr_mult: 1
    decay_mult: 1
  }
  param {
    lr_mult: 2
    decay_mult: 0
  }
  convolution_param {
    num_output: 96
    kernel_size: 11
    stride: 4
    weight_filler {
      type: "gaussian"
      std: 0.01
    }
    bias_filler {
      type: "constant"
      value: 0
    }
  }
}
layer {
  name: "relu1"
  type: "ReLU"
  bottom: "conv1"
  top: "conv1"
}
layer {
  name: "pool1"
  type: "Pooling"
  bottom: "conv1"
  top: "pool1"
  pooling_param {
    pool: MAX
    kernel_size: 3
    stride: 2
  }
}
layer {
  name: "norm1"
  type: "LRN"
  bottom: "pool1"
  top: "norm1"
  lrn_param {
    local_size: 5
    alpha: 0.0001
    beta: 0.75
  }
}
layer {
  name: "conv2"
  type: "Convolution"
  bottom: "norm1"
  top: "conv2"
  param {
    lr_mult: 1
    decay_mult: 1
  }
  param {
    lr_mult: 2
    decay_mult: 0
  }
  convolution_param {
    num_output: 256
    pad: 2
    kernel_size: 5
    group: 2
    weight_filler {
      type: "gaussian"
      std: 0.01
    }
    bias_filler {
      type: "constant"
      value: 1
    }
  }
}
layer {
  name: "relu2"
  type: "ReLU"
  bottom: "conv2"
  top: "conv2"
}
layer {
  name: "pool2"
  type: "Pooling"
  bottom: "conv2"
  top: "pool2"
  pooling_param {
    pool: MAX
    kernel_size: 3
    stride: 2
  }
}
layer {
  name: "norm2"
  type: "LRN"
  bottom: "pool2"
  top: "norm2"
  lrn_param {
    local_size: 5
    alpha: 0.0001
    beta: 0.75
  }
}
layer {
  name: "conv3"
  type: "Convolution"
  bottom: "norm2"
  top: "conv3"
  param {
    lr_mult: 1
    decay_mult: 1
  }
  param {
    lr_mult: 2
    decay_mult: 0
  }
  convolution_param {
    num_output: 384
    pad: 1
    kernel_size: 3
    weight_filler {
      type: "gaussian"
      std: 0.01
    }
    bias_filler {
      type: "constant"
      value: 0
    }
  }
}
layer {
  name: "relu3"
  type: "ReLU"
  bottom: "conv3"
  top: "conv3"
}
layer {
  name: "conv4"
  type: "Convolution"
  bottom: "conv3"
  top: "conv4"
  param {
    lr_mult: 1
    decay_mult: 1
  }
  param {
    lr_mult: 2
    decay_mult: 0
  }
  convolution_param {
    num_output: 384
    pad: 1
    kernel_size: 3
    group: 2
    weight_filler {
      type: "gaussian"
      std: 0.01
    }
    bias_filler {
      type: "constant"
      value: 1
    }
  }
}
layer {
  name: "relu4"
  type: "ReLU"
  bottom: "conv4"
  top: "conv4"
}
layer {
  name: "conv5"
  type: "Convolution"
  bottom: "conv4"
  top: "conv5"
  param {
    lr_mult: 1
    decay_mult: 1
  }
  param {
    lr_mult: 2
    decay_mult: 0
  }
  convolution_param {
    num_output: 256
    pad: 1
    kernel_size: 3
    group: 2
    weight_filler {
      type: "gaussian"
      std: 0.01
    }
    bias_filler {
      type: "constant"
      value: 1
    }
  }
}
layer {
  name: "relu5"
  type: "ReLU"
  bottom: "conv5"
  top: "conv5"
}
layer {
  name: "pool5"
  type: "Pooling"
  bottom: "conv5"
  top: "pool5"
  pooling_param {
    pool: MAX
    kernel_size: 3
    stride: 2
  }
}
layer {
  name: "fc6"
  type: "InnerProduct"
  bottom: "pool5"
  top: "fc6"
  param {
    lr_mult: 1
    decay_mult: 1
  }
  param {
    lr_mult: 2
    decay_mult: 0
  }
  inner_product_param {
    num_output: 4096
    weight_filler {
      type: "gaussian"
      std: 0.005
    }
    bias_filler {
      type: "constant"
      value: 1
    }
  }
}
layer {
  name: "relu6"
  type: "ReLU"
  bottom: "fc6"
  top: "fc6"
}
layer {
  name: "drop6"
  type: "Dropout"
  bottom: "fc6"
  top: "fc6"
  dropout_param {
    dropout_ratio: 0.5
  }
}
layer {
  name: "fc7"
  type: "InnerProduct"
  bottom: "fc6"
  top: "fc7"
  param {
    lr_mult: 1
    decay_mult: 1
  }
  param {
    lr_mult: 2
    decay_mult: 0
  }
  inner_product_param {
    num_output: 4096
    weight_filler {
      type: "gaussian"
      std: 0.005
    }
    bias_filler {
      type: "constant"
      value: 1
    }
  }
}
layer {
  name: "relu7"
  type: "ReLU"
  bottom: "fc7"
  top: "fc7"
}
layer {
  name: "drop7"
  type: "Dropout"
  bottom: "fc7"
  top: "fc7"
  dropout_param {
    dropout_ratio: 0.5
  }
}
layer {
  name: "fc8-cats-dogs"
  type: "InnerProduct"
  bottom: "fc7"
  top: "fc8-cats-dogs"
  param {
    lr_mult: 10
    decay_mult: 1
  }
  param {
    lr_mult: 20
    decay_mult: 0
  }
  inner_product_param {
    num_output: 4
    weight_filler {
      type: "gaussian"
      std: 0.01
    }
    bias_filler {
      type: "constant"
      value: 0
    }
  }
}
layer {
  name: "accuracy"
  type: "Accuracy"
  bottom: "fc8-cats-dogs"
  bottom: "label"
  top: "accuracy"
  include {
    phase: TEST
  }
}
layer {
  name: "loss"
  type: "SoftmaxWithLoss"
  bottom: "fc8-cats-dogs"
  bottom: "label"
  top: "loss"
}
I1129 07:41:59.525146   495 layer_factory.hpp:77] Creating layer data
I1129 07:41:59.525202   495 net.cpp:100] Creating Layer data
I1129 07:41:59.525207   495 net.cpp:408] data -> data
I1129 07:41:59.525213   495 net.cpp:408] data -> label
I1129 07:41:59.525218   495 data_transformer.cpp:25] Loading mean file from: /home/ai/large/input/100-web/croporg/mean227x227.binaryproto
I1129 07:41:59.541736   507 db_lmdb.cpp:35] Opened lmdb /home/ai/large/input/100-web/croporg/validation227x227_lmdb
I1129 07:41:59.570338   495 data_layer.cpp:41] output data size: 50,3,227,227
I1129 07:41:59.626658   495 net.cpp:150] Setting up data
I1129 07:41:59.626674   495 net.cpp:157] Top shape: 50 3 227 227 (7729350)
I1129 07:41:59.626677   495 net.cpp:157] Top shape: 50 (50)
I1129 07:41:59.626680   495 net.cpp:165] Memory required for data: 30917600
I1129 07:41:59.626684   495 layer_factory.hpp:77] Creating layer label_data_1_split
I1129 07:41:59.626693   495 net.cpp:100] Creating Layer label_data_1_split
I1129 07:41:59.626694   495 net.cpp:434] label_data_1_split <- label
I1129 07:41:59.626700   495 net.cpp:408] label_data_1_split -> label_data_1_split_0
I1129 07:41:59.626708   495 net.cpp:408] label_data_1_split -> label_data_1_split_1
I1129 07:41:59.626808   495 net.cpp:150] Setting up label_data_1_split
I1129 07:41:59.626818   495 net.cpp:157] Top shape: 50 (50)
I1129 07:41:59.626822   495 net.cpp:157] Top shape: 50 (50)
I1129 07:41:59.626824   495 net.cpp:165] Memory required for data: 30918000
I1129 07:41:59.626827   495 layer_factory.hpp:77] Creating layer conv1
I1129 07:41:59.626834   495 net.cpp:100] Creating Layer conv1
I1129 07:41:59.626837   495 net.cpp:434] conv1 <- data
I1129 07:41:59.626842   495 net.cpp:408] conv1 -> conv1
I1129 07:41:59.630379   495 net.cpp:150] Setting up conv1
I1129 07:41:59.630390   495 net.cpp:157] Top shape: 50 96 55 55 (14520000)
I1129 07:41:59.630393   495 net.cpp:165] Memory required for data: 88998000
I1129 07:41:59.630400   495 layer_factory.hpp:77] Creating layer relu1
I1129 07:41:59.630404   495 net.cpp:100] Creating Layer relu1
I1129 07:41:59.630406   495 net.cpp:434] relu1 <- conv1
I1129 07:41:59.630409   495 net.cpp:395] relu1 -> conv1 (in-place)
I1129 07:41:59.630512   495 net.cpp:150] Setting up relu1
I1129 07:41:59.630518   495 net.cpp:157] Top shape: 50 96 55 55 (14520000)
I1129 07:41:59.630519   495 net.cpp:165] Memory required for data: 147078000
I1129 07:41:59.630522   495 layer_factory.hpp:77] Creating layer pool1
I1129 07:41:59.630527   495 net.cpp:100] Creating Layer pool1
I1129 07:41:59.630528   495 net.cpp:434] pool1 <- conv1
I1129 07:41:59.630532   495 net.cpp:408] pool1 -> pool1
I1129 07:41:59.630558   495 net.cpp:150] Setting up pool1
I1129 07:41:59.630563   495 net.cpp:157] Top shape: 50 96 27 27 (3499200)
I1129 07:41:59.630564   495 net.cpp:165] Memory required for data: 161074800
I1129 07:41:59.630565   495 layer_factory.hpp:77] Creating layer norm1
I1129 07:41:59.630570   495 net.cpp:100] Creating Layer norm1
I1129 07:41:59.630571   495 net.cpp:434] norm1 <- pool1
I1129 07:41:59.630574   495 net.cpp:408] norm1 -> norm1
I1129 07:41:59.630689   495 net.cpp:150] Setting up norm1
I1129 07:41:59.630695   495 net.cpp:157] Top shape: 50 96 27 27 (3499200)
I1129 07:41:59.630697   495 net.cpp:165] Memory required for data: 175071600
I1129 07:41:59.630699   495 layer_factory.hpp:77] Creating layer conv2
I1129 07:41:59.630704   495 net.cpp:100] Creating Layer conv2
I1129 07:41:59.630707   495 net.cpp:434] conv2 <- norm1
I1129 07:41:59.630709   495 net.cpp:408] conv2 -> conv2
I1129 07:41:59.633800   495 net.cpp:150] Setting up conv2
I1129 07:41:59.633817   495 net.cpp:157] Top shape: 50 256 27 27 (9331200)
I1129 07:41:59.633821   495 net.cpp:165] Memory required for data: 212396400
I1129 07:41:59.633827   495 layer_factory.hpp:77] Creating layer relu2
I1129 07:41:59.633831   495 net.cpp:100] Creating Layer relu2
I1129 07:41:59.633832   495 net.cpp:434] relu2 <- conv2
I1129 07:41:59.633836   495 net.cpp:395] relu2 -> conv2 (in-place)
I1129 07:41:59.634104   495 net.cpp:150] Setting up relu2
I1129 07:41:59.634110   495 net.cpp:157] Top shape: 50 256 27 27 (9331200)
I1129 07:41:59.634112   495 net.cpp:165] Memory required for data: 249721200
I1129 07:41:59.634114   495 layer_factory.hpp:77] Creating layer pool2
I1129 07:41:59.634119   495 net.cpp:100] Creating Layer pool2
I1129 07:41:59.634121   495 net.cpp:434] pool2 <- conv2
I1129 07:41:59.634124   495 net.cpp:408] pool2 -> pool2
I1129 07:41:59.634151   495 net.cpp:150] Setting up pool2
I1129 07:41:59.634156   495 net.cpp:157] Top shape: 50 256 13 13 (2163200)
I1129 07:41:59.634157   495 net.cpp:165] Memory required for data: 258374000
I1129 07:41:59.634160   495 layer_factory.hpp:77] Creating layer norm2
I1129 07:41:59.634163   495 net.cpp:100] Creating Layer norm2
I1129 07:41:59.634166   495 net.cpp:434] norm2 <- pool2
I1129 07:41:59.634167   495 net.cpp:408] norm2 -> norm2
I1129 07:41:59.634285   495 net.cpp:150] Setting up norm2
I1129 07:41:59.634290   495 net.cpp:157] Top shape: 50 256 13 13 (2163200)
I1129 07:41:59.634292   495 net.cpp:165] Memory required for data: 267026800
I1129 07:41:59.634294   495 layer_factory.hpp:77] Creating layer conv3
I1129 07:41:59.634299   495 net.cpp:100] Creating Layer conv3
I1129 07:41:59.634301   495 net.cpp:434] conv3 <- norm2
I1129 07:41:59.634305   495 net.cpp:408] conv3 -> conv3
I1129 07:41:59.641227   495 net.cpp:150] Setting up conv3
I1129 07:41:59.641242   495 net.cpp:157] Top shape: 50 384 13 13 (3244800)
I1129 07:41:59.641244   495 net.cpp:165] Memory required for data: 280006000
I1129 07:41:59.641255   495 layer_factory.hpp:77] Creating layer relu3
I1129 07:41:59.641261   495 net.cpp:100] Creating Layer relu3
I1129 07:41:59.641264   495 net.cpp:434] relu3 <- conv3
I1129 07:41:59.641268   495 net.cpp:395] relu3 -> conv3 (in-place)
I1129 07:41:59.641374   495 net.cpp:150] Setting up relu3
I1129 07:41:59.641378   495 net.cpp:157] Top shape: 50 384 13 13 (3244800)
I1129 07:41:59.641381   495 net.cpp:165] Memory required for data: 292985200
I1129 07:41:59.641381   495 layer_factory.hpp:77] Creating layer conv4
I1129 07:41:59.641388   495 net.cpp:100] Creating Layer conv4
I1129 07:41:59.641391   495 net.cpp:434] conv4 <- conv3
I1129 07:41:59.641394   495 net.cpp:408] conv4 -> conv4
I1129 07:41:59.647281   495 net.cpp:150] Setting up conv4
I1129 07:41:59.647294   495 net.cpp:157] Top shape: 50 384 13 13 (3244800)
I1129 07:41:59.647296   495 net.cpp:165] Memory required for data: 305964400
I1129 07:41:59.647302   495 layer_factory.hpp:77] Creating layer relu4
I1129 07:41:59.647307   495 net.cpp:100] Creating Layer relu4
I1129 07:41:59.647310   495 net.cpp:434] relu4 <- conv4
I1129 07:41:59.647315   495 net.cpp:395] relu4 -> conv4 (in-place)
I1129 07:41:59.647428   495 net.cpp:150] Setting up relu4
I1129 07:41:59.647433   495 net.cpp:157] Top shape: 50 384 13 13 (3244800)
I1129 07:41:59.647436   495 net.cpp:165] Memory required for data: 318943600
I1129 07:41:59.647439   495 layer_factory.hpp:77] Creating layer conv5
I1129 07:41:59.647444   495 net.cpp:100] Creating Layer conv5
I1129 07:41:59.647445   495 net.cpp:434] conv5 <- conv4
I1129 07:41:59.647449   495 net.cpp:408] conv5 -> conv5
I1129 07:41:59.651777   495 net.cpp:150] Setting up conv5
I1129 07:41:59.651787   495 net.cpp:157] Top shape: 50 256 13 13 (2163200)
I1129 07:41:59.651788   495 net.cpp:165] Memory required for data: 327596400
I1129 07:41:59.651796   495 layer_factory.hpp:77] Creating layer relu5
I1129 07:41:59.651801   495 net.cpp:100] Creating Layer relu5
I1129 07:41:59.651803   495 net.cpp:434] relu5 <- conv5
I1129 07:41:59.651806   495 net.cpp:395] relu5 -> conv5 (in-place)
I1129 07:41:59.651937   495 net.cpp:150] Setting up relu5
I1129 07:41:59.651942   495 net.cpp:157] Top shape: 50 256 13 13 (2163200)
I1129 07:41:59.651944   495 net.cpp:165] Memory required for data: 336249200
I1129 07:41:59.651947   495 layer_factory.hpp:77] Creating layer pool5
I1129 07:41:59.651952   495 net.cpp:100] Creating Layer pool5
I1129 07:41:59.651954   495 net.cpp:434] pool5 <- conv5
I1129 07:41:59.651957   495 net.cpp:408] pool5 -> pool5
I1129 07:41:59.651991   495 net.cpp:150] Setting up pool5
I1129 07:41:59.652000   495 net.cpp:157] Top shape: 50 256 6 6 (460800)
I1129 07:41:59.652001   495 net.cpp:165] Memory required for data: 338092400
I1129 07:41:59.652004   495 layer_factory.hpp:77] Creating layer fc6
I1129 07:41:59.652009   495 net.cpp:100] Creating Layer fc6
I1129 07:41:59.652010   495 net.cpp:434] fc6 <- pool5
I1129 07:41:59.652014   495 net.cpp:408] fc6 -> fc6
I1129 07:41:59.908248   495 net.cpp:150] Setting up fc6
I1129 07:41:59.908263   495 net.cpp:157] Top shape: 50 4096 (204800)
I1129 07:41:59.908265   495 net.cpp:165] Memory required for data: 338911600
I1129 07:41:59.908272   495 layer_factory.hpp:77] Creating layer relu6
I1129 07:41:59.908277   495 net.cpp:100] Creating Layer relu6
I1129 07:41:59.908279   495 net.cpp:434] relu6 <- fc6
I1129 07:41:59.908283   495 net.cpp:395] relu6 -> fc6 (in-place)
I1129 07:41:59.908444   495 net.cpp:150] Setting up relu6
I1129 07:41:59.908448   495 net.cpp:157] Top shape: 50 4096 (204800)
I1129 07:41:59.908450   495 net.cpp:165] Memory required for data: 339730800
I1129 07:41:59.908452   495 layer_factory.hpp:77] Creating layer drop6
I1129 07:41:59.908457   495 net.cpp:100] Creating Layer drop6
I1129 07:41:59.908457   495 net.cpp:434] drop6 <- fc6
I1129 07:41:59.908460   495 net.cpp:395] drop6 -> fc6 (in-place)
I1129 07:41:59.908479   495 net.cpp:150] Setting up drop6
I1129 07:41:59.908483   495 net.cpp:157] Top shape: 50 4096 (204800)
I1129 07:41:59.908484   495 net.cpp:165] Memory required for data: 340550000
I1129 07:41:59.908485   495 layer_factory.hpp:77] Creating layer fc7
I1129 07:41:59.908491   495 net.cpp:100] Creating Layer fc7
I1129 07:41:59.908493   495 net.cpp:434] fc7 <- fc6
I1129 07:41:59.908496   495 net.cpp:408] fc7 -> fc7
I1129 07:42:00.022106   495 net.cpp:150] Setting up fc7
I1129 07:42:00.022130   495 net.cpp:157] Top shape: 50 4096 (204800)
I1129 07:42:00.022131   495 net.cpp:165] Memory required for data: 341369200
I1129 07:42:00.022138   495 layer_factory.hpp:77] Creating layer relu7
I1129 07:42:00.022146   495 net.cpp:100] Creating Layer relu7
I1129 07:42:00.022150   495 net.cpp:434] relu7 <- fc7
I1129 07:42:00.022156   495 net.cpp:395] relu7 -> fc7 (in-place)
I1129 07:42:00.022667   495 net.cpp:150] Setting up relu7
I1129 07:42:00.022675   495 net.cpp:157] Top shape: 50 4096 (204800)
I1129 07:42:00.022677   495 net.cpp:165] Memory required for data: 342188400
I1129 07:42:00.022680   495 layer_factory.hpp:77] Creating layer drop7
I1129 07:42:00.022686   495 net.cpp:100] Creating Layer drop7
I1129 07:42:00.022687   495 net.cpp:434] drop7 <- fc7
I1129 07:42:00.022691   495 net.cpp:395] drop7 -> fc7 (in-place)
I1129 07:42:00.022722   495 net.cpp:150] Setting up drop7
I1129 07:42:00.022724   495 net.cpp:157] Top shape: 50 4096 (204800)
I1129 07:42:00.022727   495 net.cpp:165] Memory required for data: 343007600
I1129 07:42:00.022728   495 layer_factory.hpp:77] Creating layer fc8-cats-dogs
I1129 07:42:00.022734   495 net.cpp:100] Creating Layer fc8-cats-dogs
I1129 07:42:00.022737   495 net.cpp:434] fc8-cats-dogs <- fc7
I1129 07:42:00.022739   495 net.cpp:408] fc8-cats-dogs -> fc8-cats-dogs
I1129 07:42:00.022927   495 net.cpp:150] Setting up fc8-cats-dogs
I1129 07:42:00.022933   495 net.cpp:157] Top shape: 50 4 (200)
I1129 07:42:00.022934   495 net.cpp:165] Memory required for data: 343008400
I1129 07:42:00.022938   495 layer_factory.hpp:77] Creating layer fc8-cats-dogs_fc8-cats-dogs_0_split
I1129 07:42:00.022943   495 net.cpp:100] Creating Layer fc8-cats-dogs_fc8-cats-dogs_0_split
I1129 07:42:00.022945   495 net.cpp:434] fc8-cats-dogs_fc8-cats-dogs_0_split <- fc8-cats-dogs
I1129 07:42:00.022960   495 net.cpp:408] fc8-cats-dogs_fc8-cats-dogs_0_split -> fc8-cats-dogs_fc8-cats-dogs_0_split_0
I1129 07:42:00.022965   495 net.cpp:408] fc8-cats-dogs_fc8-cats-dogs_0_split -> fc8-cats-dogs_fc8-cats-dogs_0_split_1
I1129 07:42:00.022990   495 net.cpp:150] Setting up fc8-cats-dogs_fc8-cats-dogs_0_split
I1129 07:42:00.022994   495 net.cpp:157] Top shape: 50 4 (200)
I1129 07:42:00.022995   495 net.cpp:157] Top shape: 50 4 (200)
I1129 07:42:00.022996   495 net.cpp:165] Memory required for data: 343010000
I1129 07:42:00.023000   495 layer_factory.hpp:77] Creating layer accuracy
I1129 07:42:00.023005   495 net.cpp:100] Creating Layer accuracy
I1129 07:42:00.023006   495 net.cpp:434] accuracy <- fc8-cats-dogs_fc8-cats-dogs_0_split_0
I1129 07:42:00.023010   495 net.cpp:434] accuracy <- label_data_1_split_0
I1129 07:42:00.023012   495 net.cpp:408] accuracy -> accuracy
…
